training_output/best_agent/checkpoints/episode_637/weights_critic.pth (torch_old, 84182 bytes, 9 tensors)

fcs1.weight f4 [128, 24]
0	0x3e29088d	0.16507168
1	0x3d1733c0	0.036914587
2	0x3cff816d	0.031189645
3	0x3ed4f753	0.41594943
4	0xbf220d11	-0.6330119
5	0x3e5d647b	0.21620362
6	0xbd80a95c	-0.06282303
7	0x3edd464b	0.43217692
8	0x3e4c4475	0.1994799
9	0x3eb9b0a3	0.36267576
10	0xbd2a821d	-0.041627992
11	0xbbb7e8f0	-0.005612485
12	0xbf72a155	-0.94777423
13	0xbf67c832	-0.9053985
14	0x3c4e80b0	0.012603924
15	0x3d1f10f8	0.038834542
16	0x3f3df55c	0.74202514
17	0x3ebb386d	0.36566487
18	0x3d936123	0.07196262
19	0xbe5d6592	-0.21620777
20	0xbf3cd1d2	-0.7375766
21	0xc01c779a	-2.4448
22	0x3c216fab	0.009853284
23	0xbe2e1830	-0.17001414
24	0x3ef58b35	0.4795777
25	0x3faeab54	1.3646035
26	0xbe0a1bb9	-0.13487138
27	0xbed47457	-0.4149501
28	0xbee1d03f	-0.44104192
29	0xbd8f1745	-0.0698686
30	0xbe02054f	-0.12697338
31	0xbeb0fc75	-0.3456761
32	0x3f1be8aa	0.6090189
33	0x3f21e972	0.63246834
34	0x3d7e85c9	0.062139306
35	0xbcf0c161	-0.029389085
36	0xbf0b9ce7	-0.5453629
37	0x3e0f16cc	0.1397354
38	0x3dcaeff7	0.09909051
39	0x3dbc55b5	0.09196035
40	0x3f40b833	0.75281066
41	0x3da0067d	0.078137375
42	0xbdfba64e	-0.122875795
43	0xbeb8c50b	-0.36087832
44	0xbf9ba7f0	-1.2160625
45	0x3ec9c075	0.39404646
46	0xbe36c640	-0.17849064
47	0xbeed4458	-0.46341205
48	0xbe130f38	-0.14361274
49	0x3eb9bd4e	0.3627724
50	0x3badbd75	0.005302126
51	0x3e178a4a	0.14798847
52	0xbf5729e2	-0.84048283
53	0x3faeee5e	1.3666494
54	0xbc1bee48	-0.00951726
55	0x3e47e307	0.19520198
56	0xbc34720c	-0.011013519
57	0x3f2e4a0d	0.6808174
58	0xbc725726	-0.014791286
59	0x3c815e04	0.0157919
60	0x3c4b969e	0.012426047
61	0x3d78d5b3	0.060750674
62	0xbc28ac68	-0.010295011
63	0xbd09adb9	-0.03361294
64	0x3d32cbc5	0.04365136
65	0x3f382639	0.71933323
66	0x3d29feb4	0.04150267
67	0x3e9ace10	0.30235338
68	0x3f5ef116	0.8708662
69	0xbffc6f24	-1.9721417
70	0xbd748aaa	-0.059702553
71	0x3e91889b	0.28424534
72	0xbede2593	-0.43388042
73	0x3d492d3b	0.0491154
74	0xbd46c629	-0.048528824
75	0xbf2822ee	-0.656783
76	0x3ec2daf4	0.38057673
77	0xbecbc847	-0.39801237
78	0x3d41fc3c	0.04735969
79	0xbf16339f	-0.5867252
80	0xbf3a614f	-0.7280473
81	0xbd22903b	-0.03968833
82	0xbd4e46f1	-0.050360624
83	0xbf5f763f	-0.87289804
84	0x3eeeeb45	0.4666387
85	0xbd4995d9	-0.04921517
86	0xbe32dc74	-0.17466909
87	0xbf5dac24	-0.8659079
88	0xbf6ba265	-0.9204467
89	0xbf13195d	-0.57460576
90	0xbe096546	-0.13417539
91	0xbf369ac9	-0.71329933
92	0x3f1dae49	0.61594063
93	0xbeaad44a	-0.3336509
94	0xbdaa5217	-0.08316439
95	0xbf589c91	-0.846139
96	0xbf8ad5e4	-1.0846524
97	0xbf1ead72	-0.61983407
98	0xbadd9ce6	-0.0016907721
99	0x3c206f88	0.009792216
100	0x3e39b1a3	0.1813417
101	0xbe176752	-0.14785507
102	0xbdf18737	-0.11793368
103	0xbda24795	-0.079238094
104	0xbf10db8f	-0.5658502
105	0xbebf04fa	-0.37308484
106	0x3b9a7228	0.0047133155
107	0x3f0612c1	0.52372366
108	0x3e8af1ed	0.271377
109	0xbdf0298f	-0.11726677
110	0x3d523212	0.051317282
111	0x3f23de8d	0.6401146
112	0xbf269bb1	-0.65081316
113	0xbef1f0c9	-0.47254017
114	0x3cebd178	0.028786406
115	0xbebb05f7	-0.36527988
116	0x3d4a646c	0.049412176
117	0x40149ae7	2.3219545
118	0x3e0bdde0	0.13658857
119	0xbebeb382	-0.3724633
120	0xbe093c1f	-0.1340184
121	0x3f94c317	1.1622037
122	0xbd13388f	-0.03594261
123	0x3dfd1da6	0.123591706
124	0x3ea4b978	0.3217275
125	0xbf3a837e	-0.7285689
126	0xbd057e9e	-0.032591455
127	0x3e0e976c	0.1392495
128	0xbe9c8d94	-0.30576766
129	0x3f5a2ebb	0.85227555
130	0xbd32c997	-0.043649282
131	0x3e01578a	0.1263105
132	0x3edce475	0.4314305
133	0xbfb04614	-1.3771386
134	0x3dd1efb3	0.10250797
135	0x3e04934e	0.12946817
136	0xbf916e6c	-1.1361823
137	0x3f946d0b	1.1595777
138	0xbdb46f3e	-0.0881028
139	0x3daac161	0.08337665
140	0x3e88c2dd	0.2671117
141	0xbfd2baf5	-1.6463305
142	0x3d270a64	0.040781394
143	0x3dfe5b10	0.124197125
144	0x3e4a15b4	0.19734842
145	0x3f8c0be5	1.094113
146	0xbc52ae81	-0.012858988
147	0xbf09a770	-0.53771114
148	0x3e835776	0.25652665
149	0xbf71db7f	-0.9447555
150	0xbdb3bca5	-0.087762155
151	0xbf0485a5	-0.51766425
152	0x3e27df78	0.1639384
153	0x3f478e07	0.7795109
154	0xbd4acd19	-0.049512003
155	0xbe9125e7	-0.2834923
156	0x3f0239a8	0.50869226
157	0xbfe0405c	-1.7519641
158	0x3c052989	0.0081275785
159	0xbe4fbe8a	-0.20287529
160	0x3e29fd20	0.16600466
161	0xbe657cd4	-0.224109
162	0x3e84eeda	0.2596348
163	0xbf083d1f	-0.53218263
164	0x3eb2e93e	0.34943575
165	0xc02603d0	-2.5939827
166	0x3e739bcc	0.237899
167	0xbf186542	-0.5952951
168	0xbe0d09d9	-0.13773288
169	0xbe67666c	-0.22597665
170	0xbcdb2707	-0.026752008
171	0x3b5ea608	0.0033973474
172	0x3f7f835d	0.9980982
173	0x3e37a007	0.1793214
174	0x3d011885	0.031517524
175	0xbd1fa9cf	-0.0389803
176	0xbcb3e090	-0.021957666
177	0x3dd202eb	0.10254463
178	0x3c2df576	0.0106176045
179	0xbcc7437f	-0.024324177
180	0x3f313419	0.6922012
181	0x3f1f80fe	0.623062
182	0xbd1dddd7	-0.03854164
183	0xbd06e5f7	-0.032934155
184	0x3eb89d87	0.36057684
185	0xbe26291c	-0.1622662
186	0xbce87ccf	-0.028379826
187	0x3d10eccb	0.035382073
188	0xbff98cc5	-1.9496084
189	0xbda4a857	-0.08039921
190	0x3b277338	0.0025550853
191	0xbd44decf	-0.04806405
192	0x3dc608c5	0.096696414
193	0xbf826392	-1.0186636
194	0x3d0bd31f	0.034136888
195	0x3baa1a8c	0.005191153
196	0xba1b8602	-0.00059327495
197	0x3f697551	0.91194636
198	0xbcfb8ed9	-0.030707764
199	0x3db27a22	0.08714701
200	0x3ed030fd	0.40662375
201	0xbfb170ef	-1.386259
202	0x3ceffd56	0.029295605
203	0xbd3d8dd8	-0.04627785
204	0x3d940496	0.07227437
205	0x3faaeddc	1.3353839
206	0xbd130f00	-0.035902977
207	0xbda9f2fb	-0.08298298
208	0x3f212e90	0.62961674
209	0xbfd91d5d	-1.6962086
210	0x3daee293	0.08539309
211	0xbe9282a6	-0.28615302
212	0xbdf338ac	-0.11876044
213	0x3fe1771b	1.7614473
214	0xbce077cf	-0.02740088
215	0xbea63d90	-0.32468843
216	0xbdfe147e	-0.12406252
217	0xbf911e5f	-1.1337394
218	0x3eb2b257	0.34901688
219	0x3efdf4b5	0.4960076
220	0x3f49d647	0.78842586
221	0xbf057962	-0.5213834
222	0x3eb4b63c	0.35295284
223	0x3ee247cf	0.4419541
224	0xbe0f50e5	-0.13995703
225	0xbf68695f	-0.90785784
226	0xbd8ba3a8	-0.06818324
227	0xbb1bd9a7	-0.0023780854
228	0x3f4a7cf4	0.79096913
229	0xbe894f15	-0.26818147
230	0xbe24b778	-0.16085613
231	0x3e00f932	0.1259506
232	0xbefc4b98	-0.49276423
233	0xbf841ddd	-1.0321614
234	0xbdd9c474	-0.106331736
235	0xbf09e002	-0.53857434
236	0x3f94529c	1.158771
237	0xbe234cd7	-0.15947281
238	0xbe832466	-0.25613707
239	0xbef69a8d	-0.48164788
240	0x3faca050	1.3486423
241	0x3f03a1ab	0.5141856
242	0xbe2c8698	-0.16848218
243	0x3f35dc99	0.7103973
244	0x3e1f676b	0.15566795
245	0xbe116060	-0.1419692
246	0xbcea7e92	-0.028624807
247	0x3f26d547	0.65169185
248	0x3f627710	0.88462925
249	0x3f372884	0.71546197
250	0xbd4c3e16	-0.049863897
251	0x3d6d6afd	0.05796336
252	0x3d838bc9	0.06423146
253	0x3d195bcf	0.03744107
254	0xbd15c2d1	-0.036562745
255	0x3c80c58f	0.015719203

fcs1.bias f4 [128]
0	0x3edada7d	0.42744818
1	0xbefa1037	-0.48840496
2	0xbf191d35	-0.5981019
3	0xbf911f9e	-1.1337774
4	0xc007400f	-2.1132848
5	0x3f673b76	0.90325105
6	0xbd370bb2	-0.044688888
7	0xbf0bca57	-0.5460562
8	0xbefc050b	-0.49222597
9	0xbebfded3	-0.3747469
10	0xbf369255	-0.71317035
11	0xbf134819	-0.5753189
12	0x3ebcecb9	0.36899355
13	0xbe2e84ca	-0.17042843
14	0x3ef03858	0.46917987
15	0xbe181860	-0.14853048
16	0xbcec7222	-0.028863017
17	0xbe1a0bed	-0.15043612
18	0xbd03f1f1	-0.032213155
19	0x3dc64552	0.096811906
20	0xbfc8649d	-1.5655705
21	0xbf5f30aa	-0.8718363
22	0x3eb7d1ed	0.35902348
23	0xbed51a3c	-0.41621578
24	0xbed086df	-0.40727898
25	0xbe0f2971	-0.13980652
26	0xbfd27e3c	-1.6444774
27	0xbdefbbd3	-0.117057465
28	0x3e49a4d1	0.19691779
29	0xbfbddd3f	-1.4833144
30	0xbf75d1ac	-0.9602306
31	0xc0011a62	-2.0172353
32	0xc022d1c1	-2.5440524
33	0xbffc3327	-1.970311
34	0xbf009db9	-0.50240666
35	0xc085f781	-4.186463
36	0xbf173ffb	-0.59082
37	0x3f4cf200	0.8005676
38	0x3fa8ac92	1.3177664
39	0xbe4e1765	-0.20126112
40	0xbf715037	-0.94263023
41	0xbf0a3555	-0.5398763
42	0xbcf3a0d0	-0.029739767
43	0xbf09f8b7	-0.53895134
44	0xbeae8620	-0.34086704
45	0x3f95ad16	1.1693447
46	0xbf1a0da8	-0.6017709
47	0xbed26db8	-0.41099334
48	0xbf524762	-0.8214017
49	0xbeb67571	-0.35636476
50	0xbf4f5a1f	-0.8099689
51	0x3eec5457	0.46158096
52	0xbcd3e749	-0.025867121
53	0xbec66cdd	-0.3875493
54	0xbfaad3fb	-1.3345941
55	0xbe6cbbdc	-0.23118538
56	0x3e8672d5	0.26259485
57	0x3e26c441	0.16285802
58	0xbe370dd9	-0.17876376
59	0xbe36b691	-0.17843081
60	0xbdb4ec7b	-0.088341676
61	0xbeea9a7b	-0.45820984
62	0xbcabb929	-0.020962315
63	0xbefb4e26	-0.4908306
64	0x3e054d99	0.13017882
65	0xbf7d6a36	-0.9899019
66	0xbe26a961	-0.1627555
67	0x3f339dcf	0.7016267
68	0x3e06b712	0.13155773
69	0xbecb9e14	-0.39769042
70	0xbeff9077	-0.49914905
71	0xbf1c74d6	-0.6111578
72	0xbecd32db	-0.40077862
73	0x3e167f43	0.14696984
74	0xbef57b10	-0.47945452
75	0x3fb3688e	1.4016283
76	0x3d8d1578	0.068888605
77	0xbe82ee08	-0.25572228
78	0xbed9bf21	-0.42528632
79	0xbf0174b7	-0.5056872
80	0xbeefda75	-0.46846357
81	0x3f2204e8	0.63288736
82	0x3eb1badd	0.34712878
83	0xbf895735	-1.0729738
84	0xbef18ccc	-0.47177732
85	0x3e4d084d	0.20022698
86	0x3c51bf4d	0.012801957
87	0x3d23d594	0.039998606
88	0xbf0a094a	-0.53920424
89	0x3c9cdd11	0.019148381
90	0xbe9a7e66	-0.3017456
91	0xbf425a95	-0.7591947
92	0xbe2c8ce1	-0.16850616
93	0x3e816b9a	0.25277406
94	0x3e698d7e	0.22807881
95	0xbec58300	-0.38576508
96	0xbf065dac	-0.5248668
97	0xbeb2eac8	-0.3494475
98	0x3e83dfad	0.2575659
99	0xbe7d64f6	-0.24745545
100	0xbfe450bb	-1.7837137
101	0x3edb024e	0.42775196
102	0x3dcf4ca1	0.10122038
103	0xbf3a5d37	-0.72798485
104	0xbf91eb87	-1.1400002
105	0xbf38ba3b	-0.72159165
106	0xbe886984	-0.26643002
107	0x3fad691a	1.35477
108	0x3ea3c581	0.3198662
109	0x3d6d37b4	0.05791445
110	0x3dd75d33	0.10515823
111	0x3e2a33ab	0.16621272
112	0xbf914955	-1.1350504
113	0xbfcfb8ad	-1.6228234
114	0xbf745618	-0.9544387
115	0x3a172378	0.0005765478
116	0x3e518716	0.20461687
117	0xbf85d49f	-1.0455512
118	0x3c60f79e	0.013730912
119	0xbfd76058	-1.6826277
120	0xbe80c24c	-0.25148237
121	0xbf4e6543	-0.80623263
122	0x3f2cd930	0.675189
123	0xbfbdc47d	-1.4825588
124	0x3ee87f79	0.45409754
125	0xbfaed5c2	-1.3658984
126	0x3ebd5100	0.3697586
127	0x3f048cf1	0.5177756

bn1.weight f4 [128]
0	0x3e2f113d	0.1709642
1	0x3d723a5a	0.05913768
2	0x3e022e2e	0.12712929
3	0x3dc1103c	0.094269246
4	0x3d94701f	0.07247948
5	0x3e52996a	0.20566335
6	0x3e14b5bb	0.1452245
7	0x3ef5a51e	0.47977537
8	0x3e7d8b62	0.24760202
9	0x3e298534	0.16554719
10	0xbd7dbcd9	-0.061947677
11	0x3d8813ed	0.066444255
12	0x3d2c2ce4	0.042035
13	0x3aae6fcd	0.0013308466
14	0x3e95bf76	0.29247636
15	0x3f186d9b	0.59542245
16	0x3d5b7bc7	0.05358484
17	0x3dc70061	0.09716869
18	0x3ea16fc3	0.3153058
19	0x3d8a19c0	0.06743193
20	0x3e73300c	0.23748797
21	0x38b8f3b8	8.8192e-05
22	0x3e17a6a5	0.14809664
23	0x3f3cfda5	0.7382453
24	0x3d4ff2b6	0.050768577
25	0x3de6ebbb	0.11275431
26	0x3f2b0aad	0.66813165
27	0x3be1e5e3	0.0068938597
28	0x3d96a796	0.07356183
29	0x3f74b5b7	0.95589775
30	0x3e3810f7	0.17975222
31	0x3dfe7f8b	0.12426671
32	0x3e7e334f	0.2482426
33	0x3e04d562	0.12972024
34	0x3e0527a4	0.13003403
35	0x3eaa40c5	0.3325254
36	0x3f1b8a72	0.60758126
37	0x3e50402b	0.20336978
38	0x3d7945f4	0.060857728
39	0x3e127e75	0.14306052
40	0x3da954af	0.08268105
41	0x3bb689d6	0.0055706305
42	0x3fa9920e	1.3247697
43	0x3d51206c	0.05105631
44	0x3cd72098	0.02626066
45	0x3e4c03e3	0.19923358
46	0x3d1ecce7	0.03876963
47	0x3e11bf4e	0.14233133
48	0x3e01c1c8	0.12671578
49	0x3dd59cde	0.10430311
50	0x3d1edd59	0.038785312
51	0x3d9bfa5e	0.07616113
52	0x3e88e875	0.2673985
53	0x3ef098d4	0.469916
54	0x3da04057	0.07824772
55	0x3fa88958	1.3166914
56	0x3dea7629	0.114483185
57	0x3d49cfb4	0.049270347
58	0x3e408210	0.18799615
59	0x3e4ffef5	0.20312102
60	0x3dfc013d	0.12304924
61	0x3e131552	0.14363602
62	0x3d1bd31e	0.038043134
63	0x3ded5a1e	0.11589454
64	0x3d1dd96a	0.03853742
65	0x3f8c9af7	1.0984792
66	0xbad3f0de	-0.0016169806
67	0x3d8ca050	0.06866515
68	0x3d5af893	0.053459715
69	0x3db4bb79	0.0882482
70	0x3e08e673	0.1336916
71	0x3e0783e7	0.1323391
72	0x3e2ec980	0.17069054
73	0xbdbe1b8c	-0.09282598
74	0x3ddf47f8	0.10902399
75	0x3ef1bad1	0.47212842
76	0x3d17d7f0	0.03707117
77	0x3ed1a351	0.40944913
78	0x3e9f740c	0.31143224
79	0x3f2ac607	0.66708416
80	0x3e412dbb	0.18865101
81	0x3dca27b9	0.09870858
82	0x3d8e2e9f	0.06942486
83	0x3e0736f5	0.13204558
84	0x3ce9825d	0.028504545
85	0x3bb64943	0.0055629327
86	0x3e0713d3	0.13191156
87	0x3e98fc0b	0.29879794
88	0x3d703601	0.058645252
89	0x3d9caf73	0.07650652
90	0x3f70dcd7	0.94086975
91	0x3dd63c73	0.104607485
92	0x3b2b6f39	0.0026158823
93	0x3fab8c7f	1.3402251
94	0x3ed1e15d	0.4099225
95	0x3ec0dd56	0.37668866
96	0x3d08c82f	0.033394035
97	0x3db7a963	0.08967855
98	0x3d8c27f5	0.06843559
99	0x3e9d75c8	0.30753922
100	0x3f0e0b47	0.5548596
101	0x3dd172bb	0.10226961
102	0x3e2ce0dc	0.16882652
103	0x3cd2e9e1	0.025746288
104	0x3db8d960	0.09025836
105	0x3a98467f	0.0011617689
106	0x3d9da910	0.07698262
107	0x3f1e6a46	0.6188091
108	0x3b3784ba	0.0028002695
109	0x3e6f52f5	0.2337149
110	0x3c76dbca	0.01506705
111	0x3db7a6ee	0.08967386
112	0x3e01f465	0.12690885
113	0x3e6dfea6	0.23241672
114	0x3e8b7875	0.2724034
115	0x3db99230	0.09061086
116	0x3d94c8e9	0.07264883
117	0x3dfece8f	0.12441742
118	0x3f0d4868	0.5518861
119	0x3e8f7673	0.28020057
120	0x3d8a5faf	0.067565314
121	0x3e519c4a	0.20469776
122	0x3ec418a8	0.3830006
123	0x3f5d9667	0.8655762
124	0x3ded112b	0.1157554
125	0x3dd9cb5e	0.10634492
126	0x3ef56835	0.47931066
127	0x3cda492d	0.026646221

bn1.bias f4 [128]
0	0x3c79365b	0.015210713
1	0x3c2841e9	0.01026962
2	0xbc353254	-0.011059362
3	0x3d20d63f	0.03926682
4	0x3a48b7a1	0.00076567574
5	0x3d352965	0.04422893
6	0x3d80c5ae	0.062877044
7	0x3ebbae23	0.36656293
8	0x3e5db175	0.21649726
9	0x3dec7d40	0.11547327
10	0xbad0c526	-0.0015927895
11	0x3ca77c85	0.020445118
12	0x3bd9e1be	0.006649225
13	0xbad36c67	-0.0016130329
14	0x3e0df7fb	0.13864128
15	0x3e265f56	0.16247305
16	0xb9998f32	-0.00029289123
17	0x3d7ffdd9	0.062497947
18	0x3d6f51fd	0.0584278
19	0x3c5690e5	0.013096069
20	0x3d99281e	0.07478355
21	0xbb90b571	-0.0044161608
22	0x3df7f737	0.12107699
23	0x3e68fade	0.22751948
24	0x3c181b75	0.00928389
25	0x3d8453fc	0.06461331
26	0x3ef005bd	0.46879378
27	0xbb86f0d1	-0.004118063
28	0x3ca06510	0.01957944
29	0x3f044b44	0.51677346
30	0x3d6d050b	0.057866137
31	0xbcee443c	-0.029085271
32	0x3ea53b94	0.32272017
33	0x3d0f3e4e	0.034971528
34	0xbb92e99b	-0.0044834143
35	0x3e5870bb	0.21136753
36	0x3edc9a81	0.43086627
37	0x3da43005	0.080169715
38	0x3c92a185	0.017899284
39	0x3cd12469	0.025530057
40	0x3c7e5d76	0.0155252125
41	0xb96a009a	-0.00022316203
42	0x3f16fa51	0.589757
43	0xbc65b4ff	-0.014020204
44	0x3ce4c443	0.027925616
45	0xbbc7b053	-0.0060940175
46	0xbb85c04c	-0.0040817615
47	0x3d766864	0.06015815
48	0x3d1ad690	0.03780228
49	0x3d1d01a7	0.038331654
50	0x3c0b9c4e	0.008521153
51	0x3caf884b	0.021427294
52	0x3e4d693e	0.20059678
53	0x3e826f5e	0.2547559
54	0x3b4c6871	0.0031190182
55	0x3f11f81b	0.57019204
56	0x3d1f91e5	0.038957495
57	0x3bfd359f	0.0077273394
58	0x3d8a2e02	0.067470565
59	0x3df63560	0.12021899
60	0x3d333a98	0.04375705
61	0x3d70213e	0.058625452
62	0x3c3b6328	0.011437215
63	0x3d725d5a	0.05917106
64	0x3ca9c06c	0.020721637
65	0x3e24101d	0.16021772
66	0x3ae5a76f	0.0017521213
67	0x3cd24f87	0.025672687
68	0x3cc413ec	0.02393528
69	0x3ccdb0a0	0.025108635
70	0x3d96339d	0.07334063
71	0x3cf78461	0.03021449
72	0x3db6da1e	0.08928321
73	0xbd0f9713	-0.035056185
74	0x3d0b6835	0.034034926
75	0xbda43562	-0.080179945
76	0xba874b46	-0.0010322116
77	0x3e820a06	0.25398272
78	0x3d7b2e1a	0.061323263
79	0x3e0636a6	0.13106784
80	0x3d5bf7ef	0.053703245
81	0x3c919cd1	0.017774971
82	0xbbd53345	-0.006506356
83	0x3d7d7553	0.061879467
84	0x3bd8aeaa	0.0066126185
85	0xba89da56	-0.001051734
86	0x3da7a003	0.08184817
87	0x3e296f12	0.16546276
88	0x3c869710	0.016429454
89	0x3cb520b7	0.022110326
90	0x3ee0e555	0.43924966
91	0x3d101b9b	0.035182577
92	0x3bb1b798	0.0054234974
93	0x3f15c5cc	0.5850494
94	0x3e96dcb1	0.2946525
95	0x3e99d74c	0.3004707
96	0x3c252710	0.010080114
97	0x3b33a2fc	0.0027410379
98	0x3bb63d1e	0.005561485
99	0x3d97ca2f	0.0741161
100	0x3ec85fad	0.39135495
101	0x3c9ac1ad	0.01889118
102	0x3dc2b37a	0.09506889
103	0x3ac8244c	0.0015269606
104	0x3d294963	0.041329753
105	0xbb726d3d	-0.003699138
106	0x3d1f5765	0.038901705
107	0x3f0da574	0.55330586
108	0xba963aed	-0.0011461653
109	0x3d983a33	0.074329756
110	0x3c0c103a	0.008548791
111	0x3d2e42de	0.04254424
112	0x3d68eb08	0.05686477
113	0x3d86e739	0.06587071
114	0x3d6c2748	0.05765465
115	0x3d35b9ea	0.044366755
116	0x3ca47bce	0.020078566
117	0xbdb65306	-0.08902554
118	0x3deb3c47	0.11486106
119	0x3e365c48	0.1780864
120	0x3cbac83c	0.022800557
121	0x3df32361	0.11871982
122	0x3dbfb787	0.09361177
123	0x3f20857b	0.62703675
124	0x3d5a55ee	0.053304605
125	0x3ba36063	0.0049858554
126	0xbe2859f9	-0.16440572
127	0x3bc4ecd7	0.006009679

bn1.running_mean f4 [128]
0	0x3f491cec	0.78559756
1	0x3f7ed7d9	0.9954811
2	0x3f287571	0.658042
3	0x413788cd	11.470899
4	0x41bf76cb	23.933004
5	0x3fab8e0b	1.3402723
6	0x3ff1c2d8	1.8887587
7	0x3fd5153a	1.6647103
8	0x4120bc7f	10.04602
9	0x412592c3	10.3483305
10	0x3b79970c	0.0038084416
11	0x3f79001d	0.972658
12	0x3f1b9c2a	0.6078516
13	0x40ed18a3	7.4092574
14	0x3fd2410c	1.6426101
15	0x419d7f34	19.68711
16	0x3f3baa9b	0.733072
17	0x4160849f	14.032378
18	0x3db12bea	0.08650954
19	0x3f1d73e5	0.61504966
20	0x4059dd04	3.4041147
21	0x40d7c637	6.742946
22	0x40c7a4e3	6.238878
23	0x3fa3b9e8	1.2791109
24	0x3f8ffd8c	1.1249251
25	0x40e9c046	7.304721
26	0x41477f7b	12.468623
27	0x40297de5	2.648309
28	0x40843727	4.1317325
29	0x41930008	18.375015
30	0x3fc6aa39	1.5520698
31	0x4183a20c	16.454124
32	0x41b37271	22.43088
33	0x3fb5acd2	1.4193366
34	0x3fc1deda	1.5146134
35	0x409ec427	4.9614444
36	0x40d58147	6.672031
37	0x40bcd955	5.90153
38	0x3f1cccac	0.61249804
39	0x3fee3448	1.8609705
40	0x41945998	18.543747
41	0x3e858dab	0.26084647
42	0x41ec4059	29.53142
43	0x3fea2286	1.8291786
44	0x419dae23	19.710028
45	0x402f831f	2.742378
46	0x3f3af706	0.7303318
47	0x40565ab1	3.3492854
48	0x41a0823d	20.063593
49	0x3f9a235a	1.2042038
50	0x409405cd	4.625708
51	0x40035ba3	2.052468
52	0x40c8c4a1	6.2740026
53	0x4058795a	3.3824067
54	0x40aa2d2f	5.3180156
55	0x41d8811d	27.063044
56	0x3fc14c1b	1.510135
57	0x3ff73003	1.9311527
58	0x401aca33	2.4185913
59	0x4078c12c	3.8867903
60	0x3f9bdf6b	1.2177557
61	0x401cad6e	2.4480853
62	0x417dbe86	15.8590145
63	0x410eb5f7	8.919425
64	0x402f7dc8	2.742052
65	0x4151c268	13.109962
66	0x40bc9459	5.893109
67	0x3f9716ec	1.180387
68	0x40b0d708	5.526249
69	0x3f2c761f	0.6736774
70	0x40f261aa	7.574422
71	0x3fb054f5	1.3775927
72	0x41036810	8.212906
73	0x3fa4b302	1.2867129
74	0x3fe379a9	1.7771503
75	0x403c745e	2.9446025
76	0x41014078	8.078239
77	0x405a1dc8	3.4080677
78	0x3f3629fe	0.71157825
79	0x3ea6a3b8	0.32546782
80	0x3f4a1cdc	0.78950286
81	0x3f627d50	0.8847246
82	0x3fe36acc	1.7766967
83	0x403cf3f6	2.9523902
84	0x409282cb	4.578466
85	0x41720b9c	15.127834
86	0x40f031f6	7.5060987
87	0x409da9af	4.9269633
88	0x40a987db	5.297834
89	0x3fc02e7f	1.501419
90	0x416b10c7	14.691596
91	0x400b2a75	2.1744664
92	0x4126896f	10.408553
93	0x41f329fe	30.395504
94	0x41531eac	13.194988
95	0x409fc1fe	4.9924307
96	0x4008d8d8	2.138235
97	0x39be1095	0.0003625198
98	0x40d25dd7	6.573955
99	0x3f7fc436	0.9990877
100	0x40898d12	4.2984705
101	0x3f55513f	0.83327097
102	0x40a320e2	5.097764
103	0x3edf7601	0.43644717
104	0x40d931b8	6.787319
105	0x41ac41cd	21.53213
106	0x4035cbb5	2.8405583
107	0x40309015	2.758794
108	0x41998448	19.18959
109	0x3f4fa99d	0.81118184
110	0x40daa4be	6.83261
111	0x408a055e	4.313155
112	0x40804c86	4.0093412
113	0x3f556ff3	0.83373946
114	0x3ea9708b	0.33093676
115	0x403a041f	2.9065015
116	0x404364a5	3.0530179
117	0x41ef2837	29.894636
118	0x3e92af35	0.28649297
119	0x3fdcbbbc	1.7244792
120	0x407db95f	3.9644392
121	0x409fe89d	4.997145
122	0x3ee27514	0.4422995
123	0x41b266e4	22.30024
124	0x40d9ffda	6.812482
125	0x406551ca	3.583117
126	0x41897984	17.184334
127	0x3f584ed6	0.84495294

bn1.running_var f4 [128]
0	0x40ff74cb	7.983007
1	0x416a0141	14.625306
2	0x3faa5817	1.3308133
3	0x431de811	157.90651
4	0x42f05605	120.16801
5	0x4157c2a8	13.4850235
6	0x41c45473	24.541235
7	0x4086f317	4.217174
8	0x4251d7f0	52.460876
9	0x4346fad8	198.97986
10	0x3bf7bc81	0.007560313
11	0x4109f5a8	8.622475
12	0x4093a9df	4.614486
13	0x431724fb	151.14445
14	0x416e81a3	14.90665
15	0x441f340c	636.81323
16	0x40baf3bf	5.842254
17	0x43bd0f52	378.1197
18	0x3f26558e	0.64974296
19	0x40b183c6	5.5473356
20	0x41b05537	22.041609
21	0x42d89e24	108.30887
22	0x421b96ef	38.897396
23	0x41575327	13.457801
24	0x418e0263	17.751165
25	0x430fb2d2	143.69852
26	0x4375aa3c	245.66498
27	0x423bb0f8	46.92282
28	0x42a34f0f	81.65441
29	0x44013ce2	516.9513
30	0x41b5a164	22.703804
31	0x432eebc3	174.92094
32	0x43335867	179.34532
33	0x410e6731	8.900193
34	0x4115c687	9.360969
35	0x41c99e28	25.202225
36	0x42b80450	92.00842
37	0x42bac058	93.37567
38	0x403ddd43	2.9666297
39	0x41a62492	20.767857
40	0x43a1ad73	323.35507
41	0x3fefb72f	1.8727778
42	0x44a326bb	1305.2103
43	0x4123f655	10.24764
44	0x441edf9d	635.49396
45	0x4196b008	18.835953
46	0x40f778f0	7.733513
47	0x42342a5f	45.041378
48	0x430040bb	128.25285
49	0x41906571	18.049532
50	0x42b675f8	91.23041
51	0x4207d9a0	33.962524
52	0x427c5723	63.085094
53	0x420524cd	33.28594
54	0x422e3bbf	43.558346
55	0x448c48f6	1122.28
56	0x41883297	17.024702
57	0x421d40ff	39.313473
58	0x421b1d79	38.77878
59	0x421bee88	38.98294
60	0x41116496	9.087057
61	0x41e7eb88	28.990005
62	0x43c7438f	398.5278
63	0x4334a8c1	180.6592
64	0x425b5e3c	54.842026
65	0x43871633	270.17343
66	0x42887399	68.22578
67	0x413b507b	11.707149
68	0x425a57f4	54.58589
69	0x40b045cd	5.5085206
70	0x4335a149	181.63002
71	0x41891b06	17.138195
72	0x433c47eb	188.28093
73	0x411fca2b	9.986857
74	0x41d7ed9d	26.991022
75	0x4090e0b3	4.527429
76	0x4346b846	198.71982
77	0x41f65841	30.793093
78	0x4121e3ca	10.118113
79	0x406bb40f	3.682865
80	0x4111d962	9.115572
81	0x41116165	9.086278
82	0x41916c68	18.177933
83	0x42128405	36.628925
84	0x42a8efda	84.46846
85	0x42578aa3	53.885387
86	0x4303b2de	131.6987
87	0x42b3835a	89.756546
88	0x42c350fb	97.658165
89	0x418d9c2e	17.70126
90	0x438f0a15	286.07877
91	0x41ae68fa	21.801258
92	0x438f0d63	286.10458
93	0x44a9275b	1353.2299
94	0x43461d60	198.11475
95	0x42299af1	42.40131
96	0x42116432	36.347847
97	0x39f962b2	0.00047566515
98	0x42cd7542	102.72902
99	0x41533fe3	13.203097
100	0x416ad7bc	14.67767
101	0x4151c519	13.11062
102	0x42ca07b6	101.01506
103	0x40e2c1f8	7.086178
104	0x4324facc	164.97968
105	0x44106323	577.549
106	0x41bf1d5f	23.889341
107	0x4102553c	8.145809
108	0x43197112	153.44168
109	0x4113943a	9.223688
110	0x43351d73	181.11504
111	0x422ce00e	43.218803
112	0x42852a47	66.58257
113	0x4105aadc	8.354214
114	0x4035d0e4	2.8408747
115	0x4216b61d	37.677845
116	0x4204c3ce	33.191216
117	0x4392c9a8	293.57544
118	0x401e5d94	2.4744616
119	0x414775f8	12.466301
120	0x42700dcc	60.013474
121	0x42a575ea	82.7303
122	0x40dae872	6.8408747
123	0x443a3944	744.8948
124	0x4339b233	185.69609
125	0x421d0258	39.25229
126	0x43fcd5c6	505.6701
127	0x412865e2	10.524874

fc2.weight f4 [128, 130]
0	0x3cef15f8	0.02918528
1	0xbe064d1f	-0.13115357
2	0x3cfd27c3	0.030902749
3	0x3d8b1457	0.06790989
4	0x3d3bcba8	0.04584852
5	0xbd80db0e	-0.06291781
6	0x3c85a782	0.016315226
7	0x3cd9656d	0.026537621
8	0xbd40898d	-0.04700618
9	0xbe1f756a	-0.15572134
10	0x3d812c1e	0.06307243
11	0xbcf65438	-0.030069456
12	0x3d11af26	0.035567425
13	0x3da71af2	0.08159436
14	0xbd7fa1ce	-0.06241017
15	0xbe0890c5	-0.13336475
16	0x3b95506e	0.004556707
17	0xbcb9cc06	-0.022680294
18	0xbdb0c6ea	-0.0863169
19	0xbd8945bb	-0.06702753
20	0xbd44db27	-0.048060562
21	0x3da55cde	0.08074354
22	0xbd300c39	-0.042980406
23	0x3cd391a9	0.025826292
24	0xbd6aa819	-0.057289217
25	0xbc4d9e9f	-0.012550025
26	0xbcb51be0	-0.022108018
27	0x3d504ba3	0.050853383
28	0xbd49e480	-0.04929018
29	0xbd9e9613	-0.07743468
30	0x3d317c91	0.043331686
31	0xbd59bd2b	-0.05315892
32	0xbe386b9d	-0.18009801
33	0xbb31667b	-0.002706914
34	0xbbc35a78	-0.0059617124
35	0xbc803feb	-0.015655478
36	0xbd9ad083	-0.07559302
37	0x3c31e3f9	0.010857576
38	0x3b2ccbda	0.0026366622
39	0xbc9a3540	-0.01882422
40	0xbd4eb34e	-0.050463967
41	0x3ddaa1aa	0.10675366
42	0x3dcaa958	0.09895581
43	0xbd39c972	-0.04535813
44	0xbe0f9eec	-0.14025468
45	0x3d841589	0.0644942
46	0xbd55bace	-0.052180104
47	0xbd2b7872	-0.041862912
48	0xbd5f6440	-0.054538965
49	0xbdc2362f	-0.09482991
50	0xbd4862e5	-0.04892244
51	0x3e00ba02	0.12570956
52	0x3d82e9dc	0.063922614
53	0xbd55daa6	-0.052210473
54	0xbd047cef	-0.03234571
55	0x3d95df46	0.07317977
56	0xbd9ea86f	-0.0774697
57	0x3e0f18ae	0.13974258
58	0xbdcce044	-0.10003713
59	0x3d1ac2ad	0.037783314
60	0xbd237279	-0.03990409
61	0x3cea35a9	0.02859004
62	0xbc78ce89	-0.015185961
63	0xbd1c093a	-0.038094737
64	0xbced50c5	-0.028969178
65	0x3d24d777	0.040244546
66	0xbd842308	-0.06451994
67	0xbd33f332	-0.0439331
68	0x3d787b7f	0.06066465
69	0xbcc29368	-0.02375193
70	0x3dd881f1	0.10571659
71	0x3d274fa0	0.04084742
72	0xbdb56d7a	-0.088587716
73	0xbcb14c1f	-0.021642743
74	0xbdd5e864	-0.104447156
75	0x3ddec4ad	0.10877357
76	0x3d525114	0.051346853
77	0x3dabc9fb	0.08388134
78	0x3d42a40a	0.04751972
79	0xbd9cf12b	-0.07663187
80	0xbc48fac8	-0.012266822
81	0xbd3ff1f2	-0.046861596
82	0x3ab58b85	0.0013850784
83	0x3984a98a	0.00025303318
84	0xbd2137d6	-0.03935989
85	0x3d92d512	0.07169546
86	0x3da43fe1	0.080199964
87	0xbdf3b356	-0.1189944
88	0x3d741e8b	0.05959944
89	0xbdd30ff4	-0.10305777
90	0xbd3bcf53	-0.045852017
91	0xbda67e73	-0.08129587
92	0x3d9602f5	0.07324783
93	0xbc39f745	-0.011350458
94	0xbccb455d	-0.024813348
95	0xbd8dcfa9	-0.06924374
96	0x3d1e9995	0.038720686
97	0xbc8ffc1b	-0.017576268
98	0x3d8eb070	0.069672465
99	0xbdc0c4c7	-0.09412532
100	0x3d633b99	0.05547676
101	0x3d4527e5	0.04813375
102	0xbe18c4d8	-0.1491884
103	0xbd224684	-0.03961803
104	0xbd9bcade	-0.07607053
105	0xbddfcfe0	-0.10928321
106	0x3db8fa11	0.090320714
107	0x3c4368ad	0.011926812
108	0x3db386b3	0.08765926
109	0xbcb73965	-0.022366235
110	0x3bebd284	0.0071967263
111	0xbd1eff2e	-0.038817577
112	0x3d41f4b9	0.047352526
113	0xbdb5f0c2	-0.088838115
114	0xbd4303ea	-0.047611155
115	0xbcc8f1c6	-0.024529349
116	0x3cd3e921	0.025868
117	0xbc969989	-0.018383758
118	0xbc9760d4	-0.018478788
119	0x3dce5d6c	0.100764126
120	0x3c88d296	0.016701978
121	0x3ca88655	0.020571867
122	0xbdc733c8	-0.09726673
123	0xbde04f5c	-0.109526366
124	0xbd916ef6	-0.07101242
125	0xbd42c45c	-0.047550544
126	0xbd414b5b	-0.047191005
127	0xbd5c9283	-0.053850662
128	0xbceb8d93	-0.028754031
129	0x3ce49cad	0.02790674
130	0xbde802b6	-0.11328642
131	0xbdeb9cfc	-0.11504552
132	0x3d60bd30	0.054867923
133	0xbe19d74c	-0.15023535
134	0xbdae0cb4	-0.08498517
135	0x3a38edf4	0.0007054501
136	0xbb661df1	-0.0035113061
137	0x3aadeb2b	0.0013268938
138	0xbb73ba19	-0.003718978
139	0xbe8b9683	-0.2726327
140	0xbd1a7a51	-0.037714306
141	0x3ce40780	0.027835608
142	0xbdb7ad44	-0.08968595
143	0x3dc57d89	0.096430846
144	0xbe8d75a0	-0.27628803
145	0x3cfaa840	0.030597806
146	0x3d5c71d9	0.05381951
147	0xbe1c606e	-0.1527116
148	0xbe11a710	-0.14223886
149	0xbd846cfe	-0.06466101
150	0x3d60e53c	0.054906115
151	0xbd99191f	-0.074754946
152	0xbd073df0	-0.033018053
153	0x3d2d4e7e	0.042311184
154	0xbe31e93e	-0.17374131
155	0xbdc39bd5	-0.09551207
156	0x3a000d7e	0.0004884823
157	0x3dae142c	0.08499941
158	0xbd6d4fff	-0.05793762
159	0xbdd7e81c	-0.10542318
160	0x3c67d9cd	0.014151049
161	0xbdc3b184	-0.09555343
162	0xbd82b4a2	-0.06382109
163	0x3d682297	0.056673612
164	0x3dfa131c	0.12210676
165	0xbe0c67ae	-0.13711426
166	0xbe80cdeb	-0.25157103
167	0xbe35116f	-0.17682432
168	0x3e1ba25e	0.15198657
169	0x3ad292d0	0.0016065482
170	0xbd267b45	-0.040644903
171	0x3e286bb9	0.16447343
172	0x3d53dfc4	0.05172707
173	0xbda616bd	-0.08109806
174	0xbc45e641	-0.012078823
175	0x3d879580	0.06620312
176	0x3dfbadae	0.12288986
177	0xbd596b96	-0.053081118
178	0xbd52ab2e	-0.05143278
179	0xbd1f6470	-0.038914144
180	0x3b72414c	0.003696519
181	0x3e2f6d38	0.17131507
182	0xbcdf467d	-0.027255291
183	0xbdb84ada	-0.08998652
184	0xbd019d87	-0.03164437
185	0xbd1c49be	-0.038156264
186	0xbe0d4a28	-0.1379782
187	0x3de6e7d9	0.1127469
188	0xbdad9357	-0.084753685
189	0xbd401221	-0.04689229
190	0x3d56ee5f	0.052473422
191	0xbd914f11	-0.07095159
192	0xbe00cb4d	-0.12577553
193	0xbe8b4262	-0.27199084
194	0x3b2cb9e4	0.0026355917
195	0x3d25d793	0.04048879
196	0x3d97aac1	0.074056156
197	0x3e16a282	0.1471043
198	0x3cd80b47	0.026372565
199	0xbdb94407	-0.09046178
200	0x3ba80272	0.0051272446
201	0xbd0bc260	-0.034120917
202	0xbdd9a2e5	-0.10626773
203	0xbd17a8f3	-0.037026357
204	0xbdbf7dd4	-0.09350172
205	0x3ca85e60	0.020552814
206	0x3d450ca8	0.048107773
207	0x3e1556b3	0.14583854
208	0xbda56de3	-0.080776
209	0xbe945a33	-0.28975067
210	0xbdb65dcb	-0.08904608
211	0xbd8dba35	-0.06920282
212	0x3e12ef36	0.14349064
213	0x3d8eeb5b	0.06978484
214	0x3d2910a4	0.041275635
215	0x3d8557cb	0.06510886
216	0x3e6f08a6	0.23343143
217	0xbe08d399	-0.13361968
218	0x3d5b2b64	0.053508177
219	0xbd454f51	-0.048171345
220	0x3dbdd7dc	0.092696875
221	0xbe012e21	-0.12615253
222	0xbd739a54	-0.05947335
223	0xbcb7baaa	-0.022427876
224	0xbd16cdce	-0.036817364
225	0xbce0c90d	-0.027439618
226	0x3e237a7f	0.15964697
227	0x3ca356c6	0.019938838
228	0x3e4147a1	0.1887498
229	0xbe03b92c	-0.12863606
230	0xbd8625cb	-0.06550177
231	0xbd982ba7	-0.07430201
232	0xbd90a521	-0.07062746
233	0x3e3a2070	0.18176436
234	0xbda8080c	-0.0820466
235	0xbdbfad2a	-0.093592
236	0x3d9e1750	0.0771929
237	0xbe2606ba	-0.16213503
238	0xbd0b564e	-0.034017853
239	0xbd68510c	-0.056717917
240	0xbc7b3afc	-0.015333887
241	0x3dbbaed9	0.09164209
242	0xbd14abe1	-0.03629673
243	0xbbd6cac8	-0.006554935
244	0xbd1748e5	-0.036934752
245	0x3d824a79	0.06361861
246	0xbe47e56b	-0.1952111
247	0x3c49f852	0.012327271
248	0xbdb49d67	-0.088190846
249	0x3dae7e99	0.0852024
250	0xbdb42ca7	-0.08797579
251	0xbe9aae31	-0.30211022
252	0xbe898e16	-0.26866215
253	0xbe10c88b	-0.14139001
254	0xbd910da9	-0.070826836
255	0xbdb0ba30	-0.086292624

fc2.bias f4 [128]
0	0xbe8b23b3	-0.27175674
1	0xbe9c09a4	-0.30476105
2	0xbe819ae6	-0.2531349
3	0xbf4da5ea	-0.8033129
4	0xbec223ed	-0.37918034
5	0x3e74bedc	0.23900932
6	0xbf35f5fc	-0.7107847
7	0xbe052b15	-0.13004716
8	0xbf0a72b8	-0.54081297
9	0xbf095850	-0.5365038
10	0xbe8c8a40	-0.27449226
11	0xbec37ad2	-0.38179642
12	0xbe67ad79	-0.22624768
13	0xbe8efcec	-0.2792734
14	0xbeb4ad59	-0.35288504
15	0xbedaffe2	-0.42773348
16	0xbe73c608	-0.23806012
17	0xbeaa2239	-0.33229235
18	0xbe90254b	-0.28153452
19	0xbea4bb27	-0.32174036
20	0xbf2bde8e	-0.67136467
21	0xbef50bca	-0.47860557
22	0xbe8b2c32	-0.27182156
23	0xbec7f50d	-0.39054146
24	0xbea2a6aa	-0.3176778
25	0xbe953885	-0.29144683
26	0xbe574bbf	-0.21024989
27	0xbecb34df	-0.39688775
28	0xbf36caeb	-0.7140338
29	0xbe874b64	-0.26424706
30	0x3ce3d2b6	0.027810436
31	0xbed2a348	-0.411402
32	0xbea5dfeb	-0.32397398
33	0xbe5ee011	-0.21765162
34	0xbe422be3	-0.18962054
35	0xbea4c1a9	-0.32179
36	0xbea39816	-0.3195197
37	0xbe72b575	-0.23702033
38	0xbd47716f	-0.048692163
39	0xbe4da9a3	-0.20084243
40	0xbe7c93ee	-0.24665806
41	0xbe43114e	-0.1904957
42	0xbe9b7ca5	-0.30368534
43	0xbf0fa982	-0.56118023
44	0xbe3ca111	-0.18420817
45	0xbe865799	-0.26238707
46	0xbe5c3da4	-0.21507889
47	0xbe80904e	-0.25110096
48	0xbee85175	-0.45374647
49	0xbe7dd968	-0.24789965
50	0xbeaaf4f1	-0.3339
51	0xbf1d5a43	-0.61465853
52	0xbe98c725	-0.29839435
53	0xbe7dbdb4	-0.24779397
54	0xbf0d1671	-0.5511237
55	0xbe9e8e94	-0.30968153
56	0xbec8b096	-0.39197224
57	0xbe893eef	-0.26805827
58	0xbf189c06	-0.5961307
59	0xbe6ad86e	-0.22934124
60	0xbe7ea318	-0.24866903
61	0xbed82a28	-0.42219663
62	0xbed872f9	-0.42275217
63	0xbeb84b51	-0.35994962
64	0xbe9cfef9	-0.3066328
65	0xbe71a645	-0.23598583
66	0xbf168c3a	-0.5880772
67	0xbeaf8935	-0.34284368
68	0xbf0ea069	-0.55713516
69	0xbef3b241	-0.47596934
70	0xbe9b9838	-0.3038957
71	0xbe857216	-0.26063603
72	0xbf20eca3	-0.6286108
73	0xbefafb88	-0.49020028
74	0xbec5e0a4	-0.3864795
75	0xbeda314e	-0.42615741
76	0xbe91aa2c	-0.28450143
77	0xbec29964	-0.38007653
78	0xbe9b947a	-0.30386716
79	0xbee53678	-0.4476812
80	0xbe958f6d	-0.29210988
81	0xbeada571	-0.33915284
82	0xbe7936a2	-0.24337247
83	0xbe4db2ac	-0.20087689
84	0xbea602c0	-0.32423973
85	0xbe9eb542	-0.30997664
86	0xbe9af68b	-0.30266222
87	0xbe8bed81	-0.2732964
88	0xbe964fad	-0.29357663
89	0xbe827c4d	-0.2548546
90	0xbe8f72c7	-0.28017256
91	0xbeb94922	-0.36188608
92	0xbe8915b1	-0.26774362
93	0xbe9de279	-0.30836847
94	0xbe8707ef	-0.2637324
95	0xbee7fa64	-0.4530822
96	0xbea8c659	-0.32963827
97	0xbe495e9d	-0.19664998
98	0xbf03e0ad	-0.51514703
99	0xbeff512f	-0.49866626
100	0xbeb4612a	-0.3523038
101	0xbec406b0	-0.38286352
102	0xbe6e5b1d	-0.23276944
103	0xbe4f0242	-0.20215705
104	0xbe96e22e	-0.29469436
105	0xbe9dbaad	-0.30806485
106	0xbe982cc2	-0.29721648
107	0xbe575e31	-0.21032025
108	0xbeb9a20e	-0.3625645
109	0xbe8bf15b	-0.27332577
110	0xbe7dc239	-0.24781121
111	0xbeb653dd	-0.35610858
112	0xbf1ad287	-0.6047749
113	0xbea83d35	-0.32859197
114	0xbe8b46d0	-0.27202463
115	0xbe7dcb04	-0.24784476
116	0xbeab6f6d	-0.3348345
117	0xbe96d7a1	-0.29461387
118	0xbe816ada	-0.25276834
119	0xbe87dd2c	-0.26535928
120	0xbf4ece61	-0.8078366
121	0xbe805d2a	-0.2507108
122	0xbe9f08de	-0.31061453
123	0xbf3a2866	-0.72717893
124	0xbe8ad9b3	-0.27119216
125	0xbec7730c	-0.3895496
126	0xbe80e6c9	-0.25176075
127	0xbe4eb47a	-0.20186034

fc3.weight f4 [1, 128]
0	0x3bd25842	0.0064192126
1	0xbb424f6a	-0.0029649385
2	0xbd1512cb	-0.036394875
3	0x3daec016	0.08532731
4	0xbc23b23b	-0.009991224
5	0xbcb08a93	-0.021550452
6	0x3d160a47	0.036630895
7	0x3d34562f	0.044027504
8	0xbd044eb1	-0.03230161
9	0x3d6a9f59	0.057280872
10	0x3c7064fd	0.014672515
11	0xbb1c0c62	-0.0023811092
12	0x3c78cb9f	0.015185266
13	0x3c72b390	0.014813319
14	0xbd510908	-0.051034003
15	0xbb084d8f	-0.0020798182
16	0xbc2574f0	-0.010098681
17	0x3bcd8e93	0.0062730997
18	0xbd293098	-0.04130611
19	0x3b0b7879	0.0021281524
20	0x3d13ea57	0.036112156
21	0x3d3926c3	0.04520298
22	0xbc0309ec	-0.007997971
23	0xbcc3e2a5	-0.023911783
24	0xbcc0e65a	-0.02354734
25	0xbcd1f9f7	-0.025631888
26	0x3c3ac46c	0.01139937
27	0xbd0db31f	-0.03459465
28	0x3dc4b256	0.096043274
29	0xbc45d63a	-0.012075001
30	0x3d073125	0.033005852
31	0x3cadad12	0.02120069
32	0xbd68be25	-0.05682196
33	0xbc1b57b0	-0.009481356
34	0x3c5ebf09	0.013595351
35	0x3c11d045	0.008899753
36	0xbd419a00	-0.047266006
37	0xbb7cf2d8	-0.0038596895
38	0x3c481f0c	0.012214433
39	0x3cda232f	0.026628105
40	0x3c108674	0.008821119
41	0xbc5b3031	-0.013378189
42	0x3c186fef	0.009304031
43	0x3dfccc53	0.12343659
44	0xbc688798	-0.014192484
45	0x3ce1a76d	0.027545655
46	0x3c9e4f35	0.019324878
47	0xb9076d8e	-0.00012915416
48	0xbba7c9af	-0.005120478
49	0x3c8d704f	0.017265467
50	0x3b9127b6	0.0044297827
51	0x3cb437d9	0.021999286
52	0xbc1fee39	-0.009761387
53	0x3a9f30d9	0.0012145295
54	0x3cf99c21	0.030469956
55	0x3ce8e1bf	0.028427957
56	0x3bbcc8eb	0.005761256
57	0xbbb7bbf1	-0.005607121
58	0x3defb303	0.11704066
59	0xbb0f7410	-0.0021889247
60	0x3b16a84b	0.0022988494
61	0x3d8c18fa	0.068407014
62	0x3c927d0b	0.01788189
63	0x3a07ba1e	0.0005177575
64	0xbde30c0f	-0.11086284
65	0x3cef17dd	0.029186184
66	0xbdb8db1d	-0.090261675
67	0xbc251e3c	-0.010078009
68	0x3c903b99	0.017606543
69	0xbc776490	-0.01509966
70	0x3bc6da96	0.006068538
71	0x3ba041c9	0.0048906547
72	0xbd225796	-0.03963431
73	0xbdad8e88	-0.08474451
74	0xbca37ecf	-0.019957928
75	0xbb258dab	-0.0025261443
76	0x3addb0cd	0.0016913653
77	0xbcf98082	-0.030456785
78	0x3c2e29ba	0.010630066
79	0x3d267bcd	0.04064541
80	0x3ad51dca	0.0016259488
81	0x3c121f47	0.00891859
82	0xb8dddefd	-0.00010579636
83	0xbc06ba19	-0.00822308
84	0x3c78a555	0.015176137
85	0x3c5a6dd7	0.013331852
86	0x3ca3a504	0.019976147
87	0x3ca7cbc0	0.020482898
88	0x3cadc7dc	0.021213464
89	0x3d1a65c3	0.037694704
90	0xbcc042da	-0.023469377
91	0xbcbb50f2	-0.022865746
92	0x3bb9c83c	0.0056696218
93	0x3ce76467	0.028246118
94	0x3c411d67	0.011786795
95	0x3e54b996	0.2077392
96	0xb9523b50	-0.00020049256
97	0x3adafc54	0.001670728
98	0xbd565e85	-0.052336235
99	0xbdcf8d4e	-0.101343736
100	0x3c87568f	0.016520767
101	0x3a950369	0.0011368814
102	0xbb7605ff	-0.0037540195
103	0x3bc8e9c9	0.006131385
104	0xbb93a224	-0.0045054127
105	0xbc943ffa	-0.018096913
106	0xbd49f454	-0.049305275
107	0xbcece2e5	-0.028916785
108	0xba92154b	-0.0011145262
109	0xbb890aa9	-0.004182179
110	0x3c400787	0.011720545
111	0x3a2c0e65	0.0006563424
112	0x3d500c67	0.050793078
113	0xbd18771d	-0.03722297
114	0xbcea88aa	-0.02862962
115	0xbbd46b74	-0.006482536
116	0xbc80e823	-0.015735691
117	0x3d93dfec	0.07220444
118	0xbc90ef05	-0.017692098
119	0xbc6628b3	-0.014047789
120	0x3d3705bd	0.044683207
121	0xbc324b5f	-0.010882228
122	0x3c2a4dfa	0.010394568
123	0xbcb0051d	-0.021486813
124	0xbc76d641	-0.015065731
125	0x3d6514a1	0.055927876
126	0xbc52a6a5	-0.012857114
127	0x3db0254a	0.08600862
