training_output/best_agent/checkpoints/episode_637/weights_actor.pth (torch_old, 83672 bytes, 10 tensors)

fc1.weight f4 [128, 24]
000000 ad 38 b3 3f dc bf 9e bf 5e 0c 25 bf 1f a4 1a c0
       1.4001671 -1.2402301 -0.64471996 -2.4162672
000010 28 d5 00 c0 0c 8f a5 3e d0 5c 19 bf 55 09 19 c0
       -2.01301 0.323357 -0.59907246 -2.3911946
000020 89 ea b0 3f e8 d0 d0 bf cd 72 97 bc 73 90 ca bf
       1.3821574 -1.6313753 -0.018487358 -1.5825332
000030 87 48 11 c0 93 69 b2 3f aa bf 7e bc 40 94 c4 bf
       -2.2700517 1.3938469 -0.015548626 -1.5357742
000040 76 80 fd 3f ec 79 bb bf 06 52 3d bf 65 d0 56 3f
       1.9804828 -1.4646583 -0.7395328 0.83911735
000050 5e 36 1e c0 55 ad 65 3f e8 55 2c bf 02 31 7c 3f
       -2.4720683 0.8971761 -0.6731858 0.9851228
000060 aa e6 eb bb 79 5c e9 3f 4a e2 ed 3e a1 c8 43 bf
       -0.007199128 1.8231345 0.46461707 -0.7647801
000070 ee ab a4 3f ef 19 7d bf 13 cb dd 3e 92 57 68 bf
       1.2864969 -0.98867697 0.43318996 -0.9075862
000080 a8 00 06 bd c6 1e ce 3f d1 f3 82 3f 35 c2 4d bd
       -0.03271547 1.6103141 1.0230657 -0.05023404
000090 c7 99 ab 3f f6 f2 19 c0 b7 23 81 3f 40 60 c5 bd
       1.3406304 -2.4054542 1.0089024 -0.09637499
0000a0 25 ed e9 bb d0 9b bc 3f ed a1 c0 3e 48 73 b8 3e
       -0.0071388655 1.473505 0.3762354 0.36025453
0000b0 cf d2 a0 3f 44 e1 8b c0 d2 b8 df 3e 65 ea ab 3e
       1.2564334 -4.3712482 0.43695694 0.33577266
0000c0 e0 32 a4 3f 26 0a 27 c0 a6 23 90 be c7 53 ec be
       1.2828026 -2.6099944 -0.28152198 -0.46157667
0000d0 4f a9 61 bb 52 e6 18 c0 c1 55 a2 be f4 5b a1 be
       -0.0034433191 -2.3890576 -0.3170605 -0.31515467
0000e0 9a 15 83 3f 79 56 1d c0 39 7c a8 bf b4 6c 24 bf
       1.0240967 -2.4584029 -1.316291 -0.6422837
0000f0 1c f6 8f be 87 18 06 c0 d4 31 9f bf 3a 9b 29 bf
       -0.28117454 -2.095247 -1.2437081 -0.6625248
000100 a0 53 af 3f fc 6b 2f c0 3e 26 8c 3f c1 17 d5 bf
       1.3697395 -2.7409658 1.094917 -1.6647874
000110 fc 02 83 bf bc d4 89 bf b3 62 89 3f b3 3f d7 bf
       -1.0235286 -1.0768046 1.0733246 -1.6816314
000120 8e f5 26 3f b7 e2 c2 c0 62 3d fa be de c8 71 3f
       0.65218437 -6.090175 -0.48874956 0.94447124
000130 61 c1 e1 3f d4 86 e6 bf f2 91 14 bf 57 6a 6c 3f
       1.763714 -1.8009896 -0.58035195 0.9234976
000140 58 93 96 3e 43 ed b5 c0 fa 8d a1 3d 49 30 52 3f
       0.2940929 -5.6852126 0.07888408 0.8210493
000150 18 cc 95 3e 02 d7 21 3f 6f 6c ad 3c 33 f9 3f 3f
       0.29257274 0.632187 0.02116987 0.7498962
000160 9f ab 9e 3f 86 1a 9e c0 9d 63 e9 3e aa 33 08 bf
       1.2396125 -4.9407377 0.4558381 -0.53203833
000170 39 b5 a8 bf cd 6c da 3f cd 79 f4 3e 08 0a 0d bf
       -1.3180305 1.7064453 0.47749177 -0.5509343
000180 a6 58 a5 be eb 3a 1a 3f 7e 66 2d bf bf ab b2 3f
       -0.32294196 0.6024615 -0.67734516 1.3958663
000190 ff f7 71 3f 8d 16 26 3f 02 92 29 bf 6a 88 ba 3f
       0.94519037 0.6487816 -0.66238415 1.457288
0001a0 9a 12 1d 3e c1 af ef 3f 37 1a ee be 37 66 14 40
       0.15339127 1.8725511 -0.46504375 2.3187387
0001b0 e5 fe d6 3f d0 32 7f 3f 48 54 e3 be 9d f6 17 40
       1.6796538 0.9968691 -0.4440024 2.374427
0001c0 ab 0d b1 be a9 9a 1b 40 94 ef 10 bf 26 8f c6 3f
       -0.3458074 2.4313147 -0.5661557 1.5512435
0001d0 39 17 29 40 0f 2b 06 40 2d 8a 06 bf ab b1 c1 3f
       2.6420424 2.096378 -0.5255459 1.5132345
0001e0 93 43 71 bf 38 c9 3d 40 7b fd 30 3e 04 2e f2 be
       -0.94243735 2.9654064 0.17284195 -0.47300732
0001f0 fb 23 6b bf 91 ac 0d c0 14 37 15 3e db 1f d9 be
       -0.91851777 -2.2136576 0.14571792 -0.42407116
000200 eb 4c 8d bf 52 f2 44 40 f7 fa a6 3c 01 62 48 be
       -1.1039099 3.07729 0.020383341 -0.19568636
000210 4d d4 5c bd 64 a3 8a c0 b3 f5 15 3d 98 37 6e be
       -0.053913403 -4.332445 0.03661127 -0.23263395
000220 da 46 b7 bf d1 b7 4c 40 1a 58 98 be 3e 9f 88 3f
       -1.4318497 3.1987193 -0.29754716 1.0673597
000230 0e 9d 11 3f 6e 86 ec c0 b1 95 81 be a5 be 95 3f
       0.5688027 -7.39141 -0.25309518 1.1698805
000240 1f b1 db 3d 31 cd cf be d7 64 98 bf cb c2 1d c0
       0.107271425 -0.40586236 -1.1905774 -2.4650142
000250 97 32 9d bd c3 e6 20 c0 e7 7a 92 bf 4f 02 1e c0
       -0.07675665 -2.5140846 -1.1443757 -2.468891
000260 14 d4 ce 3d 24 ea a2 bf 33 cd 82 be 89 1e cc bf
       0.100990444 -1.2727704 -0.2554718 -1.5946819
000270 42 57 21 3e 01 4a 08 c0 f1 ac 3e be 8d 70 d5 bf
       0.15755942 -2.1295168 -0.1862066 -1.6674973
000280 76 b0 ca 3e a8 a5 ef bf 1d 76 1a 3f a3 e8 28 bf
       0.39587754 -1.8722429 0.60336477 -0.65979975
000290 d9 f3 12 3f c5 f7 b1 bf ae 86 39 3f 9a 8d 17 bf
       0.5740333 -1.3903738 0.7247113 -0.5920044
0002a0 59 93 26 3c f3 90 69 c0 4a ab 89 be e3 6d de be
       0.010166966 -3.649472 -0.26888496 -0.43443212
0002b0 f6 b6 10 40 c3 53 9a bf 28 2a be be 5b 7e 04 bf
       2.261167 -1.2056812 -0.37141538 -0.51755303
0002c0 58 da 69 bd c9 9b 71 c0 13 5e 07 3f 07 8a 96 bf
       -0.057092994 -3.7751334 0.5287792 -1.1760873
0002d0 4b 22 c1 3f 73 47 32 bf 1e 74 13 3f 84 e7 8d bf
       1.508859 -0.6964027 0.57599056 -1.1086278
0002e0 cb d9 5a 3f 2d 46 67 c0 a7 1b 9c 3f c8 6a 05 bf
       0.85488576 -3.6136582 1.2195939 -0.5211606
0002f0 b5 1f e9 3e 38 b9 31 bf 6e c8 95 3f fe d8 07 bf
       0.45532003 -0.69423246 1.1701791 -0.5306548
000300 89 69 05 3f 2a 4e 2c 3f f9 60 99 3d 29 a0 6a bf
       0.5211416 0.6730677 0.07489199 -0.91650635
000310 d2 73 ff bf f6 f4 a2 bf 81 96 68 3d cf 2e 77 bf
       -1.995722 -1.2731006 0.056784157 -0.965558
000320 ba dd 2c 3f 1a 45 a0 3e 60 40 9d be e7 8f ee bf
       0.6752583 0.3130272 -0.30713177 -1.8637666
000330 98 8b a7 bf 28 c9 e9 bf 60 c4 72 be e7 e4 f5 bf
       -1.3089476 -1.8264513 -0.23707724 -1.921048
000340 ca 5a a3 3f 43 02 8f 3c 71 43 b1 3e 6e 7c 3b c0
       1.2762082 0.017457133 0.34621766 -2.9294696
000350 60 64 4f bf d0 24 eb bf d2 d7 b4 3e 79 28 40 c0
       -0.81012535 -1.8370609 0.35320908 -3.0024703
000360 ed e4 2f 3f fa 5a 2a c0 18 86 9a 3e a7 03 28 3f
       0.6870869 -2.6618028 0.3018043 0.65630573
000370 b7 aa ed bf be fc c5 bf 6c 08 2d 3e 62 ae 20 3f
       -1.8567723 -1.5467756 0.16897744 0.6276609
000380 16 7d 2d 3f 4d 9c 1f c0 74 c5 95 3e 10 b3 0e 3e
       0.6776899 -2.4939148 0.29252207 0.13935494
000390 c4 f2 02 c0 7d 13 ce bf 85 61 50 3e aa ae 71 3d
       -2.0460672 -1.6099697 0.20349701 0.059004463
0003a0 1e 52 d0 3f 23 e4 33 c0 0b 36 aa 3e a0 1d 16 c0
       1.627506 -2.8107994 0.33244357 -2.3455582
0003b0 13 55 12 c0 3a 6e 31 bf c2 cd e5 3e ce cd 15 c0
       -2.2864425 -0.6930882 0.44883543 -2.3406863
0003c0 bc e3 30 3e 83 61 13 40 ab b4 dd 3e c4 22 4d c0
       0.17274374 2.3028266 0.433019 -3.205247
0003d0 6a e6 b6 bc d1 e8 7f 3d 14 07 da 3e dd ff 45 c0
       -0.022326667 0.06247789 0.42583525 -3.0937417
0003e0 ff b4 58 3f e6 d6 cc 3f 3f e8 72 3f 3b 79 27 c0
       0.8465118 1.6003082 0.9488563 -2.6167743
0003f0 14 8b 86 3f b2 16 5a 3c 7f ea 76 3f e6 65 26 c0
       1.0511193 0.013311075 0.9645156 -2.5999694

fc1.bias f4 [128]
000000 16 e3 0a c0 37 19 b1 be 03 81 49 bf 9f 91 c5 be
       -2.1701102 -0.3458955 -0.7871248 -0.38587663
000010 96 b0 f6 bf e0 45 73 3e 6b b5 52 bf ca b4 b2 be
       -1.927264 0.23757124 -0.8230807 -0.34903556
000020 1d 84 9f bf 4b 4c 22 bf e1 31 df be 4c 37 37 bf
       -1.2462193 -0.63397664 -0.43592742 -0.7156875
000030 ec 5a 90 be b8 9a 93 bf f6 d7 ff be b4 c0 7f bf
       -0.28194368 -1.1531591 -0.49969453 -0.99903417
000040 f3 be d9 be ec d4 26 bf 25 32 22 c0 0f fa 04 bf
       -0.42528495 -0.65168643 -2.5343106 -0.5194406
000050 a3 4e 4a bf d5 4d ed bf 5f fb 4b bf 6e 9d c8 3d
       -0.7902624 -1.8539377 -0.79680437 0.09795652
000060 d1 80 b4 bf 40 f8 fc bf 4f 2e 21 bf 49 a8 ce bf
       -1.4101812 -1.976326 -0.62961286 -1.6145107
000070 c8 eb 03 c0 c9 ee 86 be f8 8d a2 3d e9 3c ef 3f
       -2.061266 -0.26354054 0.07937235 1.8690463
000080 d5 db e2 3f 35 38 24 bf 99 ce 0e c0 fe 0d 90 bc
       1.7723337 -0.64148265 -2.2313597 -0.017584797
000090 79 b3 3a bf 37 b6 b2 3c b1 fa 21 c0 f7 0a c0 bf
       -0.72930104 0.021815402 -2.530926 -1.5003346
0000a0 33 fa 17 bf 40 cc 1c bf dd 52 96 bf 32 76 60 3f
       -0.5936615 -0.6124916 -1.1744038 0.8768035
0000b0 e7 32 e6 bf 2b 97 a0 bf 0e e2 1f bf 95 cd fc bf
       -1.7984284 -1.2546133 -0.6245431 -1.9750239
0000c0 94 99 91 bf 59 6b 76 bf 02 f4 46 be bc 6b de be
       -1.1374993 -0.9625755 -0.19429019 -0.4344157
0000d0 df 4f 5c c0 f3 21 80 3d 7a 12 ec be c7 20 f6 bf
       -3.442375 0.06256475 -0.46107846 -1.9228753
0000e0 71 b6 bb bf 83 6a cb 3d f3 29 01 3f 62 b6 9f bf
       -1.4665052 0.09932425 0.50454634 -1.2477534
0000f0 6e 9d 89 bf bd aa 58 bf 80 1d 57 bf 51 bc fa 3d
       -1.0751169 -0.84635526 -0.8402939 0.1224295
000100 e5 23 e2 bd 15 7a 08 3d 39 1e 68 bf 0c c6 be bf
       -0.110420026 0.03331955 -0.90671116 -1.4904189
000110 49 90 8a bf ff 50 2e c0 14 01 03 c0 8c 7d 97 be
       -1.0825282 -2.7236936 -2.0469408 -0.29587972
000120 18 7d 47 3e e0 e6 9b bf e9 ae 2b 3f b1 ab 31 3d
       0.19481313 -1.2179832 0.67063767 0.04337663
000130 b9 28 74 bf c3 62 93 3e 8b ce c9 3e b3 46 b1 3f
       -0.9537464 0.28786287 0.39415392 1.3849701
000140 c3 44 1c c0 e7 73 a5 bf c8 04 e7 bf db 52 1d bf
       -2.441697 -1.2925996 -1.8048334 -0.6145455
000150 59 0c ab bf d1 52 9a bf 3e 39 38 bf 21 46 f2 bf
       -1.3363143 -1.2056524 -0.71962345 -1.8927652
000160 b4 aa 1a c0 5e 50 0a c0 ae b4 06 c0 97 d1 6c be
       -2.416669 -2.1611552 -2.1047778 -0.23126827
000170 cd 21 28 bf 3b a4 7f bf 11 50 af bf af ad d8 bf
       -0.65676576 -0.9985997 -1.3696309 -1.6928004
000180 12 05 c2 bd 38 3c 87 be 7b 14 ea be ab 3f 43 bf
       -0.09473623 -0.2641313 -0.4571875 -0.76269025
000190 dd 87 27 3f 0d 64 eb bf e4 8e 37 be 32 b6 a4 bf
       0.65441686 -1.8389908 -0.17925602 -1.2868102
0001a0 e7 ee 0c c0 bb 01 39 3f 42 e6 47 3e 51 25 88 3f
       -2.2020814 0.72268265 0.1952143 1.0636388
0001b0 52 bb f7 bf 21 77 41 bf f6 ea 0c c0 77 9f d6 be
       -1.9354041 -0.755724 -2.2018409 -0.41918537
0001c0 e2 8a d6 bf cc f5 01 be 29 d0 b7 bf 53 e1 44 bf
       -1.6761134 -0.1269142 -1.43604 -0.7690632
0001d0 b1 59 7f bf c4 83 39 3f 46 e1 b2 bf cd 62 65 bf
       -0.99746233 0.72466683 -1.3974998 -0.89603883
0001e0 14 e4 03 c0 a6 da f3 bf 00 61 3e 3d ab 19 bf bf
       -2.0607958 -1.9051101 0.046479225 -1.4929708
0001f0 e9 c8 d1 bf 50 33 02 c0 55 e1 1f bf 8f 6a 97 bf
       -1.6389438 -2.0343819 -0.62453204 -1.1829394

bn1.weight f4 [128]
000000 d4 97 86 be c4 ce a6 3e e7 cb 99 3e 85 ac 5e 3f
       -0.2628771 0.32579625 0.30038378 0.86981994
000010 7a 5f d1 3e f9 7f 81 40 fb 2e 97 3b a5 b5 c8 3d
       0.40893155 4.0468717 0.004613755 0.09800271
000020 ef 09 45 3e 2f c1 cf 3f 27 7c 31 3f 86 f0 00 40
       0.1924207 1.623083 0.69330066 2.0146804
000030 8c 36 41 40 ef 87 e7 3f 6d a2 c2 3d 26 ec e6 3e
       3.0189543 1.8088359 0.095036365 0.45102042
000040 ab 10 9d 3f 8e 35 d5 3f c1 88 d1 3f 47 fb 8a 3f
       1.2270712 1.6656969 1.6369859 1.0857934
000050 cc 68 55 40 86 56 68 3e 9c f4 6a 3f 43 8d 9e 3f
       3.3345213 0.22689256 0.91779494 1.238686
000060 79 b8 44 3f 76 d9 fb 3f f0 8e 73 3f bb 46 79 3d
       0.7684398 1.9675739 0.9513998 0.06085847
000070 bd 30 78 3f e5 07 ce 3f ab 06 a0 3e 88 20 3f 3f
       0.9694937 1.6096159 0.31255087 0.74659014
000080 ea 8a 76 3f 27 88 04 40 76 eb 8d 3c 47 39 98 3d
       0.96305716 2.07081 0.01732419 0.074328
000090 e7 66 d0 3f d3 b3 1b 3f 6f 9e 91 3e be 23 f6 3f
       1.6281403 0.60821265 0.28441188 1.9229658
0000a0 ae 49 29 be 6a 4b 1a 40 48 ff 15 3c 4a 09 78 3e
       -0.16532013 2.410853 0.009155102 0.24222293
0000b0 0c ab c7 3e 0b bd fd 3f 56 7a b4 bd fb 7d d8 3f
       0.38997686 1.9823316 -0.08812396 1.6913446
0000c0 2f d5 ed 3f f9 be d7 bf d1 37 4b 40 8d a6 b2 3f
       1.8580683 -1.6855155 3.1752818 1.3957077
0000d0 c7 cd c7 3f f7 7e d2 3d f0 08 03 be ab 1e 5d 3c
       1.5609673 0.10278123 -0.12796378 0.013496081
0000e0 52 d3 2f be 2e 0c b2 3f 14 8b 2f 3e 36 d4 f2 3d
       -0.17170456 1.3909967 0.17142898 0.11856882
0000f0 e4 8d 1f be fa 40 14 40 22 0a 8d 3e 01 b1 45 40
       -0.1558147 2.3164659 0.27546793 3.0889285
000100 fb 39 75 40 7e c5 02 40 62 68 a2 3f 8a 48 19 40
       3.8316638 2.043304 1.2688105 2.3950524
000110 98 d8 4d 40 c9 08 15 40 4d 8d 5a 3f 89 a1 b3 3f
       3.2163448 2.3286612 0.8537186 1.4033672
000120 2f a4 a7 3f d0 75 16 40 46 90 4d 40 38 bf fa be
       1.309698 2.3509407 3.2119308 -0.48974013
000130 ef 41 3a 3a 3d c2 95 be 60 0c ea 3f 7d 7d 05 40
       0.0007105162 -0.29249755 1.8285027 2.0857842
000140 bd 95 1d 40 31 ed 23 40 d7 56 92 40 ac 26 f2 3f
       2.4622643 2.561352 4.5731006 1.8918052
000150 cc 81 c9 3f 93 d2 84 3f e9 4e 41 3f f0 16 c6 3f
       1.5742736 1.0376762 0.7551103 1.547575
000160 1a 04 4d 40 45 26 13 40 a4 0a de 3f da 85 94 be
       3.2033753 2.2992108 1.7346997 -0.2900837
000170 b8 34 1b 40 7b 23 5c 3f fe b1 04 3f e8 7b 83 3f
       2.4250927 0.8599164 0.51834095 1.0272188
000180 9d f3 17 3e bb c3 b1 3f 90 ac 37 3e f5 d4 c7 3f
       0.14839025 1.3887857 0.17936921 1.5611864
000190 f4 69 9b 3f 10 fc 31 40 7a 9c 80 3f a6 11 30 40
       1.2141709 2.7810097 1.0047753 2.7510772
0001a0 d9 1b 1a 40 1d 6e b4 be 3a 6a a5 3f 49 b1 ad bb
       2.4079497 -0.3524026 1.2923043 -0.005300675
0001b0 c4 04 a0 3e 3e 44 c6 3d 8e 37 8f 3f e7 1a 00 40
       0.31253636 0.09680985 1.1188829 2.001642
0001c0 71 14 78 3f 0b 39 1b 40 85 52 57 3f a9 b7 da 3d
       0.9690619 2.4253566 0.8411029 0.10679562
0001d0 03 cb 98 3f a1 d0 bd 3f d6 f8 c7 40 8a 54 bf 3f
       1.1936954 1.4829293 6.2491255 1.4947674
0001e0 dc f6 90 3f c9 67 f8 3e d3 d1 c9 3f b6 f6 f1 3f
       1.1325336 0.48516682 1.5767158 1.8903415
0001f0 03 17 bd 3c f4 e2 0f 3f f1 94 21 3e de 26 3c 40
       0.023082262 0.5620568 0.15779473 2.9398723

bn1.bias f4 [128]
000000 54 d0 37 be d7 c5 2c be c7 a9 32 3e 23 09 9d 3f
       -0.17950565 -0.16872345 0.17447577 1.2268413
000010 b3 93 5b 3e b8 53 46 3f 18 f9 37 3e a8 af cc 3e
       0.21443062 0.77471495 0.17966115 0.39977765
000020 62 6b 70 3e 4d e0 f2 3e 39 8e a7 3e 10 2a 9d 3f
       0.23478463 0.47436753 0.32725695 1.2278461
000030 77 18 d9 3e e1 a9 ee be 31 a4 0b bf e9 56 92 bd
       0.42401478 -0.46613982 -0.5454741 -0.07145483
000040 8d 26 d1 3f 58 4a 56 3e 2e f9 ab bf 5b c7 dc 3e
       1.633989 0.20926797 -1.3435419 0.43120846
000050 2d 39 65 bf dd b0 2b bf c9 58 6e 3e 39 08 a0 3f
       -0.8954037 -0.67066747 0.23276056 1.2502509
000060 37 ca 7e be 50 b7 3b 3f 96 6b 08 bf a6 7c 13 3e
       -0.24881826 0.7332659 -0.53289163 0.14403018
000070 14 5b 5e 3e 1a 27 91 3f 83 ee 9a 3e a6 3e 8d bf
       0.21714431 1.1340058 0.30260095 -1.1034744
000080 6c af f8 be de 9e 5d be 0a b5 a0 bd 61 46 a0 bd
       -0.48571336 -0.21642634 -0.078470305 -0.07825924
000090 5c dc 3a 3f 62 2b 91 bf 01 5b 1d 3e 65 84 91 3e
       0.7299249 -1.1341364 0.15366746 0.28421322
0000a0 63 df 11 be 31 d1 2d 3e 5c c7 4d 3d ef 9a d1 bd
       -0.14245372 0.16974331 0.050238952 -0.10234629
0000b0 c3 9b 8a 3e ba db 07 3f 20 d4 e7 bd 8d 5e 19 3f
       0.27071962 0.5306965 -0.113197565 0.599099
0000c0 67 b7 e1 3e 42 31 f0 3e ca fd cb 3e aa ea 8a 3f
       0.44085237 0.4691258 0.39842063 1.0852864
0000d0 e3 e9 a5 bf 7d ad 1d bc db 66 34 bd cb c7 8e 3e
       -1.2962002 -0.009623882 -0.044043403 0.27886805
0000e0 6e 18 62 bc cc 12 17 3f 45 65 5e bd 5d 1a ac 3d
       -0.01379977 0.59013057 -0.054295797 0.08403466
0000f0 cb b8 0b 3b 7e 21 95 3f 04 d5 91 3e 52 a9 c2 3e
       0.0021319862 1.1650846 0.2848283 0.38019806
000100 41 1b b1 3e 64 c4 58 3f 79 4f 80 3e 41 5c 7d 3f
       0.34591106 0.8467467 0.25060633 0.98968893
000110 3f e6 1f 3f d1 e9 0b 3e 45 79 83 3c 85 04 46 3f
       0.624607 0.13663413 0.016049037 0.77350646
000120 b6 90 9f 3f 7e 3b d6 bf e5 e2 b0 bf 94 4f dd be
       1.2466037 -1.6736906 -1.3819243 -0.43224776
000130 86 bf 3d bd d1 97 62 be e2 f5 75 3f bf 92 4e bf
       -0.04632523 -0.22128226 0.9607831 -0.80692667
000140 f6 05 13 bb f0 60 55 3f a9 92 42 bf ce d5 d4 3f
       -0.0022433973 0.8335104 -0.76005036 1.6627748
000150 cf dc 20 3f 3d d7 ed 3e 4b c4 25 3f 9c 65 88 3e
       0.6283693 0.46453276 0.64752644 0.26640022
000160 68 f8 11 3f 2f 6a ba 3e 59 61 df 3e e1 25 a4 be
       0.5701966 0.36409137 0.43628958 -0.3206015
000170 9f 85 ec 3f e9 0a 4a bf b7 90 07 3e e2 d5 0b 3f
       1.8478278 -0.789229 0.13238798 0.54623234
000180 dd 63 1c be 88 40 38 3f 98 a2 a3 be 40 ff a4 3e
       -0.1527247 0.71973467 -0.31959987 0.3222599
000190 0c 47 9d 3f db af 1a 3f 1a 21 56 3f 8f 08 8a 3e
       1.2287307 0.60424584 0.8364426 0.26959655
0001a0 29 94 a2 be 63 f4 3c be e0 e6 1c 3f ae 2b 58 bd
       -0.31753662 -0.18452601 0.6128979 -0.05277603
0001b0 d8 1a 4d bc 65 df e5 3d 27 f8 2b 3d d2 21 d5 3e
       -0.012518607 0.1122425 0.041984703 0.41627365
0001c0 32 c6 82 3d 46 6c 85 3f 2a 08 6a 3d 32 f8 b2 3e
       0.06385459 1.0423667 0.057136692 0.34954983
0001d0 e9 01 c6 3d f7 18 5a 3f 34 a0 de be 05 fd e3 3e
       0.09668333 0.85194343 -0.434816 0.44528976
0001e0 da f3 72 bf eb 0b d0 bd 4a 2b a6 3f f0 76 ad 3f
       -0.9490334 -0.10158523 1.2981961 1.3551922
0001f0 1a dd a3 3e 59 56 c4 bc 79 19 87 3e 42 fd a2 3f
       0.32004625 -0.023966955 0.26386622 1.2733538

bn1.running_mean f4 [128]
000000 77 e4 04 41 fd 75 cb 41 2c 8d db 40 37 c7 28 41
       8.305778 25.432611 6.860983 10.548636
000010 10 ce c8 41 93 bb 04 40 3e 88 15 41 4f 40 03 42
       25.100616 2.0739486 9.345762 32.8128
000020 7e 8d e3 40 0c 91 01 41 77 5e 00 42 99 20 85 41
       7.111022 8.097912 32.09225 16.640917
000030 a4 e1 4c 42 bb 2e b6 41 ef 83 3d 41 88 16 8a 42
       51.220352 22.772818 11.84471 69.04401
000040 e9 d7 33 42 e4 12 5e 3e 86 b3 d4 41 ae ad 6b 41
       44.96085 0.21686894 26.587658 14.729902
000050 24 80 fd 41 3a fa e2 3f a9 91 96 41 27 a0 4b 42
       31.687569 1.7732613 18.821123 50.9064
000060 fb 32 a6 42 16 ba 73 41 60 d0 91 40 ae 33 a1 40
       83.09957 15.232931 4.5566864 5.0375586
000070 9b d3 93 42 e7 55 03 42 b6 c1 ac 41 05 0b 6b 42
       73.91329 32.83389 21.594585 58.76076
000080 a5 8a f2 41 ce d8 54 40 1d dd 4c 40 c4 6d 7d 42
       30.317698 3.3257327 3.2009957 63.357193
000090 ff 55 79 41 86 a8 10 42 28 ac 09 41 56 d8 61 41
       15.583495 36.164574 8.60453 14.115316
0000a0 cd ec 2d 41 db 99 9b 3f f8 55 ad 41 dd 68 91 42
       10.870313 1.2156328 21.666977 72.70481
0000b0 2f 5e 3a 40 a8 48 1a 41 cc 2f 24 40 4a 77 de 40
       2.9119985 9.642738 2.5654173 6.9520617
0000c0 1a 9b 8a 40 46 65 e4 40 27 c7 27 42 fd a6 3f 42
       4.3314333 7.1373625 41.944485 47.913074
0000d0 46 bb be 41 2b b3 f3 41 bb fa 02 42 87 b3 53 3c
       23.841442 30.462484 32.744854 0.012921221
0000e0 13 ff e0 3e 24 ce 46 42 a4 e6 25 42 22 44 50 41
       0.43944606 49.70131 41.475235 13.016634
0000f0 c3 d1 81 3f c1 60 0f 42 63 4e fe 40 3b b7 2b 40
       1.0142139 35.844486 7.9470687 2.6830585
000100 61 ad 3f 40 76 2f 2e 42 95 7a 85 41 ac b7 8d 42
       2.9949572 43.54635 16.684855 70.858734
000110 01 a3 00 40 68 d8 2a 40 74 65 96 42 4b 20 aa 41
       2.009949 2.6694584 75.19815 21.265768
000120 01 8b 60 42 bc f0 1f 42 40 ed 10 42 5b ea a6 41
       56.135746 39.985092 36.23169 20.864431
000130 49 ec 16 41 77 cd f1 41 df 66 5c 41 4a b3 0c 42
       9.432687 30.225325 13.775115 35.175087
000140 61 1b ba 42 80 d2 a4 41 97 f6 04 42 32 9e 17 42
       93.053474 20.602783 33.24081 37.904488
000150 5e 6a c0 40 72 5b 8a 41 49 25 19 41 51 18 cf 40
       6.0129843 17.294651 9.571603 6.4717183
000160 0e 0e a1 42 31 68 9c 42 74 d3 48 41 ea c9 24 42
       80.52745 78.2035 12.551624 41.19718
000170 fd 7b 78 41 90 10 cd 41 35 7f 01 40 3e 6e 22 41
       15.530271 25.633087 2.023389 10.151915
000180 82 5d 43 42 2d 5d 4c 42 5d 92 9f 42 07 5e 81 41
       48.841316 51.090992 79.785866 16.170912
000190 12 37 d2 41 74 10 b7 42 32 5d a4 41 d1 86 07 42
       26.27689 91.532135 20.545506 33.881657
0001a0 f8 e7 8a 41 24 ce 0e 42 b7 4e 3d 41 7d ed 43 42
       17.363266 35.70131 11.8317175 48.981922
0001b0 a8 68 09 3f 05 71 9e 40 d6 1c 92 3f 41 83 84 41
       0.5367532 4.9512963 1.141505 16.564089
0001c0 04 00 00 00 96 fa fc 41 91 c0 11 3f 26 df ca 41
       6e-45 31.622356 0.5693446 25.35896
0001d0 f4 a8 48 40 12 49 21 42 82 42 21 42 cc 14 29 40
       3.135312 40.321358 40.31495 2.6418943
0001e0 b2 a7 8c 41 04 00 00 00 6f 45 c0 41 62 d5 38 41
       17.581882 6e-45 24.033903 11.552095
0001f0 bb ec d7 40 a9 23 df 3e ba 5d cb 41 a8 35 b5 42
       6.747648 0.43581894 25.420765 90.6048

bn1.running_var f4 [128]
000000 24 e3 f7 43 a4 10 db 44 3f 05 dd 43 b0 5d 87 43
       495.77454 1752.52 442.041 270.73193
000010 cb e7 8b 44 8b 18 52 42 d8 3a 0a 44 83 97 14 45
       1119.2435 52.523968 552.91943 2377.4695
000020 a2 8e b5 43 79 04 a5 43 59 e4 20 45 7c 61 4b 44
       363.11432 330.03494 2574.2717 813.5232
000030 b1 06 13 44 5c 57 7b 44 01 a5 52 44 f6 e7 47 44
       588.10455 1005.365 842.5782 799.6244
000040 41 7d 4c 45 3e f7 db 40 c7 51 71 44 c5 89 23 44
       3271.8284 6.873931 965.2778 654.15265
000050 c5 6b bf 44 cf 0a 61 42 de 2f 8e 44 e7 ad 9c 45
       1531.3678 56.260555 1137.4958 5013.738
000060 9e 1a fd 44 1e 57 1a 44 9f 31 32 43 32 44 93 43
       2024.8318 617.3612 178.19383 294.53278
000070 20 8b ad 44 74 78 0f 45 8c 07 92 44 6c 4b e6 44
       1388.3477 2295.5283 1168.2358 1842.3569
000080 ea d3 a3 44 9c 75 13 43 38 4c 13 43 e3 1b 41 45
       1310.6223 147.45941 147.29773 3089.743
000090 b2 bd 51 44 1b 7a 9a 44 d9 33 8c 43 ea 1a 26 44
       838.964 1235.8158 280.40506 664.42053
0000a0 6b 70 86 44 d5 99 06 42 c3 ac a5 44 45 79 08 45
       1075.5131 33.650227 1325.3988 2183.5793
0000b0 dc 76 c9 42 17 1f 03 44 71 b9 86 42 fe d0 d7 43
       100.73215 524.4858 67.36219 431.63275
0000c0 db c6 4e 43 cd 4d 4a 43 c2 95 80 44 fa 3d 81 45
       206.77678 202.30391 1028.6799 4135.747
0000d0 59 e9 39 44 0f 1c 86 44 49 41 36 45 81 4b 40 3e
       743.64606 1072.8768 2916.0803 0.18778802
0000e0 b5 6a db 40 03 29 91 45 71 29 07 45 19 69 7f 44
       6.8567758 4645.1265 2162.59 1021.64215
0000f0 ab 6c d9 41 f6 b1 9b 44 45 be e1 43 1b a7 a6 42
       27.17806 1245.5613 451.48648 83.32638
000100 2e 88 8c 42 2f 05 54 44 43 19 50 44 a7 a0 24 45
       70.265976 848.081 832.3947 2634.0408
000110 cf 4b 7d 42 a9 16 be 42 00 38 5c 44 3d 14 02 45
       63.32403 95.04426 880.875 2081.265
000120 75 3a a0 45 c5 70 0c 45 5c 32 01 45 56 61 0f 45
       5127.307 2247.048 2067.1475 2294.0835
000130 8b 20 49 44 ce f0 1e 45 ab 14 22 44 98 ec 4e 44
       804.5085 2543.0503 648.32294 827.6968
000140 1d 4f 41 45 49 7c 91 44 c2 bf 58 44 cd 5d d7 44
       3092.9446 1163.8839 866.9962 1722.9313
000150 98 9d ba 43 f4 a3 83 44 69 22 2d 44 e5 ea ba 43
       373.2312 1053.1235 692.53766 373.8351
000160 f0 8e f4 44 ba 69 d2 44 c0 dd 89 43 ee 1f 74 45
       1956.4668 1683.304 275.73242 3905.9956
000170 84 0f 76 44 86 fa 80 44 f5 e5 49 42 ed b2 84 44
       984.24243 1031.8289 50.474567 1061.5914
000180 99 06 13 45 2b fc a9 45 a0 20 c4 44 12 96 10 44
       2352.4124 5439.521 1569.0195 578.34485
000190 54 f9 c2 44 b9 fe 68 45 bc 46 8c 44 2d 29 35 44
       1559.7915 3727.9202 1122.2104 724.6434
0001a0 ff c0 d9 43 7d 1d cf 44 ee 6e 31 44 37 ce 44 45
       435.50778 1656.9215 709.7333 3148.8884
0001b0 1e a5 42 41 4d 50 93 43 29 38 16 42 73 a5 65 44
       12.165312 294.62735 37.554844 918.58514
0001c0 04 00 00 00 74 67 b5 44 57 68 91 41 2e b0 ed 44
       6e-45 1451.2329 18.175947 1901.5056
0001d0 67 91 f7 42 58 12 28 44 6e ac 01 44 5f 26 00 43
       123.78399 672.2866 518.6942 128.14989
0001e0 2a 1d 7e 44 04 00 00 00 fa 69 71 44 3d e3 30 44
       1016.4557 6e-45 965.6559 707.5506
0001f0 8b 2a 7c 43 bb 4a 19 41 86 fe 48 44 62 21 b3 44
       252.16618 9.580745 803.9769 1433.0432

fc2.weight f4 [128, 128]
000000 85 c6 2b 3e d0 5a 0d bd 59 00 ca be 82 43 51 bf
       0.16774948 -0.034510434 -0.3945339 -0.81743634
000010 34 7d ac 3f d1 41 39 bf cb cd c0 3e 69 47 2c 3f
       1.3475709 -0.7236605 0.37657008 0.67296463
000020 bf 2d 34 3d 0a 21 8e bf 8b 6f ad 3f f3 2d 0a bf
       0.04398894 -1.1103833 1.3549665 -0.5397636
000030 8b 8b 71 bf fc ab 6b 3f 53 98 a0 be a9 21 ec 3e
       -0.9435355 0.920593 -0.31366214 0.4611943
000040 61 ad 73 3f bf 0c 3d bf 28 e1 8b be d4 3c d6 3f
       0.9518643 -0.73847574 -0.27320218 1.6737313
000050 cf 12 73 c0 75 e2 53 3f 13 12 17 3f 12 fa 1d 3f
       -3.798023 0.8276742 0.59011954 0.617097
000060 21 39 f6 3f 8d 54 47 40 03 76 7c 3e c8 30 49 be
       1.9236184 3.1145356 0.24654393 -0.19647515
000070 69 b0 0d 3f af d5 08 3f 61 b0 23 be 8b 0a 73 3f
       0.55347306 0.53451055 -0.15985252 0.9493796
000080 b3 03 ac bf c3 ff 7a 3f fb d6 0a bf a8 5c 9f 3c
       -1.3438629 0.9804651 -0.54234284 0.019453362
000090 da 7a 59 3f 97 1c c0 3d 35 c5 e6 be 2e ea ec 3f
       0.8495308 0.09380453 -0.45072332 1.8508966
0000a0 a3 7c b0 3d 3c 3a 68 bf ea 5b 96 3e 92 f8 cf 3f
       0.086175226 -0.9071386 0.29367 1.6247733
0000b0 ee 28 83 3f aa 55 03 40 33 e2 3b bf c4 f7 bf 3e
       1.0246866 2.0521035 -0.7339203 0.37493718
0000c0 37 72 f6 bf a2 1f f1 be 24 d2 b0 40 aa c8 51 3f
       -1.9253606 -0.47094446 5.525652 0.81946814
0000d0 c3 3f 28 bf 35 1d e6 3e 8b bc c8 3e 44 ad 02 bf
       -0.6572229 0.44944158 0.39206347 -0.5104563
0000e0 c7 ea e0 be 19 73 0a 3f f6 9b c9 3e 63 52 02 bf
       -0.4392912 0.54081875 0.393768 -0.5090696
0000f0 16 30 70 3e bb 89 8e 40 46 08 28 bf 1e 02 52 bf
       0.23455843 4.454313 -0.65637624 -0.8203448
000100 af 26 6c bf 09 4b 72 bf f0 71 bf 3f 63 97 21 40
       -0.92246526 -0.94645745 1.4956646 2.524865
000110 19 61 43 be 40 6c d8 3f bd 18 28 3f 17 ef b0 bf
       -0.19080009 1.6908035 0.6566275 -1.3822964
000120 f2 2f b1 3e ec 5f 80 be 42 31 95 bf da 14 30 3d
       0.34606892 -0.25073183 -1.1655657 0.042988636
000130 db d9 ef be 1c fa 0a 3e 2d a3 15 3e 13 4a c9 3f
       -0.46845898 0.13571972 0.14613028 1.5725731
000140 6e fa c6 3f 19 86 85 be 4b 42 83 be 68 78 22 40
       1.5545175 -0.2607887 -0.25636515 2.538599
000150 e1 b5 04 bb 53 ca 65 3e 79 fd 1e 3f f3 4f 9e 3f
       -0.002025001 0.22440462 0.6210552 1.2368149
000160 50 0d a1 3f 95 34 36 3f 92 e7 d2 3f 69 26 8a 3f
       1.2582188 0.71173984 1.647692 1.0792972
000170 6d 6e 9e 3e 88 cc 6a 3e d8 2e b8 bf 54 77 bf 3c
       0.30943623 0.22929585 -1.4389296 0.02337233
000180 20 83 dd bd de ff 88 3e 48 00 92 bd 94 0c a2 3e
       -0.10816026 0.2675771 -0.0712896 0.3165022
000190 f8 5a 49 3e 6d 1c 20 3f f6 04 32 bf ff 99 1f c0
       0.19663608 0.62543374 -0.6953882 -2.4937742
0001a0 79 8d 7d bf df 26 10 3e 7f e6 94 bf 13 e6 33 3f
       -0.99043995 0.14077328 -1.1632842 0.7027294
0001b0 c4 60 05 bf aa 9b 40 3f 3b 98 83 3e 8e 11 bb 3f
       -0.5210078 0.75237525 0.2570208 1.4614732
0001c0 60 40 9b 3f fa 9d 69 bf 7b 73 fc be ed bc 3f 3f
       1.2129021 -0.9125668 -0.49306855 0.7489765
0001d0 5f fb 74 bf b2 55 8a bf 4e 9f 0a 3e dd f6 af be
       -0.9569606 -1.0807402 0.13537332 -0.3436803
0001e0 2e 7a e2 3f 02 b9 67 be 6b 84 a1 bf 90 cf a6 bf
       1.7693536 -0.22629169 -1.2618536 -1.3032093
0001f0 3c f8 64 be e2 a1 a9 bf dd 53 d2 be 4f b8 27 40
       -0.22360319 -1.3252528 -0.41079608 2.6206243
000200 6d 9a 29 3f 43 81 ee be f5 46 5c 3e 43 ed e4 bf
       0.6625126 -0.46582994 0.21511443 -1.7884907
000210 20 84 28 3e 1a d1 1a bd 12 82 2f be 0a 80 32 be
       0.16456652 -0.03779707 -0.17139462 -0.17431656
000220 1f 0b fc be 18 0a 8c be 2e c5 95 bf 22 f5 6b bc
       -0.49227235 -0.2735145 -1.17008 -0.014401706
000230 a6 41 a5 3e 84 84 2b 3f c0 67 cb 3f f5 5e 2c bf
       0.32276648 0.6699908 1.5891037 -0.6733239
000240 da e1 8c bf c0 fd 68 3f 41 44 50 3f 93 96 57 3f
       -1.1006424 0.9101219 0.8135415 0.84214133
000250 14 6d fd be 4c 77 61 3f 2e d9 56 3f a0 f1 75 bf
       -0.49497283 0.8807266 0.8392514 -0.96071815
000260 7f 83 fe 3e a6 60 35 3f 87 0d 9c 3f 17 5e 9d 3f
       0.497097 0.708506 1.2191628 1.2294339
000270 89 7a 76 bf 09 00 fa be 63 e5 0e 3e 5b 71 4a 3f
       -0.96280724 -0.48828152 0.13954692 0.79079217
000280 e8 41 c3 bf 09 6e 09 bf ae 4d 62 3f ed c3 81 bf
       -1.5254488 -0.53683525 0.8839978 -1.0137917
000290 aa 7e 58 3e 51 bb 88 3f cb c1 5a 3f 80 56 fc 3e
       0.21142069 1.0682164 0.85451955 0.49284744
0002a0 58 8c c6 3e e1 8c 75 3e 7f 09 82 3d ba 8f d2 3e
       0.3877895 0.23979522 0.063494675 0.4112528
0002b0 a3 0a 4f 3e 32 84 f7 3d be 09 3e 3f b9 ad 41 bf
       0.20218901 0.12085761 0.74233615 -0.75655705
0002c0 66 2f d8 be 97 67 36 3e ac 26 90 3f e1 9a de bd
       -0.42223662 0.17812954 1.1261802 -0.108693846
0002d0 12 f5 7a 3f 0a 52 bf 3d 9c 00 69 be c7 26 19 3f
       0.980302 0.093418196 -0.22754139 0.59824795
0002e0 ae 19 ea 3e ca ba be bf 43 63 8f bd db 26 82 bf
       0.45722717 -1.4900753 -0.070013545 -1.0168108
0002f0 69 d1 4a 3f c7 a6 4e 3f 45 d8 63 3e 32 a3 72 3e
       0.79225785 0.8072323 0.22250469 0.23695067
000300 ec da 71 3c e0 ec 30 bf 28 9f 9e bd 70 93 7b 3f
       0.014761668 -0.6911144 -0.077452004 0.98271847
000310 5e c8 22 3f 3a 14 ac 3f 20 6b 41 bf 37 e8 d4 3e
       0.63586986 1.3443673 -0.75554085 0.41583416
000320 3e 4d de bf c8 ea 7a 3f ee 85 85 3f 2f 5d 88 3f
       -1.7367322 0.980145 1.0431497 1.0653437
000330 99 42 52 3f 99 74 8d 3f 2e ad 74 bf 28 b1 38 be
       0.8213287 1.1051208 -0.9557675 -0.1803633
000340 48 f4 1f 3f 42 22 df be 41 ad b7 3f 94 ce f0 be
       0.6248212 -0.43580824 1.4349748 -0.47032607
000350 77 18 23 3f 71 d2 af bf 42 65 52 3e 87 b8 c2 3f
       0.63709205 -1.3736097 0.2054644 1.5212563
000360 10 66 70 bf d3 fc ac bf 6b db d0 3f 07 a3 7e 3f
       -0.93905735 -1.3514656 1.6316961 0.9946751
000370 d8 bd 0b bf 3f c3 36 3e 3f 99 19 be 6f 82 1b 3f
       -0.54586554 0.17847918 -0.14999865 0.607459
000380 dd 39 08 bf 01 37 d1 3a 42 34 92 3e 92 2e 5a 3f
       -0.5321329 0.0015961827 0.28555495 0.8522731
000390 07 51 40 bf 17 a0 cb 3e 33 2e d2 3e 5a ad cb be
       -0.7512364 0.39770576 0.41050872 -0.39780694
0003a0 76 f0 52 3e 07 a1 30 3e 89 9b 88 be dc db c5 bf
       0.20599541 0.17248927 -0.26681164 -1.5457721
0003b0 9f dd 27 3f 8f 8b 07 3f f5 f5 18 3f 66 dd 70 be
       0.6557254 0.52947325 0.597503 -0.23521957
0003c0 22 49 88 3e a0 3f ea be b8 58 92 3f e0 7f 9b bd
       0.26618296 -0.45751667 1.1433325 -0.075927496
0003d0 32 3d 80 3e f0 4e 43 3c 19 83 47 40 ea 22 69 bf
       0.25046688 0.011920676 3.1173766 -0.910689
0003e0 11 74 c8 3f 91 31 f4 3d 4d 82 14 bf 74 90 34 bf
       1.5660421 0.119235165 -0.58011323 -0.7053292
0003f0 43 86 ab 3d cc 8c f3 3f b1 83 49 bf ad 6f 09 3e
       0.08375218 1.9027343 -0.7871657 0.13421507

fc2.bias f4 [128]
000000 e8 c5 57 bf b5 7a a3 bf f0 62 b9 3e 10 1e b2 bd
       -0.84286356 -1.2771822 0.36208296 -0.0869714
000010 b7 62 16 bf 26 05 88 3e 19 ad 9a bf 48 0a af bf
       -0.58744377 0.26566428 -1.2084075 -1.3675013
000020 e4 f8 9a bf f6 29 8f 3f c3 41 3f bf c3 29 28 bd
       -1.2107205 1.118468 -0.7470972 -0.041055452
000030 77 5f 3e 3f ee 93 80 be 37 42 46 be e2 97 c3 bd
       0.7436442 -0.2511286 -0.19361196 -0.09550454
000040 0b 36 2d c0 ac 35 28 3e 37 32 8a bf 55 db d0 bc
       -2.7064235 0.16426724 -1.0796574 -0.02549521
000050 6d e0 b4 bf aa 38 c1 bf c9 bc 24 3f fc 4b ec 3f
       -1.4130989 -1.5095417 0.64350563 1.8460689
000060 cd 07 9f 3f 6a 0b cb bf 95 73 a2 bf b1 9d f9 3e
       1.2424256 -1.5862858 -1.2691523 0.48753121
000070 69 b5 af 3f 2e c2 00 bf cd 8d 8c bf 6a cb 43 bf
       1.3727237 -0.50296295 -1.0980774 -0.7648226
000080 db ad 9f bf 85 f0 76 bf d7 3b 46 be 9f 37 24 3e
       -1.2474931 -0.96460754 -0.19358765 0.16036843
000090 d8 18 4d 3f 43 3d b1 3f a7 8e 14 be 7b 4c 4a be
       0.80116034 1.384682 -0.14507543 -0.19755737
0000a0 64 98 bc 3f 70 4d 85 bf db 18 1c bf ca 81 90 bf
       1.4734006 -1.0414257 -0.60975426 -1.1289608
0000b0 17 1b b5 3f 50 74 52 bf d0 73 d5 bf 28 06 16 3e
       1.4148892 -0.8220873 -1.6675968 0.14650786
0000c0 ae dd b9 bf a1 ca 03 c0 b9 4c 45 bf 0a c0 0d bf
       -1.4520776 -2.0592425 -0.77070194 -0.55371153
0000d0 8d 27 7c bf 46 bc 40 bf 17 02 88 bf af 84 0f 3e
       -0.9849785 -0.7528728 -1.0625638 0.14015459
0000e0 03 a3 9d 3f 8a 0a 9a be 42 e3 18 3d f8 a5 dd bf
       1.2315372 -0.30086166 0.037326105 -1.7316275
0000f0 a8 b0 72 bf 90 86 be 3f 4d 89 f7 3e 6c c5 3b c0
       -0.94800806 1.4884815 0.4834694 -2.9339247
000100 50 68 97 3e 16 20 93 bf ce 9a e9 be 25 31 56 3f
       0.29571772 -1.1494167 -0.4562592 0.8366874
000110 4f b5 ee be ed f4 a5 3d aa 71 1b 3e 6f e7 ed 3e
       -0.46622702 0.081033565 0.15180078 0.46465632
000120 63 4b 14 c0 91 e1 1c bf 01 f5 af bf d4 4e 1e bf
       -2.3171012 -0.6128169 -1.3746644 -0.6183903
000130 5d 14 c5 be 02 f8 5f bf 18 57 8e bf cb 2f 06 bf
       -0.38492098 -0.87487805 -1.1120329 -0.52416676
000140 41 ff 3e be b5 8d 8f bf 15 ca 3c c0 55 a9 13 bf
       -0.18652059 -1.121512 -2.949834 -0.57680255
000150 f9 ae bd bf f9 06 63 3d 36 93 2c bf 58 51 29 3f
       -1.4819022 0.05542657 -0.67412126 0.66139746
000160 74 21 09 3f 02 df 8e 3f 09 d3 78 bf 9a 62 ba bf
       0.5356667 1.1161807 -0.97197014 -1.4561341
000170 c3 fb b4 bf 52 47 11 bf 3c 22 ee bf c3 97 4e bf
       -1.4139332 -0.5674945 -1.8604198 -0.8070032
000180 fa b0 8e be de e3 28 bf b7 12 26 be 65 19 97 bf
       -0.27869397 -0.659727 -0.16218077 -1.1804625
000190 2e 46 80 bf d7 21 85 bd 07 5f 0c bf 41 74 db bf
       -1.0021417 -0.06500595 -0.548325 -1.7144853
0001a0 ea 9d 85 3f 22 37 b5 bf 01 e5 dd bf 31 10 a5 bf
       1.0438817 -1.415745 -1.7335511 -1.2895566
0001b0 6e 5d 63 bf 5d 9e 73 3f 20 69 17 3f 50 da 93 bd
       -0.8881444 0.9516352 0.59144783 -0.07219374
0001c0 a0 40 83 3f 70 2e 80 bf 47 21 a6 bf 61 d3 3c bf
       1.0254097 -1.0014172 -1.2978905 -0.7376004
0001d0 96 f8 c4 bf 6f 6f bc 3e 88 60 68 3e 6e c0 0b be
       -1.5388362 0.36803767 0.22693074 -0.13647625
0001e0 4b f0 5a 3f 58 f8 46 bc 4c 3a 9c bf e2 e6 89 bc
       0.8552291 -0.012144171 -1.2205291 -0.016833726
0001f0 55 2c a3 bf 2b db 7a 3f b8 3f 3c 3f ca 9f 5a bf
       -1.2747904 0.97990674 0.7353473 -0.8540007

fc3.weight f4 [2, 128]
000000 67 f5 17 40 c5 86 a9 be 70 6c 07 40 37 24 c0 be
       2.3743532 -0.33110633 2.1159935 -0.3752763
000010 e5 a6 ac 3f 41 62 e6 bf 5d fd d9 bd 99 c2 ed bc
       1.3488432 -1.7998735 -0.10644028 -0.029023455
000020 97 17 95 3d c3 d1 a5 bf bb 61 71 3d d3 a1 ad bf
       0.0727989 -1.2954639 0.058931094 -1.356501
000030 15 76 11 c0 44 7b aa bf cb 8e 8a bf 27 cc 86 bf
       -2.2728322 -1.3318868 -1.0824827 -1.0531052
000040 5c 26 1a 40 c3 98 e3 bf e5 4a d7 3f ff fa 72 bf
       2.4085913 -1.7780994 1.6819731 -0.9491424
000050 79 38 9d be 66 a6 1a 40 59 e3 a6 bf 6e ea de bf
       -0.30707148 2.4164062 -1.3038131 -1.7415292
000060 b8 7e 01 3f 04 25 79 bf 24 fc bd 3f c5 ad f9 be
       0.5058398 -0.97322106 1.4842572 -0.48765388
000070 5e ec 05 c0 f0 c4 c1 be dc 2f 34 3f bc 20 f9 3e
       -2.0925517 -0.37845564 0.7038553 0.48657787
000080 92 1c a6 3e 0f d2 d5 3f 2f a9 d9 bf b5 4a 33 40
       0.32443672 1.670473 -1.7004756 2.8014348
000090 80 21 e5 bf 8e f2 a7 bf df 47 ce bf d7 3a 88 bf
       -1.7900848 -1.3120897 -1.6115683 -1.0642956
0000a0 9a cd 14 c0 6d ab 41 3f 7e 85 82 bf 80 86 06 bf
       -2.325049 0.756522 -1.0196989 -0.5254898
0000b0 f5 c6 d1 bf 0e 45 92 3f 7b a1 ac 3e d9 ab 2d 40
       -1.6388842 1.1427324 0.3371695 2.7136137
0000c0 89 0e e4 3f 40 28 89 bf 0f 74 c0 be c0 90 47 3f
       1.7816936 -1.0715408 -0.37588546 0.77955246
0000d0 e7 85 ce 3f ae fa 22 3f b0 c1 c5 bf 35 c1 8f bf
       1.6134614 0.63663757 -1.5449734 -1.1230837
0000e0 95 a1 c0 bf cc 8f 45 bf 0e f7 6a bf dc 44 72 bf
       -1.5049311 -0.7717254 -0.91783226 -0.9463632
0000f0 ad 8c 9e 3f fb 37 ed bf e3 df bb bf 70 63 06 40
       1.2386681 -1.8532709 -1.46777 2.0998192
000100 2a 16 13 40 c4 b5 c3 3f a1 38 2c 3e 74 6f a5 bf
       2.2982278 1.5289845 0.16818477 -1.2924638
000110 91 ef 74 3f 38 72 f5 be 96 9e b5 bf d3 1f d0 bf
       0.9567805 -0.47938704 -1.4189022 -1.6259712
000120 5e ee 1a 3f cf f5 b2 bd e7 c3 1d be 3d 9a 73 bf
       0.6051997 -0.087382905 -0.15406762 -0.95157224
000130 e9 85 f7 bf 23 fb 77 bf c5 6f 91 be 57 73 89 be
       -1.9337741 -0.9686758 -0.28405586 -0.2684581
000140 6c b4 83 3f d0 10 09 3f 9d b5 8f 3f 08 77 46 bf
       1.0289435 0.5354128 1.1227299 -0.7752538
000150 68 7b 22 3f 29 2a b6 bf ba 33 a7 3f 29 d6 b8 bf
       0.63469553 -1.4231616 1.3062661 -1.4440356
000160 c0 31 c1 bf 37 a1 96 bf f0 35 40 40 70 4a c5 bd
       -1.5093307 -1.1767949 3.003292 -0.096333385
000170 ab f6 ba bf 39 cc e6 bf a3 b6 97 bb d9 a8 0c c0
       -1.4606527 -1.8031074 -0.0046299263 -2.1978056
000180 49 c8 24 3f 6d e5 e4 bf d5 ba e2 bf a8 e1 fa 3f
       0.6436811 -1.7882515 -1.7713267 1.9600115
000190 17 9a a5 bf e9 74 58 bf 3d fa db 3f 54 c5 10 40
       -1.293765 -0.8455339 1.7185742 2.262044
0001a0 c6 c9 ff bf ab 52 f5 3f 6d 4a 27 bf 28 ff 1c 3f
       -1.9983451 1.9165853 -0.6534794 0.6132684
0001b0 a0 1b 7d bf 7f 27 fb bf d8 17 03 c0 0e 3b a3 bf
       -0.9887028 -1.9621428 -2.0483303 -1.2752397
0001c0 55 92 31 c0 b5 95 5f 40 13 f1 03 40 ac 84 55 3f
       -2.7745564 3.4935124 2.061589 0.83405566
0001d0 d8 d4 1b be 62 d2 1c 40 9d 54 b5 bf e7 7b 09 bf
       -0.15217912 2.4503407 -1.4166447 -0.53704685
0001e0 95 d0 de bf 62 0b 74 be 9e d7 e1 3f 8a 69 9d bf
       -1.7407404 -0.23832467 1.7643926 -1.2297833
0001f0 7f 11 c6 3f 04 48 9d bf a4 58 ff bf 99 73 6d be
       1.5474089 -1.2287602 -1.9948926 -0.23188628
000200 5f 89 93 bf 78 02 66 3e c3 3c 47 3f ec e0 1b 40
       -1.1526297 0.22461879 0.7782709 2.4356031
000210 9d 4d 35 3e d8 cf f6 bf 43 a4 a0 bf fc 84 1d c0
       0.17705388 -1.9282179 -1.2550129 -2.4612417
000220 d3 5f 80 bf ee 25 03 40 59 c4 c9 bf 65 5b 79 bd
       -1.0029243 2.04919 -1.5763046 -0.060878176
000230 27 11 fa bf d7 86 0f bd d6 a1 44 3e b5 ad 4b 3f
       -1.9536484 -0.035040703 0.1920236 0.7956193
000240 f1 47 13 be 44 eb 07 be d2 9a 0f c0 27 4c cd 3f
       -0.14382912 -0.1327334 -2.2438245 1.6038865
000250 c6 9c b2 bf 53 83 5b be d0 67 51 bc e1 ff 30 3f
       -1.3954093 -0.21436815 -0.0127810985 0.6914044
000260 85 4b e9 3f 0b f3 f4 3f 3e 43 1b bf c8 49 2f 40
       1.8226172 1.9136671 -0.6064948 2.7388783
000270 a1 b6 18 3e fc a0 d5 bf b5 22 9e bf d9 9f d2 bf
       0.14913417 -1.6689754 -1.2354342 -1.6455032
000280 9c fb 74 bf d9 d2 68 bf 64 fa 83 be ad 33 d2 3e
       -0.95696425 -0.9094673 -0.2577697 0.4105505
000290 5a 37 16 bd 83 f7 e7 3f 13 c8 8b be f2 1f e2 bd
       -0.03667388 1.812241 -0.27301082 -0.11041249
0002a0 a0 28 d9 bd a4 fb a0 bf e3 5a 65 c0 c6 c6 36 3f
       -0.10603452 -1.2576795 -3.5836723 0.71397054
0002b0 e9 ae fb 3d 52 56 ec 3e 34 b7 6c bf 82 c0 67 3e
       0.12289221 0.46159607 -0.92467046 0.2263203
0002c0 62 5a a2 bf b2 f0 77 3f 45 0c d3 bc a0 2c 31 bf
       -1.2683833 0.96851647 -0.025762687 -0.6920872
0002d0 09 a1 3b 3e e7 34 13 3f ba bd 6d 3e a9 39 20 40
       0.18323149 0.575026 0.23216906 2.5035193
0002e0 ae 6b d7 be 4f af 5a 3f 14 54 18 bf c5 17 97 3f
       -0.4207434 0.8542375 -0.59503293 1.1804129
0002f0 4d 56 93 bf 43 b3 06 bd 20 8e f0 3f b5 5a 90 3f
       -1.1510712 -0.0328858 1.8793373 1.1277682
000300 f9 3c 54 3f 79 26 03 c0 9f 03 d4 bf 9d 63 ca be
       0.82905537 -2.0492232 -1.6563605 -0.39529124
000310 87 cd 3c bf 73 57 f2 3e a9 19 ba 3e 17 de 58 3f
       -0.7375111 0.47332343 0.36347702 0.8471388
000320 6e 57 68 3f a5 5e 63 3d f4 1d a1 bf c0 8f b5 3f
       0.9075841 0.055510182 -1.2587266 1.4184494
000330 4e 5b cf bf d8 e7 34 3f 2f 05 72 bf 94 bc 02 3f
       -1.6199739 0.70666265 -0.9453916 0.51069
000340 19 b3 96 be b9 2d b1 bf f9 c2 bd 3e 12 1d 3c 3f
       -0.29433516 -1.3842078 0.37062815 0.7348186
000350 47 46 fe 3f bb 87 43 bf 2d d3 f2 3e fd 36 a2 bf
       1.9865197 -0.76378983 0.4742674 -1.2673031
000360 25 aa c4 3f 8e 70 2e 3f 28 a0 17 bf 6e 46 5e c0
       1.5364424 0.68140495 -0.59228754 -3.4730487
000370 a1 cd fd 3d bc c8 19 3e 06 69 3e be 26 93 87 3f
       0.12392736 0.1501798 -0.18594751 1.0591781
000380 3d c7 30 c0 58 bd 2c 3e 17 36 78 bf fc f5 0a c0
       -2.7621605 0.16869104 -0.96957535 -2.1712637
000390 de 57 6e c0 94 ca 67 3e 86 24 38 bf 26 f3 8c bf
       -3.724113 0.22635871 -0.7193073 -1.1011703
0003a0 a7 66 8c 3e ba 93 d7 bf 80 6b ee 3d 22 ba 6e bf
       0.27422068 -1.6841958 0.11641598 -0.93252766
0003b0 40 83 d6 bf 93 3f 4f 3f 84 6c f9 bd d7 85 eb bf
       -1.6758804 0.8095638 -0.12178901 -1.840022
0003c0 4d aa b4 3e 4d eb a1 bf ba 4c 96 bf 87 51 a6 3f
       0.3528618 -1.2649933 -1.1742165 1.299363
0003d0 64 cb 34 bf 0b 15 d1 3e c5 04 b8 bf 7f 9b 05 3f
       -0.7062285 0.40836367 -1.4376456 0.52190393
0003e0 1c 94 c0 3f 03 7f bd 3d 46 6f 24 3f ad 3b 88 3f
       1.5045199 0.09252741 0.6423229 1.0643212
0003f0 c4 ec eb bf 6a 61 cb 3f d8 69 61 3e ba 20 39 c0
       -1.843163 1.5889103 0.22013032 -2.8926225

fc3.bias f4 [2]
000000 fe 8b b4 3e 9d b1 ae 3f
       0.35263056 1.3647953
