training_output/best_agent/checkpoints/episode_637/weights_actor_target.pth (torch_old, 83672 bytes, 10 tensors)

fc1.weight f4 [128, 24]
0	0x3fabca6f	1.3421153
1	0xbfaa45d8	-1.3302565
2	0xbf1deddc	-0.6169107
3	0xc01b9abe	-2.4313197
4	0xc004865a	-2.0707002
5	0x3ebef2d4	0.37294638
6	0xbf123e57	-0.57126373
7	0xc019fffa	-2.4062486
8	0x3fa8f404	1.3199468
9	0xbfdc7772	-1.7223952
10	0xbcd6eadc	-0.026235037
11	0xbfca6cff	-1.5814513
12	0xc014b19a	-2.32334
13	0x3fb7b9ef	1.4353617
14	0xbcbed806	-0.023296367
15	0xbfc470c7	-1.5346917
16	0x3ff5a58a	1.9191144
17	0xbfc73a8e	-1.5564744
18	0xbf2d31f2	-0.67654335
19	0x3f598ac6	0.84977376
20	0xc02143bc	-2.5197592
21	0x3f58198c	0.8441398
22	0xbf1c35dd	-0.6101969
23	0x3f7eeb51	0.99577814
24	0xbcb72214	-0.022355117
25	0x3feadd94	1.834887
26	0x3efea5dd	0.4973592
27	0xbf45bb85	-0.7723926
28	0x3fa31a22	1.274235
29	0xbf7731d0	-0.9656038
30	0x3eee8eb2	0.46593243
31	0xbf6a4a67	-0.9151978
32	0xbd3e43de	-0.046451442
33	0x3fcf9e12	1.6220114
34	0x3f858d66	1.0433776
35	0xbd807f7f	-0.06274318
36	0x3faa0efe	1.3285825
37	0xc017df5a	-2.3730073
38	0x3f83bd3e	1.0292127
39	0xbddefe77	-0.10888379
40	0xbcab1c01	-0.020887377
41	0x3fbad9d7	1.459773
42	0x3ea5db99	0.32394102
43	0x3eb36ff5	0.35046354
44	0x3f9f4a74	1.2444596
45	0xc08a1e43	-4.316194
46	0x3ec4f27e	0.38466257
47	0x3ea6e70f	0.3259816
48	0x3f984da7	1.1898698
49	0xc022335a	-2.5343843
50	0xbe9ae69d	-0.3025407
51	0xbefb89a3	-0.49128446
52	0xbda5fa53	-0.08104386
53	0xc014b43d	-2.3235009
54	0xbead18a7	-0.3380787
55	0xbeb09200	-0.3448639
56	0x3f7035d8	0.9383216
57	0xc0181b4c	-2.376666
58	0xbfa50d9e	-1.2894781
59	0xbf27c0c0	-0.6552849
60	0xbeaf026a	-0.3418153
61	0xc002b5a6	-2.042337
62	0xbf9bc343	-1.2168964
63	0xbf2cef3a	-0.6755253
64	0x3fa608cc	1.2971435
65	0xc029bf3b	-2.6522968
66	0x3f96dec7	1.1786736
67	0xbfd9893b	-1.6995004
68	0xbf89cec0	-1.076622
69	0xbf8490a8	-1.0356646
70	0x3f941b41	1.1570817
71	0xbfdbb128	-1.7163439
72	0x3f101155	0.56276447
73	0xc0c3e99b	-6.1222663
74	0xbf02e561	-0.51131254
75	0x3f706388	0.9390187
76	0x3fd64b06	1.6741645
77	0xbfe23f0e	-1.7675493
78	0xbf1a58a9	-0.60291535
79	0x3f6b050d	0.9180458
80	0x3e66bced	0.22533007
81	0xc0b6f29c	-5.7171154
82	0x3dd29bb3	0.102836035
83	0x3f55e6c1	0.8355523
84	0x3e588674	0.2114504
85	0x3f242b0e	0.64128196
86	0x3d38d212	0.045122214
87	0x3f43afae	0.7643994
88	0x3f93c305	1.154389
89	0xc09f0e57	-4.9705005
90	0x3eda8373	0.42678413
91	0xbf06032b	-0.52348584
92	0xbfb1c792	-1.3889029
93	0x3fd8f02a	1.6948292
94	0x3ee599a3	0.44843778
95	0xbf0ad98d	-0.54238206
96	0xbea7c908	-0.32770562
97	0x3f1143e3	0.5674421
98	0xbf2219e8	-0.6332078
99	0x3fb0008a	1.3750165
100	0x3f75c195	0.9599851
101	0x3f2916b7	0.66050285
102	0xbf1e456e	-0.6182469
103	0x3fb7dd24	1.4364362
104	0x3e11a630	0.14223552
105	0x3feb12a0	1.8365059
106	0xbf0140e4	-0.5048964
107	0x40137cb7	2.304487
108	0x3fd76285	1.6826941
109	0x3f80db1e	1.0066869
110	0xbef7bbdc	-0.48385513
111	0x40170d1b	2.360175
112	0xbeb8891f	-0.36042115
113	0x40195483	2.3957832
114	0xbf16a3b1	-0.58843523
115	0x3fc650c6	1.54934
116	0x4028a7cd	2.6352417
117	0x4006ac27	2.1042573
118	0xbf0c3e50	-0.5478258
119	0x3fc17346	1.5113304
120	0xbf6c2f8e	-0.9226006
121	0x4041e30a	3.0294824
122	0x3e4078a0	0.18796015
123	0xbef52ef2	-0.4788738
124	0xbf67003e	-0.90234745
125	0xc00e2e3a	-2.2215714
126	0x3e24b244	0.16083628
127	0xbedc20d7	-0.42993805
128	0xbf8a6aac	-1.0813804
129	0x4048fe17	3.1405084
130	0x3d00fe08	0.031492263
131	0xbe526018	-0.2054447
132	0xbd293506	-0.041310333
133	0xc08ab7d4	-4.33494
134	0x3d43761d	0.047720063
135	0xbe7835a8	-0.24239218
136	0xbfb46dcb	-1.4096006
137	0x40506ab4	3.2565126
138	0xbe9f66f0	-0.31133223
139	0x3f881188	1.063035
140	0x3f1421da	0.57864153
141	0xc0ec4dce	-7.3844976
142	0xbe88a490	-0.2668805
143	0x3f9530ea	1.1655552
144	0x3e58d73d	0.21175857
145	0xbee5c7b5	-0.44878927
146	0xbfa176d7	-1.2614392
147	0xc01a6a8b	-2.4127529
148	0x3ce3deb2	0.02781615
149	0xc025d342	-2.5910192
150	0xbf9b8ce7	-1.2152375
151	0xc01aaa18	-2.4166317
152	0x3e50705b	0.2035536
153	0xbfa8937d	-1.317001
154	0xbe97e426	-0.2966625
155	0xbfd00cba	-1.6253884
156	0x3e825abc	0.2545985
157	0xc00d494c	-2.2075987
158	0xbe68daf7	-0.22739778
159	0xbfd95ec0	-1.698204
160	0x3efcbc4a	0.49362403
161	0xbff72514	-1.930819
162	0x3eff8e18	0.49913096
163	0xbf2b7014	-0.6696789
164	0x3f29e085	0.66358215
165	0xbfba9e9b	-1.4579653
166	0x3f1ed791	0.6204768
167	0xbf1a1524	-0.6018851
168	0x3d18c71a	0.037299253
169	0xc06a0d65	-3.6570675
170	0xbe877e8a	-0.2646373
171	0xbee72c87	-0.4515116
172	0x4012832a	2.2892556
173	0xbf9d2bb9	-1.2278968
174	0xbebbfd52	-0.36716706
175	0xbf08dd9f	-0.53463167
176	0xbcf66d2e	-0.030081358
177	0xc0725649	-3.7865164
178	0x3f0cae60	0.54953575
179	0xbf985f47	-1.1904076
180	0x3fc4d6b3	1.5378021
181	0xbf362e05	-0.7116397
182	0x3f18c461	0.5967465
183	0xbf8fbcac	-1.1229453
184	0x3f6079c5	0.87685806
185	0xc068101e	-3.6259837
186	0x3f96420b	1.1738905
187	0xbf060946	-0.523579
188	0x3ef7c69f	0.48393723
189	0xbf34682e	-0.70471466
190	0x3f8feec5	1.1244742
191	0xbf087778	-0.53307295
192	0x3f08fecf	0.5351381
193	0x3f2fc5fc	0.68661475
194	0x3d533796	0.051566683
195	0xbf620270	-0.8828497
196	0xc0009a0e	-2.0094028
197	0xbfa3ee80	-1.280716
198	0x3d090c40	0.033458948
199	0xbf6e9115	-0.9319013
200	0x3f329cdb	0.6977059
201	0x3eaa1494	0.33218825
202	0xbeaa0651	-0.33207944
203	0xbfe88508	-1.8165598
204	0xbfa88c14	-1.3167748
205	0xbfeaae83	-1.8334507
206	0xbe862830	-0.26202536
207	0xbfefda14	-1.8738427
208	0x3fa3ec76	1.2806537
209	0x3d2d642a	0.042331852
210	0x3eb0c9b5	0.3452889
211	0xc039417b	-2.8946216
212	0xbf5034ea	-0.8133074
213	0xbfeb991f	-1.8406104
214	0x3eb45e18	0.35228038
215	0xc03ded73	-2.9676178
216	0x3f1aeeb4	0.6052048
217	0xc02b07ae	-2.6723437
218	0x3e866d51	0.26255277
219	0x3f343f07	0.7040867
220	0xbff5df7b	-1.9208826
221	0xbfbc064c	-1.4689422
222	0x3e04d71f	0.12972687
223	0x3f2ce9ca	0.67544234
224	0x3f1d8cf1	0.61543185
225	0xc01fcd30	-2.4968987
226	0x3e96a3ed	0.2942194
227	0x3e468c51	0.19389464
228	0xc006ba0e	-2.1051059
229	0xbfc8d667	-1.569043
230	0x3e521e8b	0.20519464
231	0x3de88a13	0.113544606
232	0x3fc6b287	1.5523232
233	0xc033774f	-2.804157
234	0x3eaabf75	0.33349195
235	0xc0130a26	-2.2974944
236	0xc0159906	-2.3374648
237	0xbf32301d	-0.69604665
238	0x3ee6571f	0.44988343
239	0xc012ba54	-2.2926226
240	0x3e426cb6	0.18986782
241	0x4012e07d	2.2949517
242	0x3edbbfb1	0.42919686
243	0xc04c0234	-3.1876345
244	0xbc0a4c89	-0.008441099
245	0x3cb8d220	0.022561133
246	0x3ed81223	0.42201337
247	0xc044df53	-3.0761306
248	0x3f5d9d91	0.8656855
249	0x3fcc83ad	1.5977684
250	0x3f6fef8c	0.93724895
251	0xc0264267	-2.5978029
252	0x3f88428b	1.0645307
253	0xbd58904b	-0.052871983
254	0x3f73f1c3	0.95290774
255	0xc0252ef8	-2.5809917

fc1.bias f4 [128]
0	0xc0073b4d	-2.1129944
1	0xbea7ed5e	-0.32798284
2	0xbf34fc8e	-0.7069787
3	0xbeb4806d	-0.3525423
4	0xbff57dd2	-1.9179022
5	0x3e5f58d4	0.21811229
6	0xbf65b311	-0.8972636
7	0xbebdc12e	-0.37061447
8	0xbfa4bf0a	-1.28708
9	0xbf1dc3cd	-0.61626893
10	0xbeeddc3d	-0.4645709
11	0xbf3d3f36	-0.7392458
12	0xbe868d62	-0.26279742
13	0xbf96f79e	-1.1794317
14	0xbefca0d9	-0.49341467
15	0xbf80a52b	-1.0050405
16	0xbee0995e	-0.4386701
17	0xbf2dbb36	-0.67863786
18	0xc0229bcd	-2.5407593
19	0xbf0b9287	-0.5452046
20	0xbf4c7279	-0.7986217
21	0xbfe96145	-1.8232809
22	0xbf4f44fd	-0.8096464
23	0x3d926b3d	0.0714936
24	0xbfb95a4e	-1.4480684
25	0xbffb1614	-1.9616113
26	0xbf3843fa	-0.71978724
27	0xbfcfd27f	-1.6236113
28	0xc005660b	-2.0843532
29	0xbe9e1983	-0.3087884
30	0x3ccb6cff	0.024832247
31	0x3fea20d1	1.8291265
32	0x3fe3be3f	1.7792434
33	0xbf1be368	-0.6089387
34	0xc00fd829	-2.2475684
35	0xbd85511b	-0.0650961
36	0xbf3c36df	-0.73521227
37	0xbd4098b6	-0.047020636
38	0xc0239aa0	-2.5563126
39	0xbfbd9f20	-1.4814186
40	0xbf1b4bab	-0.60662335
41	0xbf1c7c72	-0.6112739
42	0xbf929ab7	-1.1453465
43	0x3f5348a2	0.82532704
44	0xbff11a1f	-1.8836097
45	0xbf9c3da3	-1.220631
46	0xbf2ca6a2	-0.6744176
47	0xbff33b72	-1.9002516
48	0xbf9047a3	-1.1271862
49	0xbf7e4d80	-0.99337006
50	0xbe17b4fe	-0.14815137
51	0xbee0c982	-0.43903738
52	0xc0592d69	-3.3933966
53	0x3df7254b	0.1206766
54	0xbef48c14	-0.4776312
55	0xbff186db	-1.886928
56	0xbfba96b2	-1.4577239
57	0x3dae5dd8	0.08513993
58	0x3f053588	0.5203481
59	0xbfa09c1d	-1.2547642
60	0xbf8cc8b9	-1.0998756
61	0xbf5548c6	-0.8331417
62	0xbf52d6ac	-0.82358813
63	0x3e15e14b	0.14636724
64	0xbe1d289d	-0.15347524
65	0x3c5f5f4e	0.013633562
66	0xbf621095	-0.8830655
67	0xbfc237d4	-1.5173287
68	0xbf887e1a	-1.0663483
69	0xc02bb4e8	-2.6829166
70	0xc0023831	-2.0346797
71	0xbe9e7ad4	-0.30953085
72	0x3e27ec70	0.16398787
73	0xbf9ed8e6	-1.2409942
74	0x3f1fb343	0.62382907
75	0x3d8030ab	0.06259283
76	0xbf6f76c4	-0.93540597
77	0x3e79d2ae	0.24396774
78	0x3eff6f93	0.49889812
79	0x3fad1cef	1.3524455
80	0xc01b2346	-2.424028
81	0xbfa2dced	-1.2723671
82	0xbfe41c7f	-1.7821196
83	0xbf16c4cc	-0.5889404
84	0xbfb0941a	-1.3795197
85	0xbf979ddb	-1.1845049
86	0xbf396782	-0.72423565
87	0xbff098f2	-1.8796675
88	0xc01b71b1	-2.4288142
89	0xc009db2e	-2.1540027
90	0xc0060ee2	-2.0946584
91	0xbe54c25c	-0.20777267
92	0xbf27ff5f	-0.6562404
93	0xbf85dd51	-1.0458165
94	0xbfaebeb0	-1.3651943
95	0xbfd90c2b	-1.6956838
96	0xbdf2e6be	-0.11860417
97	0xbe88ec23	-0.26742658
98	0xbf02d12e	-0.5110043
99	0xbf45120d	-0.7698067
100	0x3f246a94	0.64225125
101	0xbfeac27f	-1.8340605
102	0xbe4a7ba8	-0.19773734
103	0xbfa50366	-1.2891662
104	0xc00aa771	-2.1664698
105	0x3f37a7b6	0.7174028
106	0x3e4bd43b	0.19905178
107	0x3f8a40ee	1.0801065
108	0xbff5b12e	-1.9194696
109	0xbf40b346	-0.7527355
110	0xc00eab99	-2.2292235
111	0xbed59eec	-0.4172281
112	0xbfd68a25	-1.6760908
113	0xbda84e3b	-0.08218046
114	0xbfb6aa34	-1.4270692
115	0xbf443d55	-0.76656085
116	0xbf7d1abd	-0.98868924
117	0x3f34fe54	0.70700574
118	0xbfb0fc8c	-1.3827071
119	0xbf721695	-0.9456571
120	0xc002eee5	-2.045831
121	0xbff3d9ff	-1.9050902
122	0x3d8c04f2	0.06836881
123	0xbfb8296e	-1.4387643
124	0xbfd02a33	-1.6262878
125	0xc002a044	-2.0410318
126	0xbf176d47	-0.5915112
127	0xbf96cf7a	-1.1782067

bn1.weight f4 [128]
0	0xbe53f97c	-0.2070064
1	0x3eb1e5ea	0.34745723
2	0x3e90329b	0.2816361
3	0x3f5739d3	0.8407261
4	0x3ecc07cb	0.39849696
5	0x40819f8a	4.050725
6	0xbd148581	-0.03626013
7	0x3d7a40ac	0.061096832
8	0x3e4aec08	0.19816601
9	0x3fd418d4	1.6570077
10	0x3f1f8487	0.62311596
11	0x3ffcbcf8	1.9745169
12	0x4041ec0e	3.0300326
13	0x3fe61be3	1.797726
14	0x3e1c4b5f	0.15263127
15	0x3ee00869	0.43756416
16	0x3f969d8f	1.1766833
17	0x3fd228b3	1.641867
18	0x3fd22d12	1.6420004
19	0x3f84b5d5	1.0367991
20	0x40552589	3.330416
21	0x3e89c404	0.2690736
22	0x3f66bb62	0.90129673
23	0x3f98bdc8	1.1932917
24	0x3f3ee017	0.74560684
25	0x3fffafb0	1.997549
26	0x3f6f642c	0.93512225
27	0x3c4b07f1	0.01239203
28	0x3f74bdaa	0.95601904
29	0x3fc78012	1.5585959
30	0x3e92702d	0.28601208
31	0x3f3734d1	0.71564966
32	0x3f81760b	1.0114149
33	0x4003b020	2.0576248
34	0x3be50af0	0.0069898292
35	0x3dcc67d9	0.09980745
36	0x3fce5046	1.6118248
37	0x3f15e05c	0.5854547
38	0x3e7c9ac6	0.24668416
39	0x3ff7a6a4	1.934773
40	0xbe0f58a8	-0.13998663
41	0x4019613c	2.3965597
42	0x3d8d4dfc	0.0689964
43	0x3e868442	0.2627278
44	0x3eb67620	0.35636997
45	0x40013dc1	2.0193942
46	0xbd659740	-0.056052446
47	0x3fd5b88f	1.6696948
48	0x3ff123d3	1.8839058
49	0xbfd89c8b	-1.6922773
50	0x404b82f1	3.179867
51	0x3fb05c77	1.3778218
52	0x3fc7c227	1.5606126
53	0x3e0ee607	0.13954936
54	0xbd95ca11	-0.07313932
55	0xbdaff90b	-0.08592423
56	0xbe622502	-0.2208443
57	0x3fa6b7a1	1.3024789
58	0x3e767e71	0.24071671
59	0x3e026672	0.12734392
60	0xbe01975a	-0.12655392
61	0x4013da23	2.310189
62	0x3e891558	0.26774096
63	0x4047804d	3.1172059
64	0x40749723	3.8217247
65	0x4005be23	2.08973
66	0x3fa0306b	1.2514776
67	0x4018bebc	2.3866415
68	0x404c4fd5	3.1923726
69	0x40174e78	2.3641644
70	0x3f568bde	0.8380717
71	0x3fb01952	1.3757727
72	0x3fa22fa4	1.2670789
73	0x4014ee11	2.3270304
74	0x404acdef	3.1688192
75	0xbee3436e	-0.44387382
76	0x3d746d80	0.05967474
77	0xbe63371f	-0.22188996
78	0x3fe84e4f	1.8148898
79	0x400417ab	2.0639446
80	0x401bb0e0	2.4326706
81	0x4024815d	2.5703957
82	0x40921554	4.5651035
83	0x3febbedb	1.841762
84	0x3fc79b44	1.5594258
85	0x3f83ebc3	1.0306324
86	0x3f39226a	0.72318137
87	0x3fc5beff	1.5448912
88	0x404cb593	3.1985824
89	0x4012e3c5	2.295152
90	0x3fdbc3c4	1.7169118
91	0xbe715a45	-0.23569591
92	0x401b8f53	2.4306228
93	0x3f573a9e	0.8407382
94	0x3f01a070	0.50635433
95	0x3f80f9e8	1.0076265
96	0x3e189094	0.14898902
97	0x3faf6a5e	1.3704336
98	0x3e5ffbb3	0.2187336
99	0x3fc2fc62	1.5233271
100	0x3f9900e7	1.19534
101	0x403128c0	2.7681122
102	0x3f814428	1.0098925
103	0x40309509	2.7590964
104	0x401ad1d6	2.4190574
105	0xbecdd78b	-0.4020351
106	0x3fa2001d	1.2656285
107	0xbd5d00dd	-0.0539559
108	0x3eb84c7a	0.35995847
109	0x3d94231e	0.072332606
110	0x3f862a94	1.0481744
111	0x3ffc6f29	1.9721423
112	0x3f781404	0.9690554
113	0x401bf1a6	2.436624
114	0x3f55879e	0.8341006
115	0x3db6d9c1	0.08928252
116	0x3f99a684	1.2003942
117	0x3fc37b91	1.5272084
118	0x40c782ea	6.2347307
119	0x3fc67c49	1.5506679
120	0x3f945c87	1.1590737
121	0x3ef8675a	0.4851635
122	0x3fcbcbee	1.5921609
123	0x3ff2855c	1.8946948
124	0x3b9e92c9	0.0048392755
125	0x3f0f7496	0.5603727
126	0x3e34a820	0.1764226
127	0x403b30ff	2.9248655

bn1.bias f4 [128]
0	0xbe6ad23d	-0.22931762
1	0xbe45ab4a	-0.19303623
2	0x3e550109	0.20801176
3	0x3fa1577d	1.2604824
4	0x3e572c8a	0.21013084
5	0x3f421d79	0.7582622
6	0x3e6d751f	0.2318921
7	0x3edbf757	0.42962143
8	0x3e8bb69d	0.2728776
9	0x3f004311	0.50102335
10	0x3eb93cde	0.3617925
11	0x3fa376e1	1.2770654
12	0x3eddd89d	0.43329325
13	0xbf03a723	-0.51426905
14	0xbf129334	-0.57255864
15	0xbdce739b	-0.10080644
16	0x3fd8e7f9	1.6945792
17	0x3e7e50cd	0.2483551
18	0xbfabb0a0	-1.3413277
19	0x3ee8ea0e	0.4549107
20	0xbf679961	-0.9046841
21	0xbf333171	-0.69997317
22	0x3e775eb4	0.2415722
23	0x3fa49c0f	1.2860125
24	0xbe8e50ad	-0.27795926
25	0x3f3099e8	0.6898484
26	0xbf0bf8e4	-0.5467665
27	0x3e241311	0.16022898
28	0x3e5a1845	0.2129832
29	0x3f957c67	1.167859
30	0x3ea6704c	0.3250755
31	0xbf91d727	-1.1393784
32	0xbef10999	-0.47077635
33	0xbe4f561a	-0.20247689
34	0xbdf169bf	-0.117877476
35	0xbdd7de94	-0.105405
36	0x3f401183	0.7502672
37	0xbf97267d	-1.1808621
38	0x3e472480	0.19447517
39	0x3e8b71db	0.27235302
40	0xbe223ba8	-0.1584307
41	0x3e4857dc	0.19564766
42	0xbc076a34	-0.008265067
43	0xbe10c7ad	-0.1413867
44	0x3ea66f71	0.32506898
45	0x3f064b86	0.5245899
46	0xbe2c61d8	-0.168342
47	0x3f1d6d39	0.61494786
48	0x3ed73d92	0.42039162
49	0x3ef913cc	0.48647916
50	0x3ec2c6cb	0.38042292
51	0x3f8cd93c	1.1003795
52	0xbfa4c4b3	-1.2872528
53	0xbd2d4285	-0.042299766
54	0xbdd2b038	-0.10287517
55	0x3ea49221	0.32142738
56	0x3d1caef4	0.038252786
57	0x3f22cec6	0.6359676
58	0xbd3d8bc2	-0.04627586
59	0x3d4ef748	0.050528795
60	0xbcf4ddcf	-0.029890923
61	0x3f958a92	1.1682913
62	0x3e974933	0.29548034
63	0x3ebad5cc	0.3649124
64	0x3ea8e479	0.3298681
65	0x3f5bbee5	0.85838157
66	0x3e82f0c2	0.2557431
67	0x3f7be49a	0.98395693
68	0x3f273589	0.65316063
69	0x3dc094d8	0.0940339
70	0x3ba27214	0.004957447
71	0x3f4ddb1d	0.80412465
72	0x3fa41317	1.2818326
73	0xbfd95edc	-1.6982074
74	0xbfb55ffc	-1.4169917
75	0xbef10f3e	-0.4708194
76	0xbddd85c5	-0.1081653
77	0xbe90fd20	-0.2831812
78	0x3f79c886	0.975716
79	0xbf564e19	-0.8371292
80	0xbcd834b9	-0.026392328
81	0x3f57ceaa	0.8429972
82	0xbf404cdd	-0.75117284
83	0x3fda59f3	1.70587
84	0x3f25a8cd	0.64710695
85	0x3efb58cc	0.49091184
86	0x3f2babcd	0.6705902
87	0x3e8a9833	0.27069244
88	0x3f1262ba	0.57181895
89	0x3ebb1eb3	0.3654686
90	0x3ecd4e93	0.4009901
91	0xbecad9ea	-0.3961938
92	0x3ff1f6a2	1.8903391
93	0xbf53c4ff	-0.8272247
94	0x3e1368e2	0.14395478
95	0x3f1174e6	0.56819
96	0xbe24f379	-0.16108502
97	0x3f3e9d31	0.74458605
98	0xbeb845c6	-0.35990733
99	0x3eb18b66	0.34676665
100	0x3fa242b0	1.2676601
101	0x3f1746e5	0.5909255
102	0x3f5ef154	0.8708699
103	0x3e8eb226	0.2787029
104	0xbe9c1134	-0.30481875
105	0xbe4fe78f	-0.20303176
106	0x3f25aac6	0.64713705
107	0xbcdef656	-0.027217072
108	0xbd706721	-0.0586921
109	0x3e2d89ab	0.16947047
110	0x3d897e24	0.067135125
111	0x3eddb18b	0.43299517
112	0x3da9b15b	0.08285781
113	0x3f86e31c	1.0538058
114	0x3d67b802	0.056571968
115	0x3ebec9d1	0.3726335
116	0x3de71a95	0.11284367
117	0x3f5e5011	0.8684092
118	0xbed89e91	-0.42308477
119	0x3ee49b11	0.44649556
120	0xbf7a910a	-0.9787756
121	0xbe2d372d	-0.16915579
122	0x3fa81cf9	1.3133842
123	0x3faf3319	1.3687469
124	0x3ea3cd11	0.3199239
125	0xbc75e374	-0.015007842
126	0x3e8fe14c	0.28101575
127	0x3fa2056c	1.2657905

bn1.running_mean f4 [128]
0	0x40fcc512	7.8990564
1	0x41cc5371	25.540743
2	0x40e5dfc0	7.183563
3	0x413b8fc5	11.7226
4	0x41c69713	24.823767
5	0x4007f998	2.124609
6	0x4102fbe3	8.186496
7	0x42058de1	33.388554
8	0x40e11d97	7.034862
9	0x41050ca2	8.315584
10	0x41fbd33a	31.478138
11	0x418113ff	16.134764
12	0x424d10bb	51.26634
13	0x41ab0ef1	21.382296
14	0x41322d72	11.136095
15	0x4288ac40	68.336426
16	0x422dbcb0	43.434265
17	0x3eb1272c	0.34600198
18	0x41d6eaff	26.864744
19	0x416872bd	14.528012
20	0x41fdb6be	31.71423
21	0x3fe77e38	1.8085394
22	0x4195c12f	18.719328
23	0x424a6acb	50.60429
24	0x42a242e9	81.130684
25	0x41688190	14.531631
26	0x407b6a47	3.9283617
27	0x40996566	4.7936277
28	0x42918b13	72.77163
29	0x42022297	32.53378
30	0x41a6f5c7	20.870008
31	0x4269f906	58.493187
32	0x41f6f241	30.868288
33	0x406a2648	3.6585865
34	0x4047fdea	3.1248727
35	0x42757e33	61.37324
36	0x41727f2d	15.156049
37	0x420cf14b	35.235638
38	0x40fca94b	7.8956656
39	0x4172d2f1	15.176499
40	0x4116448f	9.391738
41	0x3f9df5cf	1.234064
42	0x41adb93b	21.715445
43	0x42902f65	72.09257
44	0x4034c247	2.8243577
45	0x41206e1f	10.026885
46	0x3fbf06db	1.4923967
47	0x410e6a14	8.900898
48	0x4072f44d	3.796161
49	0x40c0bcb4	6.023035
50	0x422b3e76	42.810997
51	0x423de012	47.46882
52	0x41c32daf	24.397306
53	0x4207400f	33.812557
54	0x41f5a683	30.706305
55	0x3c171a57	0.0092225885
56	0x3ee0e7ac	0.43926752
57	0x4245bf6d	49.43694
58	0x4224b87b	41.180157
59	0x415817f6	13.50585
60	0x3f3b658f	0.7320184
61	0x420ef59e	35.73986
62	0x40f5da8d	7.6829286
63	0x4034995e	2.8218608
64	0x402ed4f4	2.7317476
65	0x422d0403	43.253918
66	0x4190263f	18.018675
67	0x428ae437	69.44573
68	0x4021014e	2.5157046
69	0x403e233c	2.9709005
70	0x42958aef	74.771355
71	0x41a51316	20.63432
72	0x425fdc1c	55.96495
73	0x421d6a43	39.35377
74	0x420c640d	35.097706
75	0x41a05b3d	20.04455
76	0x4100aa9a	8.041651
77	0x41e84f31	29.038668
78	0x41652376	14.321157
79	0x420aa16f	34.65765
80	0x42b8c2d9	92.38056
81	0x41a762d8	20.923264
82	0x4204f4d5	33.239094
83	0x42199590	38.396057
84	0x40d9643d	6.793486
85	0x418acf31	17.351168
86	0x410ddade	8.865934
87	0x40cfe57d	6.4967637
88	0x429f773c	79.73288
89	0x429b264f	77.57482
90	0x41478529	12.47001
91	0x422719c3	41.775158
92	0x417281ad	15.156659
93	0x41c5fdcc	24.748924
94	0x3ff173e0	1.8863487
95	0x413d9654	11.849201
96	0x423c3598	47.052338
97	0x4251ca55	52.44759
98	0x429f742c	79.7269
99	0x4184356e	16.526089
100	0x41c4e76b	24.612997
101	0x42b5d87c	90.92282
102	0x419e5c40	19.795044
103	0x4208390a	34.055702
104	0x418d255b	17.64324
105	0x420fe3e8	35.972565
106	0x41317855	11.091878
107	0x423d457b	47.317852
108	0x3ee1daaf	0.44112155
109	0x40a1bafd	5.0540757
110	0x3f722a68	0.94595957
111	0x41899ae0	17.200623
112	0x00000004	6e-45
113	0x41fde0e9	31.73482
114	0x3f00a44c	0.502507
115	0x41d6b4c1	26.838259
116	0x403672d4	2.8507586
117	0x4220b27e	40.17431
118	0x42226ba4	40.605118
119	0x40228fd7	2.5400293
120	0x4192fea7	18.374342
121	0x00000004	6e-45
122	0x41c3fde5	24.498972
123	0x413d17bb	11.818294
124	0x40dd4bd9	6.9155087
125	0x3eb91a7c	0.36153018
126	0x41c9ca17	25.223677
127	0x42b4478a	90.139725

bn1.running_var f4 [128]
0	0x43e5190d	458.1957
1	0x44d9adf4	1741.436
2	0x43dbd513	439.66464
3	0x43902ad9	288.33475
4	0x4488f6ce	1095.7126
5	0x425ab231	54.674015
6	0x43e6740a	460.90656
7	0x4514a348	2378.205
8	0x43b39ab0	359.2085
9	0x43af215f	350.2607
10	0x451d982f	2521.5115
11	0x444ee373	827.5539
12	0x44135d87	589.46136
13	0x446a19c4	936.4026
14	0x4438117f	736.2734
15	0x4446d55a	795.3336
16	0x45414666	3092.4
17	0x416261b1	14.14885
18	0x4470cc3a	963.19104
19	0x442249c3	649.1525
20	0x44c05882	1538.7659
21	0x426b7579	58.86472
22	0x448d3087	1129.5165
23	0x459c2bc5	4997.471
24	0x45001b94	2049.7236
25	0x440ef9cd	571.90314
26	0x431a3592	154.20926
27	0x4386936f	269.15182
28	0x44b9cf97	1486.4872
29	0x4513a7d4	2362.4893
30	0x448d5f46	1130.9773
31	0x44e7eb7d	1855.359
32	0x44aa40f8	1362.0303
33	0x4328365e	168.21237
34	0x43141fd4	148.12433
35	0x453c5474	3013.2783
36	0x4456a8c2	858.63684
37	0x44926640	1171.1953
38	0x43709e98	240.6195
39	0x443765da	733.59143
40	0x44642ba3	912.6818
41	0x420c52f2	35.081
42	0x44a5d13b	1326.5385
43	0x450aa39a	2218.225
44	0x42b4cdfb	90.402306
45	0x440a3ff9	552.9996
46	0x420cf42e	35.238457
47	0x44131822	588.3771
48	0x4330f59e	176.95944
49	0x43230f59	163.05995
50	0x4484f02d	1063.5055
51	0x457f5a1e	4085.6323
52	0x4438c64f	739.0986
53	0x448f2799	1145.2374
54	0x45251789	2641.471
55	0x3dd51aba	0.10405488
56	0x4102ea76	8.182241
57	0x4590cbe0	4633.4844
58	0x450796f0	2169.4336
59	0x449753c1	1210.6173
60	0x4187c440	16.970825
61	0x449a380b	1233.7513
62	0x43d2ec4b	421.84604
63	0x42b6ff0e	91.49815
64	0x42814587	64.635796
65	0x4454e3b3	851.5578
66	0x446864dc	929.5759
67	0x45244472	2628.2778
68	0x42b02964	88.08084
69	0x42d56d82	106.71388
70	0x44625687	905.352
71	0x44f95d53	1994.9164
72	0x45a244ef	5192.6167
73	0x4508d24b	2189.1433
74	0x44f701bc	1976.0542
75	0x450a8213	2216.1296
76	0x441c62a3	625.5412
77	0x4514f652	2383.395
78	0x4423c14a	655.02014
79	0x445b34d0	876.8252
80	0x453f2cdd	3058.804
81	0x44993976	1225.7957
82	0x445873c5	865.8089
83	0x44d640e1	1714.0275
84	0x43d08efc	417.11707
85	0x448532de	1065.5896
86	0x44265bfc	665.43726
87	0x43b65a7a	364.70685
88	0x44faed2a	2007.4114
89	0x44d927d0	1737.2441
90	0x4382d70f	261.68015
91	0x4574cc75	3916.7786
92	0x447a8c32	1002.19055
93	0x44784c83	993.1955
94	0x42363fc0	45.562256
95	0x44a01980	1280.7969
96	0x450f1768	2289.463
97	0x45ab41fd	5480.2485
98	0x44c40a21	1568.3165
99	0x4410207c	576.50757
100	0x44b2f25f	1431.5741
101	0x4564f557	3663.3337
102	0x4489e03e	1103.0076
103	0x44364f36	729.2377
104	0x43d8f5ed	433.9213
105	0x44dd10d7	1768.5262
106	0x442291c8	650.27783
107	0x453b1978	2993.5918
108	0x411cf71b	9.8103285
109	0x4391dd67	291.7297
110	0x4203b6de	32.92858
111	0x44767631	985.84674
112	0x00000004	6e-45
113	0x44bb2991	1497.299
114	0x417cc065	15.796971
115	0x44f78694	1980.2056
116	0x42d176c5	104.73197
117	0x442ab6f2	682.8585
118	0x4400f2d9	515.7945
119	0x42ec2248	118.066956
120	0x448432eb	1057.5912
121	0x00000004	6e-45
122	0x447cff3c	1011.98804
123	0x44328935	714.14386
124	0x4382b6b9	261.42752
125	0x4103f8a5	8.248204
126	0x443e3168	760.772
127	0x44b57bfd	1451.8746

fc2.weight f4 [128, 128]
0	0x3e489c98	0.19590986
1	0x3b9ca1dc	0.0047800373
2	0xbed5118f	-0.4161496
3	0xbf53b3ba	-0.82696116
4	0x3fa78b44	1.3089375
5	0xbf326b45	-0.6969493
6	0x3eb33173	0.34998664
7	0x3f265b72	0.64983284
8	0x3c9361a7	0.0179909
9	0xbf8d2ad6	-1.1028697
10	0x3fad868e	1.3556688
11	0xbf0c8d73	-0.54903334
12	0xbf6fe433	-0.9370758
13	0x3f6c05d5	0.921964
14	0xbe93e682	-0.288868
15	0x3ef16b0b	0.4715198
16	0x3f6f82b0	0.9355879
17	0xbf429972	-0.7601539
18	0xbe870c46	-0.2637655
19	0x3fd67010	1.6752949
20	0xc071e8ec	-3.7798414
21	0x3f59ced9	0.8508125
22	0x3f197f9f	0.5996036
23	0x3f1aaae7	0.60417026
24	0x3ff42c3c	1.9075999
25	0x4047a763	3.1195915
26	0x3e8ab9be	0.27094835
27	0xbe67be90	-0.22631288
28	0x3f0acd4e	0.5421952
29	0x3f049453	0.51788825
30	0xbe3dd3a0	-0.1853776
31	0x3f72bc25	0.94818336
32	0xbfa949d9	-1.3225662
33	0x3f7e3965	0.9930633
34	0xbf072dc9	-0.5280424
35	0x3cfcf67b	0.03087925
36	0x3f5753b9	0.84112126
37	0x3de606ad	0.11231742
38	0xbee9bd36	-0.4565217
39	0x3fedd288	1.8579874
40	0x3ddab88f	0.10679733
41	0xbf63ea9c	-0.8902986
42	0x3e986445	0.29764
43	0x3fd0437d	1.6270596
44	0x3f7c4265	0.9853881
45	0x4003f305	2.0617077
46	0xbf34f756	-0.70689905
47	0x3eb3ae58	0.3509395
48	0xbff642ed	-1.9239174
49	0xbef764a3	-0.48318967
50	0x40b02e7e	5.5056753
51	0x3f500c36	0.8126863
52	0xbf2501fc	-0.6445615
53	0x3edae7af	0.42754886
54	0x3ed2b9a3	0.41157255
55	0xbf0df0d8	-0.55445623
56	0xbeed0b3a	-0.46297628
57	0x3f0835e5	0.53207237
58	0x3eca4e1c	0.39512718
59	0xbf03a7f2	-0.5142814
60	0x3e6d0c84	0.23149306
61	0x408df7a9	4.436482
62	0xbf2d64ce	-0.6773194
63	0xbf4a0d65	-0.7892669
64	0xbf673278	-0.90311384
65	0xbf71dade	-0.9447459
66	0x3fc0085e	1.5002553
67	0x401ff681	2.4994204
68	0xbe413ecb	-0.1887161
69	0x3fd92750	1.6965122
70	0x3f27ea2b	0.65591687
71	0xbfb24615	-1.3927637
72	0x3eabb5c5	0.33537117
73	0xbe7780cb	-0.24170224
74	0xbf95f160	-1.1714287
75	0x3d83c0ac	0.064332336
76	0xbee1ebe4	-0.44125283
77	0x3e16d1bb	0.14728443
78	0x3e1c7a75	0.15281089
79	0x3fcc2afe	1.595062
80	0x3fc4c66f	1.5373057
81	0xbe715b50	-0.23569989
82	0xbe87fcf5	-0.26560178
83	0x4021afca	2.5263543
84	0xbc127bad	-0.008940619
85	0x3e623763	0.22091441
86	0x3f1a9a31	0.6039153
87	0x3f9dd66d	1.2331063
88	0x3f9f230b	1.2432569
89	0x3f335948	0.7005811
90	0x3fce3415	1.6109644
91	0x3f8be5cb	1.0929502
92	0x3e96e222	0.294694
93	0x3e7736f6	0.2414206
94	0xbfb8550c	-1.4400954
95	0x3c523352	0.0128296185
96	0xbdc3b595	-0.095561184
97	0x3e867013	0.2625738
98	0xbd2b0ee5	-0.04176225
99	0x3e964baa	0.29354602
100	0x3e394cac	0.18095654
101	0x3f1bfee6	0.6093582
102	0xbf360099	-0.7109466
103	0xc01dfe5a	-2.4686494
104	0xbf727b0b	-0.94719
105	0x3e1c1417	0.15242039
106	0xbf961c1c	-1.1727328
107	0x3f38f3f5	0.7224725
108	0xbf0190a0	-0.50611305
109	0x3f3beac5	0.73405105
110	0x3e873606	0.26408404
111	0x3fbc6754	1.4719033
112	0x3f97c3d5	1.1856638
113	0xbf640359	-0.8906761
114	0xbefa7c8b	-0.48923144
115	0x3f395a1d	0.72403127
116	0xbf7240ca	-0.9463011
117	0xbf89df27	-1.0771226
118	0x3e2c4f85	0.1682721
119	0xbec5cc61	-0.3863249
120	0x3fe555ad	1.7916771
121	0xbe3caecb	-0.18426053
122	0xbfa01155	-1.2505289
123	0xbfa85a58	-1.3152571
124	0xbe7b3bf6	-0.24534592
125	0xbfa9646d	-1.3233773
126	0xbed8784e	-0.42279285
127	0x40268390	2.60178
128	0x3f36ce2e	0.71408355
129	0xbed19746	-0.40935725
130	0x3e3b1cc6	0.18272695
131	0xbfe8d468	-1.8189821
132	0x3dd2a764	0.102858335
133	0xbcf0705e	-0.029350456
134	0xbe6c5fbf	-0.23083399
135	0xbe69b283	-0.22822003
136	0xbf0ac3e7	-0.54205173
137	0xbe962c0e	-0.29330486
138	0xbf9536f7	-1.1657399
139	0xbcdd6ece	-0.027030375
140	0x3ea24f33	0.3170105
141	0x3f22faf3	0.6366417
142	0x3fcc9e5e	1.598583
143	0xbf35dd59	-0.71040875
144	0xbf9330ee	-1.1499307
145	0x3f68d49f	0.90949434
146	0x3f567e39	0.8378635
147	0x3f5e30cf	0.86793226
148	0xbeffb808	-0.49945092
149	0x3f71f1f4	0.94509816
150	0x3f579e31	0.84225756
151	0xbf7d0574	-0.98836446
152	0x3ef20e39	0.47276476
153	0x3f32f8ab	0.6991069
154	0x3fa2120e	1.266176
155	0x3f9787f0	1.183836
156	0xbf823b60	-1.017437
157	0xbf01a225	-0.5063804
158	0x3db49e20	0.088192225
159	0x3f5c5271	0.86063296
160	0xbfbe96c4	-1.488976
161	0xbf00d4a2	-0.5032445
162	0x3f647163	0.89235514
163	0xbf7ebb82	-0.99504864
164	0x3e126a8f	0.14298461
165	0x3f8ff90f	1.1247882
166	0x3f57d2d2	0.8430606
167	0x3f0e0476	0.55475557
168	0x3edb4b8d	0.42831078
169	0x3e838a43	0.25691423
170	0x3d8464d1	0.06464542
171	0x3edfc65d	0.43706027
172	0x3e0e6dbb	0.13909046
173	0x3e28e03f	0.16491793
174	0x3f4b2677	0.7935557
175	0xbf42820c	-0.75979686
176	0xbed3897a	-0.41315824
177	0x3df20cfe	0.11818884
178	0x3f9ac1ba	1.2090371
179	0xbdf42da0	-0.11922765
180	0x3f816c87	1.0111245
181	0x3d8ba058	0.068176925
182	0xbe49e76a	-0.19717184
183	0x3f07c989	0.53041893
184	0x3ed6d0db	0.4195622
185	0xbfbf0f6d	-1.4926583
186	0xbdedf607	-0.116191916
187	0xbf896834	-1.0734925
188	0x3f4cd9f8	0.80020094
189	0x3f4d3fab	0.80175275
190	0x3e11ac4a	0.1422588
191	0x3e5d4572	0.21608523
192	0x3cf029da	0.029316831
193	0xbf458f0a	-0.77171385
194	0xbcd7560e	-0.026286151
195	0x3f70cbf2	0.94061196
196	0x3f1ebfe9	0.6201158
197	0x3fae8a92	1.3636038
198	0xbf4ecfaa	-0.8078562
199	0x3eb1a97a	0.34699613
200	0xbfe0b34a	-1.7554715
201	0x3f78546c	0.9700382
202	0x3f809593	1.0045646
203	0x3f8eb26b	1.1148199
204	0x3f59bef0	0.8505697
205	0x3f90eb39	1.1321784
206	0xbf76e313	-0.9644024
207	0xbdd7a6b4	-0.10529843
208	0x3f0fcac3	0.56168765
209	0xbeca2b70	-0.39486265
210	0x3fb7b8da	1.4353287
211	0xbefa4a02	-0.48884588
212	0x3f0fd157	0.561788
213	0xbfb87a59	-1.4412338
214	0x3e215212	0.15753964
215	0x3fbb1512	1.4615805
216	0xbf826eb5	-1.0190035
217	0xbfb61ef0	-1.4228191
218	0x3fc9b11b	1.5757173
219	0x3f83338c	1.0250106
220	0xbf209049	-0.6272016
221	0x3e69e332	0.22840574
222	0xbe601e4b	-0.21886556
223	0x3f070ebb	0.5275685
224	0xbef07ace	-0.46968693
225	0xbc462e6e	-0.012096031
226	0x3ea21b08	0.31661248
227	0x3f57701e	0.8415545
228	0xbf539808	-0.82653856
229	0x3ea8a254	0.32936347
230	0x3eaa1e8c	0.3322643
231	0xbee06492	-0.4382673
232	0x3e6c95f3	0.23104076
233	0x3e73bf42	0.23803428
234	0xbe8f7f7d	-0.28026953
235	0xbfc4ec51	-1.5384618
236	0x3f2d230a	0.6763159
237	0x3ef8fd84	0.48630917
238	0x3f0910d1	0.53541285
239	0xbe3a9a54	-0.18222934
240	0x3e6b1d39	0.22960366
241	0xbf0315b3	-0.51204985
242	0x3f93245a	1.1495469
243	0xbe01104f	-0.12603877
244	0x3e9679c8	0.29389787
245	0xbd95f515	-0.07322136
246	0x40447ee5	3.070245
247	0xbf6a0db9	-0.9142719
248	0x3fd2f3dc	1.648067
249	0x3e338456	0.17530951
250	0xbf278908	-0.6544347
251	0xbf445830	-0.76697063
252	0x3cfc18ee	0.030773606
253	0x3fec8235	1.8477236
254	0xbf525138	-0.8215518
255	0x3d70732b	0.058703583

fc2.bias f4 [128]
0	0xbf5d5025	-0.86450416
1	0xbfab9148	-1.3403711
2	0x3eafc481	0.34329608
3	0xbdcdeaec	-0.100545734
4	0xbf1e681e	-0.6187762
5	0x3e851a02	0.25996405
6	0xbf910466	-1.1329467
7	0xbfade35b	-1.3585008
8	0xbf8ff540	-1.1246719
9	0x3f9051d5	1.1274973
10	0xbf30279b	-0.68810433
11	0xbd576ee5	-0.05259599
12	0x3f455520	0.77083015
13	0xbe60a417	-0.21937595
14	0xbe575bfc	-0.21031183
15	0xbddb073f	-0.106947415
16	0xc02dece3	-2.7175834
17	0x3e6270af	0.22113298
18	0xbf8932d2	-1.0718634
19	0xbd0838c2	-0.033257253
20	0xbfb793ad	-1.4341942
21	0xbfc4f7d3	-1.538813
22	0x3f29ac88	0.66278887
23	0x3fefe0ee	1.8740518
24	0x3f9af50b	1.2106031
25	0xbfc9eed7	-1.5776013
26	0xbfa6456c	-1.2989936
27	0x3efc090c	0.49225652
28	0x3fb144ee	1.3849161
29	0xbf075056	-0.5285696
30	0xbf8a04cc	-1.0782714
31	0xbf431169	-0.7619844
32	0xbf9cb89a	-1.2243836
33	0xbf73883d	-0.9512976
34	0xbe3ff143	-0.18744378
35	0x3e1341b1	0.14380528
36	0x3f544b3e	0.8292731
37	0x3fb05462	1.3775752
38	0xbe0c445a	-0.13697949
39	0xbe449b96	-0.19199976
40	0x3fbefa46	1.4920127
41	0xbf84e5bb	-1.0382608
42	0xbf16c2c7	-0.58890957
43	0xbf91805a	-1.1367295
44	0x3fb56779	1.4172202
45	0xbf56c4fb	-0.8389432
46	0xbfd28235	-1.6445986
47	0x3e05e6d0	0.13076329
48	0xbfbc5c18	-1.4715605
49	0xc003b192	-2.057713
50	0xbf3f9ef6	-0.7485193
51	0xbf081f21	-0.531725
52	0xbf80a704	-1.0050969
53	0xbf5a0373	-0.85161513
54	0xbf882131	-1.0635129
55	0x3e4b8382	0.19874385
56	0x3fa1f56a	1.265302
57	0xbe9d2ccb	-0.30698237
58	0x3d19b384	0.037524715
59	0xbfdfb048	-1.7475672
60	0xbf6e9db3	-0.9320938
61	0x3fc06466	1.5030639
62	0x3ef7d403	0.4840394
63	0xc03c2fa1	-2.940407
64	0x3e8dbddd	0.27683917
65	0xbf95d3b5	-1.1705233
66	0xbedf87fa	-0.4365843
67	0x3f5c0fb1	0.85961443
68	0xbef0626d	-0.46950093
69	0x3dc7c127	0.09753638
70	0x3e18845c	0.14894241
71	0x3f016833	0.5054962
72	0xc0124b68	-2.2858524
73	0xbf1ad9cf	-0.604886
74	0xbfa8277b	-1.3137048
75	0xbf2229ef	-0.63345236
76	0xbebb7c49	-0.3661826
77	0xbf5f4c7c	-0.8722608
78	0xbf878fa1	-1.0590707
79	0xbf0acc9d	-0.54218465
80	0xbe48bbe3	-0.19602923
81	0xbf8ca230	-1.0986996
82	0xc03d4a0c	-2.9576445
83	0xbf112341	-0.5669442
84	0xbfbb1a41	-1.4617387
85	0x3da4a55f	0.080393545
86	0xbf3105bf	-0.6914939
87	0x3f30ab66	0.69011533
88	0x3f051b04	0.5199435
89	0x3f8f2f2e	1.1186273
90	0xbf80c47f	-1.0059966
91	0xbfb827bb	-1.4387125
92	0xbfb7093e	-1.4299695
93	0xbf115155	-0.5676473
94	0xbfee212a	-1.8603871
95	0xbf4b9062	-0.79517186
96	0xbe8104c5	-0.2519895
97	0xbf2560ce	-0.6460084
98	0xbe16b25c	-0.14716476
99	0xbf98b947	-1.1931542
100	0xbf77b7da	-0.9676491
101	0xbd7855d6	-0.060628735
102	0xbf0ed00b	-0.557862
103	0xbfdc1698	-1.7194395
104	0x3f8800a3	1.0625194
105	0xbfb37224	-1.4019208
106	0xbfdf46c5	-1.7443472
107	0xbfa20f28	-1.2660875
108	0xbf5a8a3e	-0.8536719
109	0x3f7844ad	0.9697979
110	0x3f1f18a0	0.6214695
111	0xbd86eeeb	-0.06588539
112	0x3f8311ba	1.0239785
113	0xbf84248e	-1.0323656
114	0xbfa9e0e7	-1.327176
115	0xbf4487f4	-0.7676995
116	0xbfc7f815	-1.5622584
117	0x3eb3f89b	0.35150608
118	0x3e867fc5	0.26269355
119	0xbe12f49c	-0.14351124
120	0x3f59e354	0.851125
121	0xba7395d4	-0.00092920405
122	0xbfa00366	-1.2501037
123	0xbcab1435	-0.020883659
124	0xbfa4ddde	-1.2880208
125	0x3f7e7bfa	0.99407923
126	0x3f3f8d6e	0.7482518
127	0xbf5207e8	-0.82043314

fc3.weight f4 [2, 128]
0	0x401650b8	2.3486767
1	0xbea984e3	-0.33109197
2	0x400764ba	2.1155229
3	0xbebbbf4b	-0.36669382
4	0x3fa9aadf	1.3255271
5	0xbfe22072	-1.7666152
6	0xbda3f85b	-0.080063544
7	0xbcb5e157	-0.022202177
8	0x3dc85386	0.09781556
9	0xbfa5a386	-1.2940528
10	0x3dbe0934	0.09279099
11	0xbfab05ea	-1.336118
12	0xc00fc429	-2.2463477
13	0xbfaa9206	-1.3325813
14	0xbf8943f9	-1.0723869
15	0xbf861da3	-1.0477794
16	0x40196950	2.3970528
17	0xbfe32ec7	-1.774865
18	0x3fd9ac17	1.7005643
19	0xbf7342ba	-0.9502369
20	0xbe9d3a1e	-0.30708402
21	0x40198605	2.398805
22	0xbfa82ac4	-1.3138051
23	0xbfe30c57	-1.7738141
24	0x3ef8fc3d	0.48629943
25	0xbf761472	-0.9612495
26	0x3fbb812b	1.4648794
27	0xbf077db6	-0.52926195
28	0xc006d590	-2.1067848
29	0xbec0bddf	-0.3764486
30	0x3f3d7e63	0.74020976
31	0x3ef675c2	0.48136717
32	0x3eaf05f1	0.3418422
33	0x3fd781c1	1.6836473
34	0xbfd6de2c	-1.6786551
35	0x40338357	2.8048913
36	0xbfe61fae	-1.7978418
37	0xbfa81442	-1.3131182
38	0xbfcb9ede	-1.5907857
39	0xbf851015	-1.0395533
40	0xc0155a52	-2.3336377
41	0x3f442846	0.7662395
42	0xbf848820	-1.0354042
43	0xbf014e3c	-0.5051
44	0xbfd1aba5	-1.6380507
45	0x3f91de40	1.139595
46	0x3eb81f94	0.35961592
47	0x402e1a4c	2.720355
48	0x3fe0e4a5	1.7569777
49	0xbf882d3c	-1.0638804
50	0xbeb619df	-0.35566613
51	0x3f4e8175	0.80666286
52	0x3fcdfe15	1.6093165
53	0x3f18d831	0.5970488
54	0xbfc59eca	-1.5439084
55	0xbf917d56	-1.1366374
56	0xbfc3ed0f	-1.530672
57	0xbf452f10	-0.77024937
58	0xbf6ec376	-0.93267
59	0xbf6ed9bb	-0.9330098
60	0x3fa09c41	1.2547685
61	0xbfeee488	-1.8663492
62	0xbfbbcdb3	-1.467215
63	0x40060c5f	2.094505
64	0x4012fc71	2.2966578
65	0x3fc1a85a	1.5129502
66	0x3e1452fd	0.14484783
67	0xbfa7fd00	-1.3124084
68	0x3f7a98f5	0.97889644
69	0xbef80cff	-0.48447415
70	0xbfb3f5f6	-1.4059436
71	0xbfd0148f	-1.6256274
72	0x3f1aefde	0.6052226
73	0xbdb2e0d7	-0.08734291
74	0xbe032b2e	-0.1280944
75	0xbf73637b	-0.9507367
76	0xbff40a06	-1.9065559
77	0xbf76e883	-0.96448535
78	0xbe94e220	-0.2907877
79	0xbe8392ee	-0.25698036
80	0x3f866e90	1.0502491
81	0x3f0f1970	0.5589819
82	0x3f8ec4df	1.115383
83	0xbf43cfd5	-0.76489
84	0x3f229775	0.63512355
85	0xbfb363d3	-1.4014839
86	0x3fa94f10	1.3227253
87	0xbfb74f3d	-1.4321057
88	0xbfc07e48	-1.5038538
89	0xbf96a0b5	-1.1767794
90	0x403ecdc9	2.9813101
91	0xbdabf46d	-0.0839623
92	0xbfb97d0a	-1.4491284
93	0xbfe3a053	-1.7783302
94	0xbb984687	-0.0046470794
95	0xc00ca441	-2.1975253
96	0x3f21f323	0.6326162
97	0xbfe43d4e	-1.7831209
98	0xbfdf8a8d	-1.7464157
99	0x3ff7ccb5	1.9359347
100	0xbfa531be	-1.2905805
101	0xbf5864c4	-0.84528756
102	0x3fdec61d	1.7404209
103	0x4010512f	2.254955
104	0xc000e588	-2.0140095
105	0x3ff68d30	1.9261837
106	0xbf2643c9	-0.6494718
107	0x3f2037fe	0.6258544
108	0xbf7615f6	-0.9612726
109	0xbffbef81	-1.9682466
110	0xc0046b00	-2.0690308
111	0xbf9f9b3f	-1.2469252
112	0xc03173f8	-2.7727032
113	0x405e68cd	3.4751465
114	0x40033781	2.0502627
115	0x3f51ce00	0.81954956
116	0xbdfee2cc	-0.12445602
117	0x401d3199	2.4561522
118	0xbfb25b9b	-1.3934206
119	0xbf091a51	-0.5355578
120	0xbfdedbb6	-1.74108
121	0xbe730b7e	-0.23734853
122	0x3fdea2fd	1.739349
123	0xbf9d4b33	-1.2288574
124	0x3fc2bf68	1.5214663
125	0xbf9cbe1e	-1.2245519
126	0xbffeb653	-1.9899391
127	0xbe8157a5	-0.2526218
128	0xbf90c4b9	-1.1310035
129	0x3e4c336d	0.19941492
130	0x3f3a0e5c	0.7267816
131	0x401b3451	2.4250681
132	0x3e2b10ab	0.16705577
133	0xbff6404e	-1.9238374
134	0xbfa3ec39	-1.2806464
135	0xc01e16be	-2.470138
136	0xbf80dec4	-1.0067983
137	0x4001242d	2.017833
138	0xbfcc15ac	-1.5944114
139	0xbc9fff89	-0.019531028
140	0xbffa799f	-1.9568366
141	0xbd894ff2	-0.067047015
142	0x3e534e0d	0.20635243
143	0x3f47a98a	0.7799307
144	0xbe1750cb	-0.14776914
145	0xbe5b7aff	-0.21433638
146	0xc00f386b	-2.2378185
147	0x3fcb236a	1.5870183
148	0xbfab5200	-1.33844
149	0xbe22610b	-0.15857331
150	0xbbbed9a9	-0.005824287
151	0x3f2c5289	0.6731344
152	0x3fe313d3	1.7740425
153	0x3ff8eb34	1.9446778
154	0xbf1cc544	-0.61238503
155	0x402cbfb7	2.6992013
156	0x3e22eaff	0.15909956
157	0xbfcf8973	-1.6213821
158	0xbf9e0ab4	-1.2347016
159	0xbfd339b3	-1.6501983
160	0xbf75d58b	-0.96028966
161	0xbf696051	-0.9116259
162	0xbe84837c	-0.25881565
163	0x3eb8926f	0.3604922
164	0xbd8fc14e	-0.07019292
165	0x3fe7f95e	1.8122976
166	0xbe9d162d	-0.3068098
167	0xbdbeb8b1	-0.09312571
168	0xbdd49d86	-0.10381608
169	0xbf9d35ba	-1.2282021
170	0xc066b3ec	-3.6047316
171	0x3f398242	0.7246438
172	0x3e0225ec	0.12709779
173	0x3ef986e7	0.48735735
174	0xbf6d5806	-0.9271244
175	0x3e335ee2	0.17516664
176	0xbf9d5cac	-1.2293906
177	0x3f81d458	1.0142927
178	0xbda3780d	-0.07981882
179	0xbf38f954	-0.72255445
180	0x3e623159	0.22089137
181	0x3f0c4461	0.5479184
182	0x3e605ef2	0.21911219
183	0x401fb34d	2.4953187
184	0xbedfe60b	-0.43730196
185	0x3f59be05	0.8505557
186	0xbf1b32fa	-0.6062466
187	0x3f99d035	1.2016665
188	0xbf93c191	-1.1543447
189	0xbcb54a78	-0.022130236
190	0x3ff11e0c	1.8837295
191	0x3f8e4a55	1.1116434
192	0x3f470cee	0.77754104
193	0xc00372d5	-2.0538838
194	0xbfd2e6e2	-1.647671
195	0xbec85ef1	-0.39134935
196	0xbf481f32	-0.781726
197	0x3ed74688	0.42046
198	0x3eaa17fe	0.3322143
199	0x3f4e94eb	0.8069598
200	0x3f6d611b	0.92726296
201	0x3d6371d1	0.055528466
202	0xbfa51412	-1.289675
203	0x3fb15674	1.3854508
204	0xbfcf39f4	-1.6189561
205	0x3f35d318	0.7102523
206	0xbf7af5b6	-0.98031175
207	0x3efe42ce	0.49660343
208	0xbeaa8296	-0.33302754
209	0xbfb1889a	-1.3869812
210	0x3ebc299b	0.36750492
211	0x3f4a545b	0.79034966
212	0x40007bfb	2.0075672
213	0xbf4dc759	-0.80382305
214	0x3ed84a8c	0.42244375
215	0xbfa39c3a	-1.2782052
216	0x3fc1875e	1.5119436
217	0x3f2c56ba	0.67319834
218	0xbf0e6e4f	-0.5563707
219	0xc05ed78c	-3.481906
220	0x3e1ba2ae	0.15198776
221	0x3e0a339f	0.13496254
222	0xbe3e691a	-0.1859478
223	0x3f8b4def	1.0883158
224	0xc0309657	-2.759176
225	0x3e392494	0.1808036
226	0xbf7efc3b	-0.99603623
227	0xc0097b43	-2.1481483
228	0xc06fd71e	-3.7475047
229	0x3e8d9100	0.2764969
230	0xbf40a8b5	-0.75257427
231	0xbf8d6778	-1.1047201
232	0x3e8b9b7c	0.27267063
233	0xbfd7bac5	-1.6853873
234	0x3e0f626a	0.14002386
235	0xbf6faffa	-0.93627894
236	0xbfdc64e7	-1.7218293
237	0x3f49dc1c	0.78851485
238	0xbdeb7c64	-0.11498335
239	0xbfea5c00	-1.8309326
240	0x3eb8aa17	0.36067268
241	0xbfa1eae2	-1.2649806
242	0xbf96b771	-1.1774732
243	0x3f9ede86	1.2411659
244	0xbf30e4c1	-0.6909905
245	0x3eb908f8	0.36139655
246	0xbfbc97a1	-1.4733773
247	0x3f004dc7	0.5011868
248	0x3fc1179c	1.508533
249	0x3e26c973	0.16287784
250	0x3f207b6e	0.6268834
251	0x3f8a0ce2	1.0785182
252	0xbfe6ac58	-1.8021345
253	0x3fc6c44f	1.5528659
254	0x3e6a76c4	0.22896868
255	0xc03a1293	-2.9073837

fc3.bias f4 [2]
0	0x3eaaef91	0.333859
1	0x3fa6d577	1.3033894
