training_output/ddpg/weights_critic.pth (torch_old, 84182 bytes, 9 tensors)

fcs1.weight f4 [128, 24]
000000 1b 43 3e 3f 51 1f 55 bf 6d 31 7d 3b d1 64 8f 3d
       0.74321145 -0.8325091 0.0038634196 0.07001651
000010 f1 7b a1 be 93 99 25 40 a6 eb 94 bd c0 79 46 3d
       -0.31539872 2.5874984 -0.07271509 0.048455954
000020 fe 17 a1 3f 9d 25 d6 bf ca 3a 4a 3d 13 2e 1f 3d
       1.2585447 -1.6730229 0.049372472 0.0388623
000030 d4 d4 6f bf a0 a4 e5 3f a5 22 89 bc 36 1a d1 bc
       -0.93684125 1.7940865 -0.016740153 -0.025525194
000040 32 61 10 40 ad e7 ab bf 78 08 d3 3c b6 e5 21 be
       2.2559323 -1.3430077 0.025760874 -0.15810284
000050 d4 4c 2e c0 82 6c fe be fd 33 02 3e 3a 37 31 bd
       -2.7234392 -0.4969216 0.12715144 -0.04326556
000060 50 77 37 bf 0e 2e 5d 3f 2f f8 f2 bd c0 4c 70 3f
       -0.7166643 0.863984 -0.118637435 0.9386711
000070 91 5c 94 bf 5e 66 06 40 4c b9 67 3d 51 f4 75 3f
       -1.1590749 2.099998 0.056573197 0.9607592
000080 34 d4 e3 be 80 f1 57 40 28 c6 45 bd e9 48 4f 3f
       -0.44497836 3.374115 -0.04828468 0.8097063
000090 42 b9 49 bf 46 a6 cf bd 81 db 2e be 73 0f 59 3f
       -0.78798306 -0.10139136 -0.17075922 0.847892
0000a0 81 00 55 3f 34 ac ac 40 9d 04 3a be 4a ab 38 bf
       0.83203894 5.396021 -0.18165822 -0.72136366
0000b0 be 44 0a 3f a9 69 97 c0 d8 fc 1e be d0 c2 19 bf
       0.5401114 -4.731648 -0.1552614 -0.60062885
0000c0 9c 9c 1d 3d 57 88 ca bc 8e 24 bb bd 31 d0 66 bd
       0.038479432 -0.024723215 -0.09137832 -0.05635089
0000d0 55 44 1b 3e 09 a3 99 40 71 53 29 3d 0d 07 13 be
       0.15162785 4.8011518 0.04133934 -0.14358158
0000e0 97 b6 a4 be a2 fd ea 3d b2 8d 89 3d f3 07 c0 3e
       -0.32170555 0.11474158 0.06716479 0.37506065
0000f0 4f 2c 7c 3f 54 61 91 c0 ee 43 a1 bc 7f 73 fe 3e
       0.9850511 -4.543131 -0.019685712 0.49697492
000100 56 e8 9a be 66 57 06 3f e5 4e 1c bc e5 46 a9 bd
       -0.30255383 0.5247711 -0.009540294 -0.08265475
000110 7e 32 a8 3f 75 e1 98 c0 d4 f8 e4 3d 8f 1f 18 3b
       1.3140409 -4.7775216 0.11180273 0.002321217
000120 f1 c1 29 3f 3e 4a c5 be 01 9b cf bd fb c1 cb 3d
       0.66311556 -0.38533205 -0.101369865 0.09949108
000130 df a1 28 bf 03 61 bc bf c5 80 4f bd ae bd 85 3d
       -0.65871996 -1.4717106 -0.050659914 0.06530319
000140 0a ef 77 3f d2 b6 67 bc 2c d5 dd bd 63 37 f2 3d
       0.9684912 -0.014142709 -0.10831675 0.118269704
000150 08 f6 06 3c f0 ce 63 bf b7 fe 86 bd d4 05 cf 3d
       0.008237369 -0.88987637 -0.06591552 0.101085335
000160 8c c7 e5 3f a0 21 0a bc 44 59 08 be 6a f2 a6 3e
       1.7951522 -0.008430868 -0.13315302 0.32606822
000170 a0 48 2c 3f 58 35 39 3e f7 b3 f8 3c 0e cc 9f 3e
       0.67298317 0.18086755 0.030359251 0.3121037
000180 bd a9 dd be 7e b1 6c c0 4e 0a d7 bb 2c 62 33 3e
       -0.43293563 -3.6983333 -0.0065625077 0.17517918
000190 33 18 cd bf a5 43 82 c0 4f 02 da bd a8 39 7a 3e
       -1.602301 -4.0707574 -0.106449716 0.24436057
0001a0 0f 0d 35 bd 3e 2e b7 bf 59 db d8 3c c2 e2 c2 3f
       -0.044201907 -1.4310987 0.02647178 1.5225451
0001b0 99 bb 13 bf 65 c7 95 bf 8c 75 8f bd 02 d3 ba 3f
       -0.57708126 -1.1701475 -0.07004842 1.4595644
0001c0 e6 b5 c4 3f 90 1c 32 40 00 bd 76 bd 5c 3e 05 c0
       1.5368011 2.7829933 -0.06023884 -2.081931
0001d0 a0 87 19 3f a2 20 1c 40 18 ef 6d bd 02 1d 0a c0
       0.5997257 2.4394917 -0.058089346 -2.1580205
0001e0 33 c2 b8 3f 5f 41 84 3f 45 92 48 be eb bd 46 3f
       1.4434265 1.033245 -0.19587047 0.7763354
0001f0 4d a5 b6 3c e4 18 15 c0 70 52 8e be 9e 3c 45 3f
       0.022295618 -2.3296442 -0.2779727 0.7704562
000200 99 c8 84 3f 49 34 1b 3f 96 96 e7 bd 02 13 7d be
       1.0373718 0.60626656 -0.11308019 -0.24714282
000210 ca 1e 88 bd 6a ac e1 bf 66 aa e3 bd d9 3b 41 be
       -0.066464975 -1.7630742 -0.11116485 -0.18870486
000220 60 de b7 3f 3c 93 a4 3e 5c cd 58 be 71 98 f6 bd
       1.4364738 0.3214358 -0.21172088 -0.12040795
000230 b1 57 aa be aa 70 bb bf f4 6a f7 bd 4c b2 6a be
       -0.33270028 -1.4643757 -0.120809466 -0.22919577
000240 02 a3 94 3f f9 57 6a 3f 2c 6f 83 be 54 76 3e be
       1.1612246 0.91540486 -0.25670755 -0.18599826
000250 84 3c 04 3f 3f 3f 1b c0 7a a3 7f be ed 48 db bd
       0.5165484 -2.4257352 -0.24964705 -0.10707269
000260 1b bc 73 3f ea 0e c5 3d 46 29 51 bd 6b dc 0d bf
       0.952089 0.09621985 -0.051064752 -0.55414456
000270 e8 76 1d be d8 82 08 c0 9c f3 3f bd 2a 58 e6 be
       -0.1537739 -2.132986 -0.046863183 -0.4498914
000280 4e a0 53 3f 8d 7f fe 3e 3a 8b 9e bd 80 b6 16 3e
       0.8266648 0.4970669 -0.07741399 0.14718056
000290 28 37 25 be bb a6 7c c0 99 80 66 3b 41 e4 05 3e
       -0.16134322 -3.9476764 0.0035171865 0.13075353
0002a0 94 0a ac bf 45 28 ab be 14 10 cb be 2b 88 b4 bf
       -1.3440728 -0.3342916 -0.39660704 -1.4104055
0002b0 7e a9 9c be 36 b6 c9 3f 3f a6 02 bf 90 f6 a6 bf
       -0.30598062 1.5758731 -0.5103492 -1.3043995
0002c0 06 40 6f bf a4 9c d6 be d1 40 ba 3e eb 3c ed 3c
       -0.93457067 -0.41916382 0.36377576 0.028959712
0002d0 3d ea 22 3e 09 ff 29 3f a0 86 68 3e c4 fe 7a 3d
       0.15909667 0.6640478 0.22707605 0.06127812
0002e0 44 a4 8c bf fc b3 2e bf 1c 75 dd 3d 13 08 14 3f
       -1.098763 -0.68243384 0.108133525 0.5782482
0002f0 95 a4 44 3e 67 4e f8 bd c1 77 1d 3e 84 8c 18 3f
       0.19203408 -0.12124329 0.15377714 0.5958941
000300 49 9a b8 bd 50 90 03 be 65 33 b4 39 5b 5e 95 3d
       -0.090138026 -0.1284802 0.00034370567 0.072933875
000310 8b 13 73 3f 3a 05 9e 3e 24 23 81 bd 99 53 d9 bc
       0.94951695 0.30863363 -0.06305531 -0.02652912
000320 40 43 49 bd 5c 6f 80 be 1d 2a 77 bd 02 27 ad bc
       -0.0491364 -0.2508496 -0.060342897 -0.021136764
000330 36 d9 61 40 f0 9d ce 3e d1 5c 20 3c a1 de 73 3b
       3.5288825 0.40354872 0.009787754 0.0037211555
000340 04 1c a9 3e c4 ed 53 3f ca 15 87 bd 00 4d d9 bc
       0.33029187 0.82784677 -0.06595953 -0.026525974
000350 d1 83 2a 41 c7 38 1a bf 52 73 fe 3b 3d de 1a 3b
       10.657182 -0.60242885 0.007765212 0.0023631
000360 e8 bf 71 3f 1b 90 63 3e 86 5c 96 be f0 0d 92 be
       0.9443345 0.2222294 -0.29367465 -0.28526258
000370 19 a4 fd bd 93 9d 16 c0 b8 60 46 be a1 a9 a3 be
       -0.12384815 -2.3533676 -0.19372833 -0.31965354
000380 8e df 3b 3f b5 1b 67 be 16 0c a6 be 79 5d 9d be
       0.7338799 -0.22569163 -0.32431096 -0.30735376
000390 a0 f5 93 3d b9 29 88 c0 62 dd 8f be 82 ad b3 be
       0.072245836 -4.255093 -0.2809859 -0.35093313
0003a0 c8 8d 6d 3f da 3c 11 3d 0d 8c 48 bd 95 c5 5c 3d
       0.92794466 0.035458423 -0.048961688 0.053899366
0003b0 06 f7 dc 3d 39 a2 b1 c0 c4 4b db bd aa db 51 3d
       0.107893035 -5.5510526 -0.107078105 0.05123488
0003c0 b4 58 9d be 7a 8d 8b be ae 5e 81 be 0d e3 9e 3f
       -0.30731738 -0.27256376 -0.25267547 1.241304
0003d0 fc c7 90 3e 5d 25 92 be 02 01 c3 bd 53 2d 98 3f
       0.28277576 -0.2854413 -0.095216766 1.1888832
0003e0 98 54 f5 be 54 26 1f be 80 32 ec 3c f8 1e 2f bc
       -0.47916102 -0.15541965 0.028832674 -0.010688536
0003f0 28 4b 5f 3d 16 6a a5 be 92 9c 11 3d a6 59 82 3d
       0.054515034 -0.323075 0.035549708 0.06364755

fcs1.bias f4 [128]
000000 bd e2 b0 c0 ad 76 3a c0 9e 9b a8 3f a0 b2 b4 be
       -5.527678 -2.9134934 1.3172491 -0.3529253
000010 f9 89 91 c0 ea dd 80 bf c3 f0 cb bf f6 95 62 3c
       -4.5480924 -1.0067723 -1.593285 0.013829699
000020 13 76 4f c0 55 16 1c c0 1c fb 1c 3f 3c aa 97 bf
       -3.2415817 -2.438863 0.6132066 -1.1848826
000030 b6 aa e3 bf 7a a4 1f 40 2f 40 f9 be bd c5 45 c0
       -1.7786472 2.4944139 -0.4868178 -3.090194
000040 95 d6 28 bf 87 c8 25 bf 1c 7a ec c0 67 bd be bf
       -0.65952426 -0.64759105 -7.389906 -1.4901551
000050 f6 6b c9 bf d8 e6 53 bd 41 94 95 bf 94 d0 cc be
       -1.5736072 -0.05173382 -1.1685869 -0.40002882
000060 2a e6 3f bf 3d cf 2d bf b6 02 ec 3e 98 54 e7 3e
       -0.7496058 -0.67894346 0.46095818 0.45181727
000070 49 0a 31 3f dd 74 ed 3c 38 da 46 bf 18 52 79 bf
       0.6915632 0.028986389 -0.77676725 -0.9739089
000080 63 df e4 bf 50 d5 3b c0 35 13 f7 bf 48 57 d5 be
       -1.7880672 -2.9348946 -1.9302737 -0.41668153
000090 f9 18 38 c0 01 48 11 3f 79 03 bf 3f d6 97 bc bd
       -2.8765242 0.56750494 1.4922935 -0.09208648
0000a0 b7 47 05 c0 cb b7 10 c0 9a cb 7d be 61 e8 2d c0
       -2.0825021 -2.2612178 -0.24784699 -2.7173083
0000b0 30 bf 50 3f ee c3 81 c0 81 b7 1c 40 2a 5b 45 be
       0.8154173 -4.055167 2.4487002 -0.19273058
0000c0 9a 5b 75 c0 76 03 8c c0 ff 3e 54 be 43 dc e9 3e
       -3.833716 -4.3754225 -0.20727156 0.4567586
0000d0 c4 62 a1 3f 80 71 1b 40 1e 6c 15 40 e5 f9 7b c0
       1.2608266 2.4288025 2.334724 -3.9371274
0000e0 5a 5f 1f 3f 3d 70 1d 3e 4b 67 ca 3e fb c9 03 3c
       0.6225487 0.15374847 0.3953193 0.008043761
0000f0 b5 6d 1f c0 d2 32 04 c0 85 c4 71 bf 83 24 04 bf
       -2.491071 -2.0656018 -0.9444049 -0.5161821
000100 56 9a 01 c0 01 87 45 c0 2d eb 22 be 80 b9 02 3f
       -2.025045 -3.086365 -0.15910025 0.510643
000110 e0 54 86 c0 7b b2 2e bf ef 09 44 3f 60 de f4 bd
       -4.1978607 -0.6824109 0.7657766 -0.11956477
000120 a3 53 d2 be 46 4f 01 c1 06 bc 96 3f ec a5 ea bf
       -0.41079435 -8.081854 1.177613 -1.8331885
000130 f2 f7 d5 3f 1b 40 f2 c0 61 16 bf 40 40 00 64 be
       1.6716292 -7.5703254 5.971482 -0.2226572
000140 5d 8f 43 c0 96 5b 38 3f cd 36 d3 c0 61 df e1 3e
       -3.0556252 0.7201475 -6.6004395 0.44115737
000150 8c 6c 08 40 b8 72 48 3f b3 49 0c bf 38 77 3d bf
       2.1316252 0.78300047 -0.54799956 -0.7401004
000160 2e 60 26 bf b1 3b 22 c0 a4 6a 81 bf 9a 00 ed 3d
       -0.6499051 -2.5348933 -1.0110669 0.1157238
000170 cb 3b 8b c0 7f eb 7f c0 3a 30 0d 40 3b 9b 90 bf
       -4.351049 -3.9987485 2.2060685 -1.1297373
000180 2a f1 ba bf e2 24 a6 bd 63 2d 79 c0 bd d2 8f 3e
       -1.4604847 -0.081125036 -3.8933952 0.28090468
000190 11 0e 2f bf ec 5a 6d 3f 61 3a 15 c0 c6 54 e0 bf
       -0.6838084 0.9271686 -2.3316882 -1.7525871
0001a0 73 fd 4e 3f 25 2a 09 3e d7 06 11 c0 26 7d 69 c0
       0.8085548 0.13394983 -2.2660425 -3.6482635
0001b0 11 ce 21 be 65 94 2a c0 0b 91 1e c0 12 f0 83 bf
       -0.15801264 -2.6653073 -2.4776027 -1.0307639
0001c0 7f af 98 3f 93 d4 0e c0 89 17 48 c0 ed c9 58 c1
       1.1928557 -2.2317245 -3.1264365 -13.549298
0001d0 2a dd 11 c0 46 44 1f bf e9 84 78 bf e3 f5 c3 bf
       -2.2791238 -0.6221355 -0.97077805 -1.5309414
0001e0 7b 04 f5 c0 ba 6c 79 bf a9 fa 67 3f b7 3e f3 3e
       -7.656797 -0.9743153 0.9061685 0.47508785
0001f0 cd 2f 4c bf 3d 0b 91 3e 86 77 a9 bf db 06 80 3f
       -0.7976044 0.28328887 -1.3239601 1.0002092

bn1.weight f4 [128]
000000 4c 48 6a 3e bd bb 28 3e 52 9c b6 3e 56 2c ef 3e
       0.22879142 0.16477866 0.35666138 0.46713513
000010 7f 33 50 3e fc be 44 3e d9 e3 37 bc 1b 4c 7b 39
       0.20332144 0.1921348 -0.011223757 0.00023965577
000020 c2 80 84 3f 7c 94 3a be 31 68 85 bb 2c a3 07 bf
       1.0351794 -0.18220705 -0.0040712585 -0.52983356
000030 11 0f c8 3e 26 78 0b 3f 30 b8 40 3e 67 fd b2 3e
       0.39073995 0.54480207 0.18820262 0.34958956
000040 2a 91 55 3b 24 2a ac bd 54 31 37 3e bd ce 84 3f
       0.0032587745 -0.08406475 0.17889911 1.0375592
000050 9e 10 08 3e 00 ba cd 3e 99 1a 95 3e c9 7c 81 3e
       0.13287589 0.4018097 0.29121855 0.25290516
000060 42 98 13 3e cc f4 0e 3e e9 16 09 3e fa ee 72 3b
       0.1441355 0.1396057 0.13387646 0.003706871
000070 67 19 a0 3e 38 9a 39 3e 50 2e c7 3f d2 6d 3d bd
       0.3126938 0.18125236 1.5561008 -0.04624731
000080 b8 a1 d7 be 9f 1c 20 3e 28 d8 de 3d a0 50 4e 3f
       -0.4211557 0.15635918 0.10881072 0.80591774
000090 32 fa a7 be 55 fe 90 bd b7 0c 0a 40 20 46 9e bd
       -0.3280807 -0.0707976 2.157026 -0.07728219
0000a0 0d 0a e5 3d af ea 16 3d 5a 71 50 3e 6e e6 6a 3e
       0.11183558 0.036844905 0.2035574 0.22939464
0000b0 11 8d 23 3e fb 9d 93 3e 1d 6f bd 3e 8f a4 ef 3e
       0.15971781 0.28831467 0.36998835 0.46805236
0000c0 fa cf 22 3e d4 f5 0d 3e ba ca 07 3e 7a 45 6c 3e
       0.1589965 0.13863307 0.13260928 0.23073378
0000d0 ee e1 8f 3e 51 4e 88 3f 8f 93 5d 3e a3 00 c6 3e
       0.28102058 1.06489 0.2163832 0.3867236
0000e0 ca bd 04 3e ca ff f6 3e 22 c7 33 3e 5a 81 a0 be
       0.12963024 0.48242027 0.17556432 -0.31348687
0000f0 e3 eb 2d 3e 57 56 90 3e 32 66 a6 3e c9 b4 d1 3e
       0.16984515 0.28190872 0.32499844 0.4095824
000100 72 f0 9d 3c 11 eb 82 3f 09 b5 1b bd 4d e5 f6 3d
       0.019279692 1.0227987 -0.038014445 0.120554544
000110 54 36 85 3e 34 e5 0c 3e 7f d6 54 3f c4 7e e3 3d
       0.26018012 0.13759309 0.83139795 0.11108163
000120 bc 4e 3f 3c b6 45 8d 3e 8e 27 c8 3e d9 71 54 3e
       0.011676487 0.27592248 0.39092678 0.20746554
000130 64 20 e5 3d 12 4c b2 3e ee ee c1 3e ac 9d 96 3f
       0.11187819 0.34823662 0.378776 1.1766868
000140 7e 42 b4 3d e8 51 91 3b 00 52 ab 3e 0f 37 5f be
       0.08801745 0.004434813 0.33461 -0.21798347
000150 b4 2d 29 3e c8 a5 10 3f d3 84 76 3e af 65 89 3e
       0.1652134 0.5650296 0.24074106 0.2683539
000160 1e 4f 52 be 05 8c 59 3e 04 2c 3a 3e 7c 4b 91 3e
       -0.20537993 0.2124482 0.18180853 0.28377903
000170 ec cb a7 3e f5 6e 89 3e 09 1c 36 3e 2a 09 39 be
       0.32772768 0.26842466 0.17784132 -0.18069902
000180 ea 89 8e be fc 3b 7c 3e 3a a8 b4 3d 6d 7f 15 ba
       -0.27839595 0.24632257 0.08821149 -0.0005702887
000190 d7 0a 87 be c0 14 28 3f c4 30 0e 3e 67 f2 94 ba
       -0.26375458 0.6565666 0.1388579 -0.0011363745
0001a0 27 c1 48 3e a8 87 38 3e 4a 11 a5 be e9 71 a1 3f
       0.19604932 0.18020499 -0.32239753 1.2612888
0001b0 69 cf 38 be bc 52 41 be 35 54 a9 3e b2 c3 8f bd
       -0.1804787 -0.18879217 0.33072057 -0.07019748
0001c0 ec ad 5a 3e 34 f3 84 3f 6a a6 11 3e 78 de a1 3e
       0.21355408 1.038672 0.14223638 0.31615043
0001d0 bb 36 78 3f 76 e2 5d 3e 17 0a b7 3e 18 0a b9 3d
       0.9695851 0.21668419 0.35749885 0.09035128
0001e0 8c f1 99 3e ad 61 88 3d 50 e1 e2 3e a4 37 6c be
       0.30067098 0.06659255 0.44312525 -0.230681
0001f0 78 d6 ea 3d 13 a0 aa ba c7 16 82 3f 91 85 a3 3a
       0.11466688 -0.0013017677 1.0163201 0.0012475719

bn1.bias f4 [128]
000000 c9 84 a3 3c db 24 82 3c 51 bc 0a 3e 4f fd 0e b9
       0.019960778 0.015886715 0.135484 -0.0001363654
000010 ea 69 f7 3c 81 0d 09 bb 91 f6 ed b8 ce b4 a9 b9
       0.030201871 -0.002091259 -0.00011346967 -0.00032368902
000020 6d fa f6 3e 4f 38 68 ba ab b5 5e b8 e3 c0 de 39
       0.48237935 -0.0008858488 -5.3098116e-05 0.0004248685
000030 2f b1 8b 3e ed 21 70 3e fb 55 d8 3c 30 ff 43 3e
       0.27283618 0.23450442 0.026408186 0.19140315
000040 a8 28 5e 3a 97 2a 84 ba 3e 80 8f 3d d1 d4 e6 3d
       0.0008474686 -0.0010083494 0.07006882 0.1127106
000050 69 a5 1d 3d 19 c2 7f 3b 73 27 50 3d 2e ec b0 39
       0.038487826 0.0039025603 0.05081887 0.00033745304
000060 d5 a8 19 3d d1 4b 1a 3d bc 60 15 3d 3d ad 99 39
       0.037514526 0.03766996 0.036469206 0.00029311507
000070 1f 33 5e 3e c6 b3 c1 3d 1e f2 31 3f 81 a1 80 bb
       0.21699189 0.09458117 0.69510067 -0.0039255028
000080 71 64 1b 3b f6 46 e4 b9 3e 01 57 3d 57 5d cb 38
       0.002371099 -0.0004354042 0.05249142 9.69718e-05
000090 16 3a a9 b9 08 59 f0 bb 64 0f 38 3f 59 21 0e bc
       -0.0003227747 -0.007334832 0.71898484 -0.008674943
0000a0 ea a2 db 39 5a d9 ae 3b 78 31 06 b9 3c 90 fd 3c
       0.00041892315 0.005335969 -0.00012797664 0.030952565
0000b0 3a 17 a9 3d fe 07 43 3e 82 62 09 3e cf c5 fd 3d
       0.08256383 0.19046018 0.13416484 0.123912446
0000c0 2b 81 96 3a 0c e5 ad bc 10 0a b9 3c 23 5c 52 3d
       0.0011482587 -0.021227382 0.022587806 0.0513574
0000d0 d5 de 32 3e a9 d9 31 3f 07 84 71 3d 1e 28 4f 3e
       0.17467816 0.6947275 0.0589638 0.20230147
0000e0 33 d5 9d 3c 00 03 ec b8 2a 82 fc 3c 0a 30 3b 3a
       0.0192667 -0.00011253916 0.030823786 0.0007140642
0000f0 2e 9c 56 bb 7b 99 f1 3d 1d 22 12 bd 35 3c 2b 3c
       -0.00327469 0.11796852 -0.035677064 0.010451366
000100 4f 4b 34 ba b1 04 27 3f 32 fe eb ba bf a1 6f 3d
       -0.0006877677 0.65241534 -0.0018004833 0.058503862
000110 87 a8 06 3e 88 03 ce b9 91 d4 d4 bc 62 0d 89 3c
       0.13150226 -0.00039294013 -0.025980266 0.016730014
000120 53 85 1c 39 12 3c 05 3e a6 62 4d 3e ab fd c0 3a
       0.00014926986 0.13011196 0.20057163 0.0014724036
000130 a8 c0 29 3d b8 1e 03 3e 55 f7 92 be 2e 3e 09 3f
       0.041443497 0.12804687 -0.28704324 0.53610504
000140 21 ce 14 3a c7 92 9a 37 f4 56 0e 3e 83 df cb bd
       0.00056764676 1.842658e-05 0.13900357 -0.09954741
000150 88 4c 8d 3c bc d7 e8 3e af 10 5a 3d e4 59 9a 3c
       0.017248407 0.45477092 0.053238567 0.018841691
000160 fb b1 cc bd 04 3a 75 3d 84 18 0f 3d ba 2f e0 3d
       -0.099948846 0.05986978 0.03493549 0.10946603
000170 3c 55 1c 3e 04 19 54 3d a8 d0 ad 3d a6 ff df ba
       0.1526689 0.05178167 0.08487064 -0.0017089739
000180 c2 84 1a 3a 21 c0 28 3e c4 93 40 3c b0 df 86 b9
       0.0005894416 0.16479541 0.01175398 -0.00025725132
000190 48 5c 91 b9 05 c0 f7 3e de 92 84 39 46 cf 33 b9
       -0.0002772531 0.48388687 0.00025286427 -0.00017147986
0001a0 be d3 22 be 6e 84 2d 3d 41 21 09 3b 10 ef 24 3f
       -0.15901086 0.042362623 0.0020924362 0.6442728
0001b0 ed 7e 55 bb 97 3a 78 bd 98 43 f4 3d b8 e5 92 bc
       -0.0032576874 -0.06060275 0.11926955 -0.017931804
0001c0 0f 9d 9a 3c 09 3b 04 3f 27 4a b7 3d 35 79 25 3e
       0.01887372 0.5165258 0.0894969 0.16159518
0001d0 0a 27 33 3f 0c 84 88 39 e9 44 e6 b9 55 e4 6a 3d
       0.69981444 0.00026038324 -0.0004392036 0.05734666
0001e0 eb 04 b7 bd 6b d2 7c 3b bd 55 2f 3e 5e cc b4 39
       -0.08936485 0.0038577567 0.1712255 0.0003448454
0001f0 b6 12 98 3a ff bf c3 39 e4 8a e3 3e ba bf 52 39
       0.0011602256 0.00037336347 0.44441903 0.00020098584

bn1.running_mean f4 [128]
000000 86 07 ef 3d 19 d0 43 40 6d 57 2a 40 04 00 00 00
       0.11671357 3.0595763 2.661586 6e-45
000010 b0 01 4f 3f 41 00 00 00 7a 35 f1 0e d7 ea 30 42
       0.8086195 9.1e-44 5.9462583e-30 44.229336
000020 4b 24 01 42 e7 56 4a 30 4f 58 6a 41 04 00 00 00
       32.285442 7.361067e-10 14.64656 6e-45
000030 e6 d3 5d 41 9a ff 2a 40 bb db 85 41 ba 9d 34 41
       13.864233 2.6718507 16.73229 11.288507
000040 e0 bc 8e 41 c0 b1 09 3a 96 b1 58 40 fd 0c 33 42
       17.842224 0.0005252622 3.385839 44.762684
000050 fd 3a b3 41 cc a0 21 3b fd 5b 94 3f 04 00 00 00
       22.403803 0.0024662493 1.1590573 6e-45
000060 1e 8f f3 3f ae aa 29 40 77 dc 1a 40 1a 7f 6a 41
       1.9028051 2.6510425 2.419706 14.656031
000070 a2 f1 31 40 f2 65 e9 40 d0 ce 34 42 11 40 6f 3e
       2.780373 7.2936945 45.201965 0.23364283
000080 ed 70 02 28 a7 72 aa 37 1f b7 0c 41 04 00 00 00
       7.2409365e-15 2.0318968e-05 8.794707 6e-45
000090 04 00 00 00 06 91 95 3f 7e b2 56 42 8e e3 b9 3e
       6e-45 1.1684883 53.67431 0.36306423
0000a0 38 48 3b 20 b4 3b 79 3e 04 00 00 00 a8 a0 b2 3e
       1.5863411e-19 0.24339181 6e-45 0.34888196
0000b0 13 72 32 41 25 2b 51 40 0c 21 dc 41 56 e0 cc 3f
       11.15285 3.2682583 27.516136 1.6005962
0000c0 db a3 78 41 25 45 12 40 7c 6c 89 3f ba 03 7f 40
       15.540004 2.2854702 1.0736232 3.9846025
0000d0 b8 0d a0 41 ef 2c 47 42 ad 8d f4 3f ae 23 0f 40
       20.006699 49.79388 1.9105736 2.2365527
0000e0 de 90 37 3f 04 00 00 00 35 df b7 3e 7d 7a c2 22
       0.71705425 6e-45 0.3591248 5.2713495e-18
0000f0 2e 9e 1c 41 95 8b bd 3f 6f 69 92 40 6a 48 b5 3b
       9.788618 1.4808222 4.5753703 0.005532314
000100 5a fd 81 1e 9f 0a 50 42 8a f8 5d 40 93 9f 06 41
       1.376319e-20 52.010372 3.4682946 8.413959
000110 5a 6b 91 40 04 00 00 00 6d a0 46 42 25 1c 0d 41
       4.5443544 6e-45 49.656666 8.819371
000120 28 0b 36 40 99 e8 ca 3f 08 dd c9 40 28 a4 81 31
       2.844431 1.5852233 6.3082314 3.7730565e-09
000130 88 41 a4 40 f3 f0 1f 40 2f 9c b7 41 6b 92 df 41
       5.1329994 2.4990814 22.951262 27.946493
000140 0e fb 8f 39 1e 3a b7 40 cc a4 bd 3f b5 2e ce 40
       0.00027462136 5.7258444 1.4815917 6.4432015
000150 ba a1 5e 40 f7 95 7f 40 4e 07 a0 3f ba 35 93 3d
       3.478621 3.9935281 1.2502229 0.07187982
000160 c9 46 4e 40 b6 2f be 3f 11 ee 96 3e 15 f1 84 3f
       3.2230704 1.485831 0.29478505 1.0386072
000170 f5 7c 7a 41 34 3b 1c 3f cd 77 b2 40 a9 4b 92 2f
       15.655507 0.61027837 5.577124 2.6611005e-10
000180 70 a2 82 0e 97 bf 1c 41 c9 ea e7 3f 39 c8 91 41
       3.2203896e-30 9.796775 1.8118526 18.222765
000190 04 00 00 00 8f 13 ad 41 1a 0a 38 38 da 72 50 40
       6e-45 21.63455 4.3878426e-05 3.25701
0001a0 00 b6 27 42 2e 51 cb 3f 09 00 00 00 78 a5 3b 42
       41.927734 1.5884149 1.3e-44 46.91159
0001b0 c7 00 0e 34 96 d6 09 40 e7 9f c4 3f 44 89 c1 3e
       1.3225063e-07 2.1537223 1.5361298 0.37800038
0001c0 ac e4 cd 3d 3e 1b 5a 42 f4 3a 66 41 f7 f1 a6 3f
       0.10053381 54.526604 14.389393 1.3042592
0001d0 80 ce 60 41 98 a7 ba 2d 3f 5a 52 0e 88 d6 98 41
       14.050415 2.1220178e-11 2.592795e-30 19.104752
0001e0 97 d2 d4 40 2d da 4d 3d 9b 15 ff 3f 18 60 47 39
       6.650707 0.050256897 1.9928468 0.00019013917
0001f0 66 79 39 3b b5 55 a2 41 b8 c6 29 42 3f 08 1e 42
       0.002830112 20.29185 42.44406 39.508053

bn1.running_var f4 [128]
000000 80 6e 25 3f 25 a3 19 42 3b 5f 32 42 04 00 00 00
       0.64621735 38.40932 44.593 6e-45
000010 35 76 7f 41 a7 03 00 00 0b 1a c2 0f fb b4 a2 43
       15.966359 1.31e-42 1.9139908e-29 325.4139
000020 c0 d4 ed 44 a2 a6 8b 31 ff 14 9a 42 04 00 00 00
       1902.6484 4.0643764e-09 77.04101 6e-45
000030 fe 48 c3 43 c3 31 cb 41 3a 31 51 43 5f 42 32 43
       390.57025 25.399298 209.19229 178.25926
000040 c2 bf 05 44 31 7b a6 3b 92 94 7b 42 91 62 4a 45
       534.9962 0.0050806035 62.89509 3238.1604
000050 9a 7f 89 44 ff 95 44 3c 72 71 c3 41 04 00 00 00
       1099.9875 0.0119986525 24.430393 6e-45
000060 b7 3d d2 41 6b e9 b6 42 97 e8 68 42 eb 02 62 42
       26.280134 91.455894 58.22714 56.50285
000070 2e f6 4c 41 7c 1a b2 42 c9 7b 64 45 c6 b6 3b 40
       12.810102 89.05173 3655.7366 2.9330306
000080 4c ed 1a 29 2f 79 03 39 6e 5b 6e 43 04 00 00 00
       3.440069e-14 0.00012538278 238.35715 6e-45
000090 04 00 00 00 f3 17 4e 41 05 d9 97 45 51 cb df 40
       6e-45 12.880847 4859.1274 6.993569
0000a0 8a 97 ac 21 2f 9d ac 40 04 00 00 00 e2 8b 25 40
       1.1695285e-18 5.3941875 6e-45 2.5866628
0000b0 f4 cb 01 42 1c ef 89 41 8e b6 05 44 44 86 d1 41
       32.449173 17.241753 534.8524 26.19056
0000c0 50 a0 80 43 10 d7 bc 41 29 c2 0f 42 28 9a 67 42
       257.25244 23.605011 35.93961 57.900543
0000d0 cb ba d3 43 93 74 77 45 4d 4e f6 41 45 c6 a9 41
       423.45932 3959.286 30.788233 21.221811
0000e0 56 c6 ff 40 04 00 00 00 75 6c 82 40 0d 6c 26 24
       7.992961 6e-45 4.0757394 3.6087035e-17
0000f0 c5 a6 af 42 d7 65 f4 40 b7 6c b7 41 d2 f0 f4 3c
       87.82572 7.6374316 22.928083 0.029899988
000100 20 4b 26 1e 5d 3b 90 45 13 a3 16 43 e9 05 64 43
       8.803502e-21 4615.4204 150.63701 228.02309
000110 2e 2d 98 42 04 00 00 00 f3 96 7b 45 d1 7c 34 43
       76.08824 6e-45 4025.4343 180.48756
000120 ae 3e 4b 42 73 66 16 41 c1 c6 f5 42 1b c3 db 33
       50.81121 9.400012 122.88819 1.0233472e-07
000130 33 16 04 43 8f 8e 4e 42 a2 1a 53 43 21 f7 99 44
       132.08672 51.639217 211.10403 1231.7228
000140 01 df 1c 3b 76 ed e8 43 00 e2 53 41 fe 85 3d 43
       0.0023936632 465.85516 13.242676 189.5234
000150 89 c5 59 42 69 e6 92 41 eb a0 11 42 dd 83 7d 3f
       54.442905 18.362505 36.407146 0.9902933
000160 7f 99 33 42 07 d2 6b 41 cf 83 3a 40 f4 6d aa 40
       44.8999 14.738776 2.914295 5.325922
000170 7d cb 43 44 24 8e c1 40 72 c7 d5 42 f3 f9 44 31
       783.1795 6.048601 106.88954 2.8663834e-09
000180 c9 ba e3 0e 2e 70 42 43 89 2e d1 41 9c c7 94 43
       5.6139688e-30 194.4382 26.147722 297.55945
000190 04 00 00 00 31 00 15 44 b6 48 f8 39 fd 2e 96 42
       6e-45 596.003 0.0004735642 75.091774
0001a0 a4 cb 39 45 e1 c6 1a 42 13 00 00 00 d7 cf 6b 45
       2972.7275 38.694218 2.7e-44 3772.99
0001b0 6f da 23 35 bc 44 53 42 6c ce 5a 41 e3 a9 73 40
       6.1040095e-07 52.817123 13.675396 3.807244
0001c0 24 e2 8f 3f 50 5f a2 45 e9 72 cb 43 46 9c b2 40
       1.1240888 5195.914 406.89774 5.5815763
0001d0 c0 c4 a9 43 a2 5f f4 2d 1b ae cf 0d 08 56 1e 44
       339.5371 2.7782058e-11 1.2799274e-30 633.34424
0001e0 77 48 fb 41 3a 7c 31 3f da 1e e3 41 98 fe f3 39
       31.410383 0.6933018 28.390064 0.0004653826
0001f0 49 ba 7c 3c 55 22 58 44 55 88 4b 45 17 73 ed 44
       0.015425273 864.53644 3256.5208 1899.5966

fc2.weight f4 [128, 130]
000000 b0 e0 fe 3c c7 cd d2 3c 36 cb 9e bd 0f 68 f6 ba
       0.031112999 0.025732888 -0.07753603 -0.0018799322
000010 bb 05 dc bd d4 a0 59 bd b2 35 a7 3c a9 cb 5c 3d
       -0.107432805 -0.053131893 0.020411346 0.053905163
000020 da 10 4b bc 3d 4a a0 bd 93 6e 1f bb 17 d6 bf 3b
       -0.012394154 -0.0782666 -0.0024327382 0.005854379
000030 55 d4 4d be f5 6e f2 bc 1d 4e dd 3c 5e 40 3e bd
       -0.2010053 -0.029593924 0.027014786 -0.046448104
000040 12 58 06 be ca 50 ff bd 3b 05 12 be 0c 86 69 3c
       -0.13119534 -0.12466581 -0.14259808 0.014253151
000050 3a 07 f8 bd d2 b2 0a be 73 f4 bc bc 15 bc 27 3c
       -0.12110753 -0.13544777 -0.023065781 0.010237713
000060 63 a0 a5 3b ae 77 0e bb 69 e8 84 bd d2 2b fa bb
       0.00505452 -0.0021738815 -0.06489641 -0.0076346183
000070 fa 54 c7 bd 01 b4 f9 bd bd 42 8a 3d 20 8e 21 bd
       -0.09733005 -0.12192536 0.067510106 -0.03944218
000080 f8 65 01 be 15 28 ac bd 72 bd a2 3d a6 fa 6e 3d
       -0.12636554 -0.084060825 0.0794629 0.058344506
000090 27 1a b2 3d 66 33 95 3d 0e 3e 17 3d cd 71 8a 3b
       0.086963944 0.07285194 0.036924414 0.004224992
0000a0 4f 3f 0a bd e4 84 f7 bd 3b 3c a4 3c 32 71 25 bd
       -0.033751782 -0.12085894 0.020048251 -0.040391155
0000b0 97 36 23 bd 35 87 85 bc e6 ac fe 3d 83 e1 1e 3e
       -0.039846983 -0.016299823 0.124353215 0.15515713
0000c0 8e 9f 5b bc 3c 7b cf bd c8 7f 28 bd bf 2e e3 bd
       -0.01340474 -0.10130927 -0.041137487 -0.110929005
0000d0 e0 a6 fd bb 7c 58 fa 3d 84 53 eb bc 16 86 8b bd
       -0.0077408403 0.12223908 -0.028726347 -0.06812684
0000e0 71 f3 31 3d a7 7c 73 bb fc 43 fa bd 16 77 8b bc
       0.043445054 -0.0037153156 -0.12219998 -0.017024558
0000f0 76 c0 32 bd 82 99 cb bd 1f ad d6 3c 78 88 12 be
       -0.043640576 -0.09941389 0.026205597 -0.14309871
000100 71 af 0d 3d 8c bb 77 bd 44 a9 99 bd 0f 29 73 bd
       0.034591142 -0.060481593 -0.07502988 -0.05936533
000110 2b 1b b1 bb 1c da ab bc 83 8d f4 bc 84 4c 22 be
       -0.00540485 -0.020978026 -0.029852634 -0.15849501
000120 f0 92 ea bc bd 2f e1 bd 73 be c9 3c 85 04 8b 3c
       -0.028634518 -0.109954335 0.024626946 0.016969929
000130 da 7a 97 bd d2 e3 af bd a3 90 58 bd 97 84 d9 bd
       -0.07396479 -0.08588375 -0.05287231 -0.10620993
000140 b3 42 f7 bd 31 1b 1d be 59 71 6a be 13 08 7b bd
       -0.12073269 -0.15342404 -0.22894801 -0.061286997
000150 b4 74 18 be bd dd 24 bc 7c 34 1a be 4b a5 db bd
       -0.14888269 -0.010062632 -0.15059084 -0.107248865
000160 73 fd b6 3c 47 0f c7 bc f2 21 8b bd f5 5a 06 be
       0.02233765 -0.024299277 -0.06793584 -0.13120635
000170 5f 59 d7 bd 25 8f 64 3d 2b da 5b 3d e9 bc 5b 3d
       -0.10515093 0.055800576 0.053674858 0.053646956
000180 7d 88 93 3d 71 1a ff bd 4d da af bd a2 dc 68 bd
       0.072037674 -0.12456215 -0.085865594 -0.056851037
000190 f2 94 93 bd 65 80 33 be 13 71 d4 bd 54 99 41 3d
       -0.072061434 -0.17529447 -0.1037313 0.047265366
0001a0 ab 81 a0 3d 2a 70 42 bd d2 ab 6a 3d 81 fd ab bb
       0.07837232 -0.04747025 0.057292767 -0.005248726
0001b0 75 25 0f 3c b2 4c 86 3d 96 b1 0b 3d 67 fe 90 3c
       0.008736958 0.06557597 0.034104906 0.017699433
0001c0 18 d7 4a be ae 3e 9f bc ab c5 7a bd d0 22 60 bd
       -0.19808614 -0.019439068 -0.061223667 -0.0547207
0001d0 cf 1f a6 bb 33 2e fe bb d7 41 38 3a 21 98 03 3d
       -0.00506971 -0.007756972 0.0007028854 0.032127503
0001e0 0f d4 29 3d a6 7b 69 3d ca 7c c1 bd 92 21 a0 bd
       0.041462 0.057002686 -0.0944763 -0.07818903
0001f0 64 73 b0 bd 61 a0 8c 3c 42 64 9f bc 6a be df 3c
       -0.08615759 0.017166318 -0.019456986 0.027312476
000200 34 89 dc 3b 16 f1 ea bd 98 4f 8a bc 8e 4b f9 bd
       0.006730223 -0.11471765 -0.016883656 -0.12172614
000210 7f 3f 9e 3d 5c 01 14 be c2 80 4a be d5 d9 e1 bb
       0.07726955 -0.14453644 -0.1977568 -0.0068924227
000220 75 86 ca bb c7 3d 41 3c fb bc 9f bc bf a9 9a bd
       -0.0061805793 0.011794514 -0.019499293 -0.07551908
000230 7a b2 8a 3c e8 6f 1c 3c fc c5 5e be 40 22 ba 3b
       0.016930807 0.009548165 -0.21755213 0.0056803524
000240 91 1b 00 bd 31 d8 bd bd a8 76 fd bd 39 f9 e8 bd
       -0.03127629 -0.09269751 -0.123761475 -0.113756604
000250 68 7e 42 be b0 38 df bc 96 e0 9a bd 09 9b 03 be
       -0.18993533 -0.02724871 -0.075623676 -0.1285211
000260 68 ec 84 bd 88 1a 16 3c 2d 0c b5 bc 89 6e b2 3d
       -0.064904034 0.009161599 -0.022100532 0.08712489
000270 61 1e 94 bd 2d cb 8d 3d cc 2b 69 be 75 d0 d7 bc
       -0.07232357 0.06923518 -0.22770613 -0.026344517
000280 84 f9 95 3d 40 f4 14 bd ec 3e 44 bd 07 97 14 bc
       0.07322982 -0.036365747 -0.04791157 -0.009069211
000290 38 e6 47 3d ee 26 1f bd 68 7b d7 3d 37 9e dc 3d
       0.048803538 -0.038855486 0.10521585 0.107723646
0002a0 d6 d1 31 3d 9a 82 ec 3c eb ab eb bc aa 34 2c bd
       0.043413006 0.02887087 -0.0287685 -0.042042412
0002b0 63 cc 8a bd 97 98 8c bd 39 b2 22 bd 05 68 9c bc
       -0.06777265 -0.06865042 -0.039720748 -0.01909257
0002c0 ea 86 03 3e 56 9e 9e 3d 38 d0 f3 bc 6c 05 e8 3c
       0.12844434 0.07745044 -0.029762372 0.028322898
0002d0 37 ce 0f 3c 2c d6 1c bd ad 4e 60 bd a6 4c da 3d
       0.008777193 -0.038290188 -0.05476253 0.10659151
0002e0 93 11 ea 3d b9 ae 53 bc 92 89 ce bd 9c dd 7f bd
       0.11429133 -0.012920075 -0.10084833 -0.062467203
0002f0 ab 77 dc bd 45 b9 68 bc 92 44 55 bd 1d f7 b0 bd
       -0.10765012 -0.014204328 -0.052067347 -0.08640883
000300 58 87 7e bd 93 8c 05 bd d7 6c a9 3d 04 2c 27 bd
       -0.062140793 -0.032604765 0.08272713 -0.04081346
000310 28 7f 53 3d 2a 2f 08 be bb 80 a8 bd 0c 12 49 bd
       0.051634938 -0.13299242 -0.082276784 -0.049089476
000320 47 84 94 bc cf a3 0c be 8a 05 01 be c0 80 2d bc
       -0.018129481 -0.13734363 -0.12599769 -0.010589778
000330 d4 4a a5 bc 93 dc d5 ba 08 1a 3f bd ea 32 8a bd
       -0.020177282 -0.0016316347 -0.046655685 -0.06747992
000340 7a 7c c3 3c 97 98 ce 3a 1c 6b be bd 12 ff a9 bd
       0.023863066 0.0015762028 -0.09297773 -0.08300604
000350 fd b6 75 be 6b ad 40 3e 75 87 a5 bd 1a bb 56 be
       -0.23995586 0.18816154 -0.08082477 -0.20969811
000360 96 3f 4e bd cd 80 ff bd 83 dc af bd c6 fd 0f be
       -0.05035361 -0.12475739 -0.08586981 -0.1406165
000370 0b 03 a3 bd 1b 00 8b bd bc 6c 6e bd 7b 12 be 3d
       -0.07959565 -0.067871295 -0.058209166 0.092808686
000380 80 e1 f8 bd 2d 87 61 3d fe 95 26 3c c0 8f 96 bd
       -0.12152386 0.055060554 0.010167597 -0.07351637
000390 d0 9f 05 be 97 26 dd 3c 00 d0 60 bd 29 43 fc bc
       -0.13049245 0.02699594 -0.054885864 -0.030793743
0003a0 17 e5 f5 bd 17 bf 50 bb 15 1a 89 3d 27 89 be 3d
       -0.12006586 -0.003185218 0.06694428 0.093035035
0003b0 ee 1a 85 3c e8 dc 40 bd a4 d8 d3 bb 6b d8 a3 3d
       0.016248193 -0.047085673 -0.0064650346 0.08000263
0003c0 71 09 f6 3b 0c 74 21 3e a9 b3 84 be 3b 80 27 bd
       0.0075084497 0.15766925 -0.2591832 -0.040893774
0003d0 13 ae aa bc 09 50 9b bd 7b 8c 53 bd 6e 0b c4 bd
       -0.020834958 -0.07583625 -0.051647644 -0.095724925
0003e0 cd c9 c1 3d 45 29 a0 bd e9 2e 94 bd bf 68 3e 3d
       0.094623186 -0.078203715 -0.0723551 0.046486612
0003f0 51 e3 40 be 1c 4a bd bd fb e9 2c bd 0b eb 3d bc
       -0.18836714 -0.09242651 -0.04221533 -0.011591683

fc2.bias f4 [128]
000000 81 30 e8 be 0d 51 dc be e6 97 cb be 28 a1 1a bf
       -0.45349506 -0.43030587 -0.39764327 -0.60402155
000010 e9 77 f1 be c8 70 04 bf 45 63 e7 be 6b bc db be
       -0.47161797 -0.5173459 -0.45192924 -0.4291719
000020 82 e0 f0 be 74 d6 39 bf cb 25 be bf 77 38 33 bf
       -0.47046286 -0.72592854 -1.4855283 -0.70008034
000030 20 25 c2 be 6b ca cd be 68 50 01 bf 45 8a e5 be
       -0.3791895 -0.40193495 -0.50513315 -0.44832054
000040 90 cf c0 be 64 63 fe be e6 6b f8 be f6 27 05 bf
       -0.37658358 -0.49685204 -0.4851982 -0.520141
000050 f4 e3 18 bf c3 20 ea be 80 38 b7 be c3 86 61 3b
       -0.5972283 -0.4572812 -0.35785294 0.00344126
000060 17 f1 92 be 23 e9 d0 be 92 e8 f0 be 45 a8 d7 be
       -0.28699562 -0.4080287 -0.47052437 -0.42120567
000070 78 8f 02 bf 9d bb 05 bf 67 72 30 bf 41 a0 a6 bf
       -0.51000166 -0.522394 -0.68924564 -1.3017656
000080 6d 51 ec be ff c3 f9 be 13 a9 20 bf e4 19 06 bf
       -0.46155873 -0.48782346 -0.62757987 -0.52383256
000090 d5 f8 cc be 88 62 35 bf 79 52 0e bf 68 56 12 bf
       -0.40033594 -0.7085347 -0.55594593 -0.57163095
0000a0 48 eb da be ad 34 e5 be 0f 2f 03 bf 5f 86 28 bf
       -0.4275763 -0.4476675 -0.5124368 -0.65830034
0000b0 9f 85 c7 be 43 5b fc be 35 a0 03 bf 58 9c 64 bf
       -0.38969132 -0.49288377 -0.5141633 -0.8930106
0000c0 a2 21 d4 be ae 2c f2 be 76 88 25 bf d9 7b f3 be
       -0.4143191 -0.47299713 -0.6466135 -0.47555426
0000d0 f6 44 6a be d7 46 23 bf 70 11 13 bf ea 58 03 bf
       -0.22877869 -0.6377997 -0.5744848 -0.5130755
0000e0 53 c1 3a bf 3a fc 77 bf fb 0a d7 be 04 b0 dc be
       -0.7295124 -0.9686924 -0.42000565 -0.4310304
0000f0 02 76 02 bf 22 bf c4 be 5a ef ea be a0 c0 d2 bf
       -0.50961316 -0.38427073 -0.45885736 -1.6465034
000100 21 f9 24 bf 85 12 c9 be aa 77 4f bf f4 f7 d2 be
       -0.6444264 -0.39271942 -0.8104197 -0.41204798
000110 c5 28 04 bf 00 a0 0a bf 0f 52 03 bf ae c7 02 bf
       -0.5162471 -0.5415039 -0.51297086 -0.5108594
000120 66 4d f8 be 9d a4 50 bf 41 69 e4 be 5a 79 0b bf
       -0.4849655 -0.8150118 -0.44611552 -0.5448204
000130 15 81 0b bf ca 11 c6 be 4c df e8 be 9f aa bc be
       -0.5449384 -0.38685447 -0.45482862 -0.36848924
000140 78 37 e9 be 3a 12 f8 be ac af b5 be b7 87 f5 be
       -0.45550132 -0.48451406 -0.3548559 -0.47955105
000150 a1 6e c2 be 5e 8b dc be cc e3 07 bf d5 4f 15 be
       -0.37975028 -0.4307508 -0.53081965 -0.14581235
000160 31 8a fb be cf 53 6a bf 33 f4 b0 bf ab b8 e7 be
       -0.4912887 -0.9153413 -1.3824524 -0.45258078
000170 db 21 cf 3c 81 54 f9 be e6 55 f5 be a0 47 eb be
       0.025284698 -0.48697284 -0.47917098 -0.45953083
000180 9d db 0e bf 46 09 20 bf 36 81 05 bf 82 c8 16 bf
       -0.55803853 -0.6251415 -0.52150285 -0.588997
000190 09 e0 e0 be 5a 22 28 bf 73 c9 be be b1 4a f9 be
       -0.43920925 -0.65677416 -0.3726307 -0.48689798
0001a0 61 02 15 bf 61 76 00 bf 6a cf cf be d4 4a fc be
       -0.58206755 -0.5018063 -0.40587932 -0.4927584
0001b0 f6 b1 e1 be 7c 6e cb bf 30 04 bc be 05 5d 04 bf
       -0.44081086 -1.5893092 -0.36721945 -0.51704437
0001c0 26 17 21 bf 12 27 d0 be 6f aa fe be 40 5a 97 be
       -0.62925947 -0.40654808 -0.49739406 -0.29561043
0001d0 db 4c e2 be 91 89 00 bf 9d ec 01 bf 70 55 05 bf
       -0.4419926 -0.5020991 -0.5075167 -0.5208349
0001e0 2c ad 1c bf 2b 9e 10 bf ed 2d b1 be 40 58 00 bf
       -0.6120174 -0.56491345 -0.3460535 -0.5013466
0001f0 80 1d 33 bf 90 1a 52 bf 37 eb f7 be 32 5d e8 be
       -0.6996689 -0.8207178 -0.48421642 -0.45383602

fc3.weight f4 [1, 128]
000000 ec f4 e1 3c fe ef 9f 3c 40 1c 87 3b 94 f1 b8 b9
       0.027582608 0.019523617 0.0041232407 -0.00035275205
000010 fa 06 fe 3c 86 36 84 3c 74 7d 4e 3c fb f0 34 bc
       0.031009186 0.01613928 0.012603153 -0.011043782
000020 a8 47 3b bb 7b af 63 3c b9 56 5b bd 49 0f da 3b
       -0.0028576646 0.013896818 -0.053549502 0.006654654
000030 f0 5f c0 bc 58 58 0e 3b 5e d2 b2 3c fd 5a ae 3c
       -0.023483247 0.0021720137 0.021828827 0.021283621
000040 ac 0a 25 3c cf 7b 88 bc 74 cf 76 3c 88 9f 02 3b
       0.010073345 -0.016660599 0.015064109 0.0019931514
000050 33 5f 3e 3c 63 07 23 3c db 2c 0b 3c a4 59 ee 3c
       0.011619377 0.009950492 0.008494581 0.029095478
000060 79 90 7e bc 64 ae be 3b 2a 19 aa 3b 79 21 a6 3b
       -0.015537375 0.005819129 0.005190988 0.005069908
000070 01 8c 19 3c 63 6f a7 bc e2 20 3b bb bb f4 85 bc
       0.009371758 -0.020438856 -0.0028553535 -0.016352048
000080 a4 83 dc bc 8c 48 c9 3c 54 82 36 bb 6f 97 c1 3b
       -0.02691824 0.024570726 -0.0027848678 0.005907945
000090 00 71 b7 3c 7e 56 80 bc 23 3d fb 3b b4 b3 b9 3b
       0.02239275 -0.015666243 0.0076672 0.0056671742
0000a0 1c 24 5f bc 4a b3 7b 3c bc 7a d6 bc 61 f4 30 3c
       -0.013619449 0.01536257 -0.026181571 0.010800452
0000b0 8c d3 32 3b 13 12 61 bc a7 80 eb 3c bc 17 b1 bc
       0.0027286736 -0.013737219 0.02874787 -0.021617763
0000c0 70 c1 9a 3c 53 ca 28 3c aa 41 35 bc 79 26 51 3c
       0.018891066 0.010302144 -0.011063019 0.01276552
0000d0 09 c0 3c bc 2d 08 61 bc 8d 99 cc bc cb 05 4e bc
       -0.011520394 -0.013734859 -0.024975562 -0.012574623
0000e0 63 51 8f 3c 44 a0 93 3e 93 a0 94 bc d2 cb 47 bb
       0.017494863 0.2883321 -0.018142974 -0.0030486477
0000f0 c5 9d 81 3c 0d 8a 02 ba 29 1e fa 3b 69 e1 e5 bc
       0.0158223 -0.00049796776 0.00763299 -0.028061586
000100 0c a7 05 3d 2a fd 2b 3c 89 a9 81 3c b6 a9 3e 3b
       0.03263001 0.010497371 0.015827911 0.0029092855
000110 56 0c 91 ba db 09 f7 3b d1 77 1e bc 12 f5 d2 ba
       -0.0011066298 0.0075390167 -0.009672121 -0.0016094765
000120 98 24 4d bb 7e 05 a1 3c 75 1f fd 3a 05 50 5b bc
       -0.003130233 0.01965594 0.0019311743 -0.013385777
000130 5e 2f 6b bb 9b c0 05 3c e0 34 4f bb a2 8a 7f bc
       -0.0035886387 0.0081635965 -0.003161721 -0.0155970175
000140 7c 95 c9 3c bf ca f8 ba fc 41 ab 3c cb 3a e0 bc
       0.024607413 -0.0018981321 0.020905487 -0.027371785
000150 db aa 55 3c 01 67 e6 bc e7 17 2a 3c 4c 36 59 3d
       0.013041223 -0.028125288 0.010381675 0.053030297
000160 08 3a 84 3c c7 c9 81 3c e8 17 5d bb 6b ea 5b 3c
       0.016140953 0.015843285 -0.0033736173 0.013422589
000170 a7 b8 84 bc cb 7c 7f 3c ea b4 b4 bc 90 ec 3b bc
       -0.01620133 0.015593718 -0.022058923 -0.011469975
000180 5c 61 ce bb 9f c0 03 bb 05 3e 0c 3b ef 0a 87 bb
       -0.0062982272 -0.0020103825 0.0021399271 -0.0041211764
000190 57 a9 32 bc 16 39 9c bc 0a 32 51 bb f5 87 c0 3c
       -0.010904632 -0.01907019 -0.0031920695 0.02350233
0001a0 e9 a2 44 bc aa 60 f9 bb 57 56 a8 bc 6a ab 42 bc
       -0.012001731 -0.0076104 -0.020548983 -0.011881689
0001b0 0a 91 dc 3c 98 bb 97 bb fd 93 38 3b 02 9a d8 bc
       0.026924629 -0.004630517 0.002816438 -0.026440624
0001c0 37 5c b6 bc a6 32 e2 3c 5f c4 b3 bc 57 63 9a 3c
       -0.022260768 0.027612042 -0.021944223 0.018846197
0001d0 11 1a 62 bc 2c ef 03 bb 28 43 ee bb 30 ca 32 bc
       -0.01380016 -0.0020131571 -0.0072711892 -0.010912463
0001e0 ed 93 bc bc 50 1c 0b 3c 95 6b 06 bc 64 e3 f2 3b
       -0.023019755 0.008490637 -0.0082043605 0.007412361
0001f0 57 30 3b bd fe 43 40 bc 3a 61 9f 3c 99 08 be bc
       -0.045700397 -0.011734961 0.01945554 -0.023197459
