training_output/ddpg/weights_actor.pth (torch_old, 83672 bytes, 10 tensors)

fc1.weight f4 [128, 24]
0.2919866 1.9951557 -0.060067687 0.14139348 -0.95222074 -1.8655676 -0.115129404 0.15533344
0.17396556 1.9617224 0.4575747 0.5452171 -1.0046532 -3.024047 0.44640708 0.58582634
0.15110144 1.8305409 0.031391 -1.2017664 -1.0755706 -3.491997 0.0006739138 -1.3204793
0.52632165 -2.5470111 -0.46149907 -0.012871024 0.36162323 -0.695754 -0.37806183 -0.07175942
0.4378415 -2.0305605 0.026606396 0.012263668 -0.84174013 2.6919572 0.025689272 0.017101057
0.6219915 -2.261147 -0.013606619 -0.2464462 -1.829136 4.6408615 -0.06261188 -0.25144932
0.44817746 -0.1032293 -0.4503365 -1.0240846 -0.7181544 0.53749883 -0.5918367 -1.1502872
-0.10677233 -0.61110044 -0.51247364 -1.2738168 -0.76426804 0.26272073 -0.4813817 -1.2008119
-0.16815901 -0.6939921 -0.12693125 -1.7559918 -0.56616896 -0.19958453 -0.087636806 -1.5964653
0.71811134 -3.5013332 -0.6782725 0.9022168 -0.51143926 0.54954153 -0.66130394 0.8974368
0.8181384 -2.886502 0.05097407 0.9690994 -1.2254508 1.2347547 0.05446046 0.91177666
0.8521101 -3.1687777 0.5802083 0.00390781 -1.9320759 2.1529334 0.6039326 0.077576496
0.7703283 0.28654817 0.63590336 -0.14023523 -0.3746696 -3.0308805 0.67391306 -0.25446272
0.78828377 0.5730814 -0.2859312 -0.23319423 -0.78381175 0.12018185 -0.36743444 -0.119577445
0.7450182 0.48819694 -0.9884544 -0.6125531 -1.0614029 2.828489 -1.1579587 -0.55411017
1.1038287 0.5513644 -0.0022576838 0.33363163 -1.4777371 -1.5326974 -0.043702938 0.37667534
1.0222609 0.39622116 -0.18297525 0.53039885 -1.0237116 -1.3464512 -0.20453092 0.54088914
0.9678139 0.7928353 0.4889285 -2.2478917 -0.91969955 -1.1094575 0.42454663 -2.178767
1.6634074 0.5095552 -0.027911345 0.61625826 0.7506119 -1.8315102 0.08692679 0.7161892
1.7817627 0.9116438 -0.43654585 0.5898632 0.60300535 -0.5531453 -0.4144417 0.5070932
1.8381423 1.0591737 -0.23467886 0.7847307 0.013697899 0.47240725 -0.19648159 0.79516256
0.007452668 0.77085435 -0.3869942 0.0073280055 -0.74745274 -0.71699643 -0.26623282 -0.019077733
0.1819633 0.5260303 -0.08810568 0.38320622 1.2749069 1.9141357 -0.17533565 0.28037265
0.32203007 0.6460857 0.09441807 0.038686257 3.8017054 4.324285 0.21632466 0.014052141
-0.17064041 -0.98877144 0.3024893 0.07226474 0.12825297 -4.7284613 0.3874947 0.13234892
-0.617782 -0.7618149 0.030985013 0.17272459 -0.088841066 -0.12712796 -0.0032028672 0.14976294
-0.47519636 -0.74253225 -0.105332285 0.46147078 -0.47654057 5.7006283 -0.122517064 0.5469983
0.37500435 -1.6628947 -0.3792585 0.40571457 -0.9074963 -0.2565758 -0.39322126 0.31877345
0.39924622 -1.8861511 -0.4728832 0.012139088 2.0290368 0.15551867 -0.4036972 0.09989656
-0.019076174 -2.0371919 0.4814327 0.6295227 6.939803 0.5996602 0.41844523 0.6931389
-0.74618244 -0.49950233 0.008832033 2.1357286 0.44491273 0.27061257 -0.06727872 2.217996
-0.65702844 0.44189912 0.94181955 2.6920934 0.46633035 0.2069218 0.9359429 2.5989156
00000000: 457f 953e 4361 ff3f 8909 76bd 74c9 103e
00000010: bdc4 73bf ebca eebf f7c8 ebbd bb0f 1f3e
00000020: 0724 323e b819 fb3f 3b47 ea3e 5993 0b3f
00000030: 7a98 80bf fc89 41c0 788f e43e b7f8 153f
00000040: 56ba 1a3e 2a4f ea3f d993 003d 7bd3 99bf
00000050: 4cac 89bf e17c 5fc0 97a9 303a 7705 a9bf
00000060: 04bd 063f 3b02 23c0 9b49 ecbe fde0 52bc
00000070: ae26 b93e ef1c 32bf 5291 c1be 9af6 92bd
00000080: c32c e03e b4f4 01c0 a8f5 d93c 8ded 483c
00000090: 487c 57bf 0749 2c40 4f72 d23c 8417 8c3c
000000a0: d63a 1f3f a2b6 10c0 4cee 5ebc 655c 7cbe
000000b0: 2121 eabf f081 9440 a83a 80bd f7bd 80be
000000c0: 8477 e53e e269 d3bd 8192 e6be 3415 83bf
000000d0: f7d8 37bf 8699 093f 9c82 17bf 9c3c 93bf
000000e0: 74ab dabd 1471 1cbf 7931 03bf 6e0c a3bf
000000f0: 12a7 43bf 5583 863e aa77 f6be 34b4 99bf
00000100: e031 2cbe 77a9 31bf 44fa 01be 57c4 e0bf
00000110: 73f0 10bf e35f 4cbe ed7a b3bd fa58 ccbf
00000120: 25d6 373f d815 60c0 44a3 2dbf aef7 663f
00000130: afed 02bf c1ae 0c3f 374b 29bf 6bbe 653f
00000140: 8571 513f 73bc 38c0 30ca 503d e616 783f
00000150: 92db 9cbf 710c 9e3f ee11 5f3d 326a 693f
00000160: e323 5a3f 41cd 4ac0 8888 143f 160d 803b
00000170: 434e f7bf a9c9 0940 549b 1a3f 6de0 9e3d
00000180: 3c34 453f 71b6 923e 90ca 223f d399 0fbe
00000190: b2d4 bfbe f2f9 41c0 9185 2c3f f048 82be
000001a0: f7cc 493f 76b5 123f 9365 92be 78ca 6ebe
000001b0: e3a7 48bf e721 f63d 5e20 bcbe 05e5 f4bd
000001c0: 83b9 3e3f f3f4 f93e 590b 7dbf 48d0 1cbf
000001d0: 0ddc 87bf f705 3540 fe37 94bf 2ada 0dbf
000001e0: 424a 8d3f 3826 0d3f a6f5 13bb c4d1 aa3e
000001f0: 7d26 bdbf 6e2f c4bf da01 33bd 97db c03e
00000200: 72d9 823f 80dd ca3e dd5d 3bbe 38c8 073f
00000210: fb08 83bf 8358 acbf 8e70 51be b677 0a3f
00000220: a7c2 773f 41f7 4a3f d654 fa3e 75dd 0fc0
00000230: 6e71 6bbf b402 8ebf 2d5e d93e eb70 0bc0
00000240: 89ea d43f 3672 023f 55a6 e4bc 1ac3 1d3f
00000250: 1a28 403f ed6e eabf ac06 b23d 2d58 373f
00000260: cd10 e43f 7d61 693f f082 dfbe 4601 173f
00000270: 8f5e 1a3f ee9a 0dbf b431 d4be dcd0 013f
00000280: 3f48 eb3f 0193 873f a84f 70be 1ce4 483f
00000290: 276d 603c 5ddf f13e 7832 49be c68f 4b3f
000002a0: 8335 f43b b656 453f 1b24 c6be c41f f03b
000002b0: 1059 3fbf 148d 37bf ab4f 88be e848 9cbc
000002c0: 9654 3a3e eca9 063f c070 b4bd 9b33 c43e
000002d0: 2630 a33f 6602 f53f 308b 33be 018d 8f3e
000002e0: 20e1 a43e df65 253f 435e c13d 7b75 1e3d
000002f0: 244f 7340 8b60 8a40 3684 5d3e f43a 663c
00000300: 5cbc 2ebe 2020 7dbf e1df 9a3e 89ff 933d
00000310: bf54 033e 8e4f 97c0 b565 c63e 7a86 073e
00000320: f626 1ebf 4d06 43bf 48d4 fd3c b7de 303e
00000330: 4ef2 b5bd d52d 02be 32e7 51bb 755b 193e
00000340: f04c f3be 9816 3ebf 74b8 d7bd e645 ec3e
00000350: 20fd f3be 8c6b b640 3aea fabd 1508 0c3f
00000360: 9200 c03e bcd9 d4bf 2c2e c2be d2b9 cf3e
00000370: ad51 68bf e75d 83be 4c54 c9be 4636 a33e
00000380: 006a cc3e 666d f1bf bf1d f2be 06e3 463c
00000390: bddb 0140 4940 1f3e 66b1 cebe 9196 cc3d
000003a0: a345 9cbc 5a61 02c0 597e f63e 6628 213f
000003b0: de12 de40 5583 193f 743e d63e 8d71 313f
000003c0: d005 3fbf c5be ffbe 3bb4 103c c7af 0840
000003d0: 9acb e33e bb8d 8a3e 6dc9 89bd a5f3 0d40
000003e0: 0433 28bf 9a40 e23e 161b 713f 424b 2c40
000003f0: dac2 ee3e 4fe3 533e f499 6f3f a254 2640

fc1.bias f4 [128]
-0.57335603 -0.59858626 -0.2844413 -0.6323118 -0.9388164 -1.0698925 -1.3014021 -0.5354048
0.5669824 -0.83984566 -0.4346873 0.2962957 -0.092520304 0.4466867 -1.1839266 -1.04793
1.6882713 -0.024504054 1.0616002 -0.7280129 -0.7578844 -1.3111819 -1.1110052 0.09514916
-1.3498722 0.021180108 -0.7247691 -0.66313124 -0.76685005 -1.7489394 -1.7309712 -0.61595094
-1.4303995 0.2302125 -0.94669425 -0.64068127 -1.4210535 -0.26059473 -0.41904396 0.16114716
-0.4049799 -0.43184772 -0.44483152 -0.94646746 -1.2109997 -0.36139423 -0.2899375 -1.3073522
-0.78223896 -1.9043958 -0.9294038 -0.5712891 -0.7685576 -0.9826948 -0.009895164 -1.0402819
1.2290561 -0.9130916 0.42503598 -0.39101005 -0.8528893 -0.2700866 0.9374149 1.3616071
-0.34282792 -0.36209187 -1.1350787 -1.6192911 -1.1075382 -0.26254085 1.3532923 -0.29393178
-1.0813535 -2.4246729e-05 0.3242649 -1.9201332 -1.7062708 -0.2308276 -0.7035475 -1.4479425
0.18781899 -0.6607527 1.0096972 0.2069752 -0.92663187 0.005942947 -1.2673241 -1.2176069
-0.6824551 -0.35295215 -1.7620615 0.12847309 -1.1749042 0.7376586 -1.3495649 1.3655359
-1.1767417 -0.12765327 0.5675558 -1.09119 -1.286083 -1.095858 -1.1955683 -0.8138191
-0.5069206 -1.2745856 -0.99314564 0.21695049 1.110051 -0.44142848 -0.69306755 -0.3641779
-0.8075041 -0.27029195 -0.30556437 -1.5776873 0.5702519 -0.21876736 -1.4376084 -0.72850555
0.06339479 -1.1852845 -0.6289093 0.32454836 -0.47502604 0.34779933 -0.5681905 -1.648462
00000000: 76c7 12bf f33c 19bf 4aa2 91be 30df 21bf
00000010: 4656 70bf 3df2 88bf 5894 a6bf 4a10 09bf
00000020: c225 113f 2000 57bf 558f debe 12b4 973e
00000030: 497b bdbd 1fb4 e43e e88a 97bf 9222 86bf
00000040: 4619 d83f babc c8bc 84e2 873f 0e5f 3abf
00000050: b604 42bf cfd4 a7bf 6b35 8ebf 90dd c23d
00000060: 9dc8 acbf e881 ad3c 788a 39bf f8c2 29bf
00000070: 4950 44bf 3fdd dfbf 7790 ddbf f6ae 1dbf
00000080: 5517 b7bf d3bc 6b3e 8e5a 72bf b003 24bf
00000090: 15e5 b5bf ac6c 85be ee8c d6be c303 253e
000000a0: 8759 cfbe 251b ddbe f5c0 e3be b14b 72bf
000000b0: 0a02 9bbf aa08 b9be b072 94be 5157 a7bf
000000c0: d040 48bf 3ec3 f3bf 68ed 6dbf 0140 12bf
000000d0: 31c0 44bf e391 7bbf 531f 22bc f527 85bf
000000e0: b651 9d3f 5fc0 69bf 519e d93e 7832 c8be
000000f0: f456 5abf ca48 8abe 6cfa 6f3f 2449 ae3f
00000100: 2487 afbe 1b64 b9be 424a 91bf ee44 cfbf
00000110: d0c3 8dbf c16b 86be af38 ad3f 3a7e 96be
00000120: cb69 8abf 7465 cbb7 0d06 a63e edc6 f5bf
00000130: 1567 dabf 125e 6cbe b01b 34bf 2e56 b9bf
00000140: 9f53 403e 1727 29bf c23d 813f 4ff1 533e
00000150: bf37 6dbf 0ebd c23b ad37 a2bf 8bda 9bbf
00000160: 61b5 2ebf 25b6 b4be 3b8b e1bf 738e 033e
00000170: 4363 96bf 32d7 3c3f 8bbe acbf e1c9 ae3f
00000180: 799f 96bf 8ab7 02be 564b 113f 1dac 8bbf
00000190: 5e9e a4bf 1345 8cbf 6208 99bf 7356 50bf
000001a0: 8cc5 01bf 9f25 a3bf cb3e 7ebf 4528 5e3e
000001b0: 2716 8e3f ea02 e2be e06c 31bf 8775 babe
000001c0: 97b8 4ebf b563 8abe ef72 9cbe a8f1 c9bf
000001d0: 07fc 113f 8d04 60be 8d03 b8bf 577f 3abf
000001e0: 21d5 813d 67b7 97bf 3300 21bf 342b a63e
000001f0: 9d36 f3be c112 b23e ef74 11bf ce00 d3bf

bn1.weight f4 [128]
1.9705155 3.9020271 -0.47941434 1.67938 1.2871784 0.8905216 0.038108375 2.3456697
2.5083563 2.0684283 -0.14493744 4.5552344 1.8991398 -0.5814523 1.0520265 -0.19217962
0.28637496 0.33603057 0.2181822 1.7195643 0.948637 1.5416067 0.53867173 1.2168705
0.48569423 0.8061516 1.2462057 -0.65849435 0.9228072 1.8389649 2.0182803 0.05058236
2.3512273 2.254917 1.8844539 0.7967197 0.7222129 1.6407713 1.8396484 1.2779015
0.97492456 -0.21752834 0.40251127 0.31400898 3.719185 2.430569 2.12256 2.131969
2.5867438 0.82039523 -1.0839419 -0.18865418 1.0006886 1.9701437 2.4571917 3.4005497
0.4814204 1.5135276 0.90473115 -0.05676011 1.1454371 0.8796721 1.1973245 0.1907425
2.1176343 0.8059473 -0.42604247 1.7880148 2.7979743 -0.7749258 1.2994022 -0.063322976
0.9836019 1.7617757 1.0655165 0.013696256 -0.45820236 0.6381421 0.8912886 -0.15556425
0.44859216 2.1573002 1.6160849 1.0382124 2.239896 1.1520303 0.3019644 0.9179259
2.1739209 1.8554873 0.92448795 0.8181786 1.0324736 -0.05605629 2.2589433 0.13037732
3.551178 0.87935585 1.6465126 1.1496068 2.5140567 -0.2309311 1.5670797 0.99891704
1.2278703 0.99225205 0.94587064 0.4038201 -0.26591963 1.5777763 1.424829 0.15967128
-0.58974 0.48367828 4.44538 3.378176 -0.56219536 0.69713277 3.69411 1.0149245
1.3112212 4.2154083 1.2148594 0.97667384 0.2865406 1.7213718 1.254738 0.67409384
00000000: da39 fc3f d0ba 7940 cc75 f5be edf5 d63f
00000010: 43c2 a43f 39f9 633f 8717 1c3d 741f 1640
00000020: e988 2040 2161 0440 7b6a 14be 7bc4 9140
00000030: 0317 f33f 0fda 14bf cea8 863f bcca 44be
00000040: bd9f 923e 330c ac3e 286b 5f3e af1a dc3f
00000050: e0d9 723f 5e53 c53f 64e6 093f 6ac2 9b3f
00000060: eaac f83e f45f 4e3f ab83 9f3f 1693 28bf
00000070: 183d 6c3f 3463 eb3f 812b 0140 732f 4f3d
00000080: 827a 1640 8f50 1040 c935 f13f d2f5 4b3f
00000090: f2e2 383f cb04 d23f 9979 eb3f 4792 a33f
000000a0: a894 793f c0bf 5ebe f515 ce3e c9c5 a03e
000000b0: 2107 6e40 718e 1b40 06d8 0740 2e72 0840
000000c0: 368d 2540 6c05 523f 9cbe 8abf 902e 41be
000000d0: 9016 803f ab2d fc3f a142 1d40 9ba2 5940
000000e0: bc7c f63e 46bb c13f 769c 673f 4a7d 68bd
000000f0: af9d 923f 3132 613f ee41 993f 0052 433e
00000100: 5287 0740 9052 4e3f 3d22 dabe abdd e43f
00000110: 0312 3340 8a61 46bf d052 a63f 7aaf 81bd
00000120: 56cd 7b3f de81 e13f d862 883f 4366 603c
00000130: 8099 eabe 485d 233f 7d2b 643f 3c4c 1fbe
00000140: dfad e53e 3511 0a40 dfdb ce3f 25e4 843f
00000150: 755a 0f40 bb75 933f 149b 9a3e 31fd 6a3f
00000160: 8521 0b40 9c80 ed3f 3eab 6c3f 2774 513f
00000170: 1828 843f 489b 65bd 8792 1040 a281 053e
00000180: 8046 6340 771d 613f edc0 d23f 5126 933f
00000190: 4ee6 2040 3479 6cbe 1196 c83f 07b9 7f3f
000001a0: db2a 9d3f 3b04 7e3f 9424 723f 82c1 ce3e
000001b0: 9e26 88be 93f4 c93f cc60 b63f de80 233e
000001c0: 33f9 16bf aea4 f73e 8e40 8e40 0934 5840
000001d0: 09ec 0fbf 4b77 323f 4c6c 6c40 0ce9 813f
000001e0: 19d6 a73f a0e4 8640 8380 9b3f 4c07 7a3f
000001f0: 73b5 923e e955 dc3f 419b a03f 6a91 2c3f

bn1.bias f4 [128]
-0.95223624 0.5528914 0.27988443 0.021008782 0.7937766 -0.23018697 -0.16031088 -0.1256887
0.14205332 0.56908363 -0.03694717 -1.3728342 -0.25541076 0.012290546 0.4759929 0.101752095
0.36712533 0.029250644 0.007461048 -0.23050271 1.4663398 -0.21249564 0.21955739 -0.54108393
0.38435435 0.050790925 0.05325697 0.18451375 -0.14907476 -0.39537513 0.49701408 -0.25953567
0.9335018 0.418049 0.15500094 -2.38939 0.14651956 0.24599825 -0.10097275 -0.2518214
-0.5092391 -0.30532894 0.12958266 -0.7808076 -1.8973566 -0.781074 -0.754875 -0.4817873
-0.01899638 -0.11951697 0.119912736 0.18805155 -0.3468032 0.8882445 0.009482259 1.4152938
-0.135973 -0.13422325 0.4587911 0.098380886 0.30143863 -0.3039468 0.75359356 -0.83524996
-0.2984779 0.15708162 -0.17999418 -0.24598116 1.6908584 -0.50548446 -1.1884029 -0.026964806
0.12856005 0.9944579 -0.19581038 0.04903315 -0.02429171 0.11091727 -0.616244 -0.06914705
0.539999 -0.018694619 -0.9915895 -0.5934246 0.24034443 0.4201202 0.0056571634 0.96805966
0.016359132 -0.7325169 0.4009698 0.46283898 0.029542921 0.42158574 0.13204645 0.36308
0.52530813 -0.1651336 0.26263872 -0.72730297 0.7277867 -0.23396194 -0.049803533 0.09755941
-0.67288774 0.28346896 0.15621608 0.14797738 0.33880818 0.04293464 0.5542076 -1.0204861
-0.21350875 -0.32107726 1.110582 -0.8955405 -0.25426975 0.25872272 -0.62513006 -0.020074096
-0.11599157 1.9592713 0.27864334 -0.47601008 0.55578405 -0.34482452 0.28620443 0.32912812
00000000: c1c5 73bf 4a8a 0d3f 034d 8f3e 9c1a ac3c
00000010: f134 4b3f 22b6 6bbe 8928 24be 8ab4 00be
00000020: 6d76 113e 77af 113f ea55 17bd 08b9 afbf
00000030: 33c5 82be 495e 493c 57b5 f33e 6763 d03d
00000040: daf7 bb3e 0c9f ef3c cf7b f43b e708 6cbe
00000050: 06b1 bb3f 7598 59be a7d3 603e 7a84 0abf
00000060: 18ca c43e 250a 503d fb23 5a3d 2cf1 3c3e
00000070: 0ea7 18be 9c6e cabe a178 fe3e dce1 84be
00000080: f9f9 6e3f 850a d63e 91b8 1e3e c4eb 18c0
00000090: 3909 163e f7e6 7b3e cdca cebd bcee 80be
000000a0: 7e5d 02bf 1354 9cbe 51b1 043e 02e3 47bf
000000b0: 95dc f2bf 77f4 47bf 7d3f 41bf d3ac f6be
000000c0: 4c9e 9bbc 50c5 f4bd cf94 f53d 9690 403e
000000d0: 3090 b1be fe63 633f 7a5b 1b3c 5928 b53f
000000e0: 823c 0bbe d271 09be abe6 ea3e eb7b c93d
000000f0: 2a56 9a3e ea9e 9bbe 82eb 403f f1d2 55bf
00000100: 18d2 98be 01da 203e 6550 38be 7ce2 7bbe
00000110: 0c6e d83f 6e67 01bf 961d 98bf 4ce5 dcbc
00000120: 3fa5 033e cb94 7e3f 8482 48be fcd6 483d
00000130: 69ff c6bc 9828 e33d 2bc2 1dbf f89c 8dbd
00000140: 603d 0a3f 7525 99bc cfd8 7dbf adea 17bf
00000150: da1c 763e ff19 d73e ba5f b93b c2d2 773f
00000160: 9603 863c 3a86 3bbf ea4b cd3e 3bf9 ec3e
00000170: ff03 f23c 16da d73e 2f37 073e 9fe5 b93e
00000180: 987a 063f c818 29be 9578 863e 8730 3abf
00000190: 3b50 3a3f b893 6fbe cafe 4bbd 3acd c73d
000001a0: 5f42 2cbf d822 913e 1cf7 1f3e 6287 173e
000001b0: 4478 ad3e 3cdc 2f3d 8de0 0d3f 4a9f 82bf
000001c0: 0aa2 5abe 3d64 a4be 8d27 8e3f 2442 65bf
000001d0: a52f 82be 4e77 843e 8608 20bf 6e72 a4bc
000001e0: fd8c edbd 67c9 fa3f 57aa 8e3e 98b7 f3be
000001f0: dd47 0e3f d78c b0be 6389 923e 7b83 a83e

bn1.running_mean f4 [128]
2.0356152 13.48443 12.695824 9.19023 5.3121705 1.6802461 0.12965603 22.30118
17.620945 15.670727 36.87896 1.6426822 4.616325 25.987255 21.463284 4.9107485
65.512054 4.752088 96.8682 29.785088 3.9139748 9.128504 17.523245 52.347256
13.642922 26.734102 21.201334 4.194207 6e-45 6.2545714 17.35462 4.8975377
4.9871836 27.421694 1.3362263 0.26265672 26.938774 28.282114 37.814327 5.7043705
2.9219317 11.5350685 22.170918 3.0387638 1.6959406 1.6728479 4.80636 12.399167
32.38046 11.530178 0.02958058 37.899204 4.0920467 5.804625 2.6300297 9.181403
16.906105 0.008903255 18.244495 12.063207 1.2473861 31.540524 48.90138 49.255333
3.1189995 2.3968983 0.8746178 9.587414 2.4611826 19.451864 18.668598 12.008889
32.467545 26.51708 5.790732 1.8204571 6.257479 76.104454 4.567614 2.604409e-11
28.071787 22.554785 39.797207 7.206622 0.0152165415 26.948503 4.5646873 9.57647
26.386263 0.3852167 10.218107 7.870187 17.973944 60.25649 1.9746351 65.3704
10.288561 28.824028 2.5765123 1.6935014 4.255539 0.09697938 5.8767977 9.601759
2.4883747 3.2005575 47.242413 3.1878078 83.427216 16.475266 7.831371 9.408406
2.5358586 10.014307 15.730484 50.38458 52.508766 26.565432 19.818926 0.00082214293
7.6063476 8.792665 6e-45 36.360806 12.335853 118.93422 21.305225 21.990246
00000000: 8547 0240 3ac0 5741 1822 4b41 2f0b 1341
00000010: 4dfd a940 4e12 d73f 8dc4 043e d168 b241
00000020: b2f7 8c41 4cbb 7a41 0e84 1342 6943 d23f
00000030: efb8 9340 e6e5 cf41 ceb4 ab41 da24 9d40
00000040: 2c06 8342 1b11 9840 85bc c142 dc47 ee41
00000050: 907e 7a40 5a0e 1241 9b2f 8c41 9763 5142
00000060: 6949 5a41 71df d541 559c a941 f236 8640
00000070: 0400 0000 7325 c840 43d6 8a41 a1b8 9c40
00000080: 0297 9f40 a15f db41 7709 ab3f f17a 863e
00000090: 9c82 d741 c541 e241 df41 1742 348a b640
000000a0: ee00 3b40 a48f 3841 0a5e b141 1b7b 4240
000000b0: 9514 d93f e11f d63f b3cd 9940 fd62 4641
000000c0: 9785 0142 9c7b 3841 f952 f23c c998 1742
000000d0: 0cf2 8240 7dbf b940 6852 2840 07e7 1241
000000e0: b43f 8741 f5de 113c baf4 9141 e502 4141
000000f0: 59aa 9f3f fe52 fc41 039b 4342 7605 4542
00000100: b09d 4740 c866 1940 f4e6 5f3f 0c66 1941
00000110: 0484 1d40 6b9d 9b41 4a59 9541 6924 4041
00000120: c4de 0142 fb22 d441 ad4d b940 bd04 e93f
00000130: 453d c840 7b35 9842 e529 9240 1416 e52d
00000140: 0593 e041 3370 b441 5730 1f42 a69c e640
00000150: cd4e 793c 8996 d741 eb11 9240 3939 1941
00000160: 1117 d341 203b c53e 5e7d 2341 92d8 fb40
00000170: a3ca 8f41 a506 7142 d8c0 fc3f a5bd 8242
00000180: f29d 2441 9c97 e641 94e5 2440 a7c4 d83f
00000190: 602d 8840 209d c63d ba0e bc40 cea0 1941
000001a0: 8841 1f40 efd5 4c40 3bf8 3c42 0b05 4c40
000001b0: bcda a642 58cd 8341 979a fa40 d588 1641
000001c0: 824b 2240 9a3a 2041 10b0 7b41 cf89 4942
000001d0: fa08 5242 0186 d441 298d 9e41 1485 573a
000001e0: 3367 f340 c1ae 0c41 0400 0000 7771 1142
000001f0: a75f 4541 52de ed42 1a71 aa41 06ec af41

bn1.running_var f4 [128]
65.904144 167.67717 413.52512 209.70175 385.93405 61.37497 3.0234163 327.6474
110.2487 582.23285 1172.8795 18.74107 129.87648 314.55685 627.89624 210.93123
1283.0938 328.93283 589.9694 878.1843 216.09036 141.88773 833.6787 516.2876
688.60504 375.76938 554.5048 166.60991 6e-45 60.268505 390.669 243.75716
65.73412 792.48004 30.485704 6.1003914 942.1227 1090.9259 1723.1674 439.60437
84.62701 428.83762 690.43964 97.26927 52.412827 26.717627 41.34011 249.68755
113.381935 465.85144 0.45985186 399.65646 132.45732 109.80842 57.278557 108.65769
342.32327 0.04992953 406.3869 500.24445 46.090977 1075.2816 1542.3386 605.3676
120.65983 80.69173 32.44467 373.57468 40.119694 440.7799 363.5272 318.28113
721.25134 464.31766 213.40935 119.64664 150.16138 671.30676 279.31226 2.2759129e-10
872.657 1138.6521 774.56146 85.41482 0.084800184 947.5798 198.60654 278.40158
1086.8568 7.1876264 326.2648 227.37886 277.83255 1232.102 92.09481 626.8349
114.25498 1137.967 56.543198 57.215073 58.471016 0.8203849 167.61844 364.30582
81.97578 214.22453 563.6218 201.52144 636.3332 110.833405 292.4495 358.97772
62.429745 375.4018 158.52216 646.2781 718.60046 742.89655 290.23462 0.015643535
366.8971 91.13061 6e-45 691.8438 583.0737 645.9695 824.00116 622.4719
00000000: ecce 8342 5bad 2743 37c3 ce43 a6b3 5143
00000010: 8ff7 c043 f87f 7542 a77f 4140 ded2 a343
00000020: 567f dc42 e78e 1144 259c 9244 b6ed 9541
00000030: 61e0 0143 4747 9d43 5cf9 1c44 65ee 5243
00000040: 0063 a044 6777 a443 0b7e 1344 cc8b 5b44
00000050: 2217 5843 42e3 0d43 706b 5044 6812 0144
00000060: b926 2c44 7be2 bb43 4fa0 0a44 239c 2643
00000070: 0400 0000 f312 7142 a255 c343 d5c1 7343
00000080: df77 8342 b91e 4644 b9e2 f341 6836 c340
00000090: da87 6b44 a15d 8844 5b65 d744 5ccd db43
000000a0: 0741 a942 376b d643 239c 2c44 de89 c242
000000b0: bca6 5142 b3bd d541 465c 2542 03b0 7943
000000c0: 8dc3 e242 fcec e843 b471 eb3e 07d4 c743
000000d0: 1375 0443 e99d db42 3e1d 6542 bd50 d942
000000e0: 6129 ab43 e882 4c3d 8631 cb43 4a1f fa43
000000f0: 295d 3842 0369 8644 d6ca c044 8757 1744
00000100: d551 f142 2a62 a142 58c7 0142 8fc9 ba43
00000110: 917a 2042 d463 dc43 7bc3 b543 fc23 9f43
00000120: 1650 3444 a928 e843 cb68 5543 144b ef42
00000130: 5029 1643 a2d3 2744 f8a7 8b43 413d 7a2f
00000140: 0c2a 5a44 de54 8e44 efa3 4144 63d4 aa42
00000150: b8ab ad3d 1be5 6c44 469b 4643 6733 8b43
00000160: 6bdb 8744 0901 e640 e521 a343 fd60 6343
00000170: 91ea 8a43 4403 9a44 8b30 b842 6fb5 1c44
00000180: 8d82 e442 f23e 8e44 3c2c 6242 3cdc 6442
00000190: 52e2 6942 bf04 523f 529e 2743 2527 b643
000001a0: 99f3 a342 7b39 5643 cce7 0c44 7d85 4943
000001b0: 5315 1f44 b4aa dd42 8939 9243 267d b343
000001c0: 0fb8 7942 6eb3 bb43 ac85 1e43 cc91 2144
000001d0: 6ea6 3344 61b9 3944 081e 9143 df26 803c
000001e0: d472 b743 df42 b642 0400 0000 01f6 2c44
000001f0: b8c4 1144 0c7e 2144 1300 4e44 349e 1b44

fc2.weight f4 [128, 128]
-0.3471349 -0.6263635 0.16071436 -0.1349171 -1.7855748 -0.35399953 0.5756589 -0.4324872
-2.0245302 1.0436809 0.53959614 0.10961353 -0.19255108 1.4929253 1.257234 -1.4171855
-1.6215096 -0.23553842 -0.034689523 0.8916534 -1.1880326 -1.5579433 0.40097612 -0.3352552
0.75518066 0.25870246 0.2784037 -1.0429409 1.0093464 -1.3359095 1.1964495 0.3251171
1.4054896 2.333615 1.4564685 0.7867412 1.3463643 1.6661109 1.7755319 1.1660612
1.3962646 -0.11426308 -0.5211648 0.2479603 0.22981185 0.49604422 -1.2723935 -0.4187841
-1.1126264 0.32070655 0.31291154 0.31953266 -0.7895361 -1.1497649 0.65059614 0.99758697
0.10216162 1.6546901 -0.6106604 1.6075726 0.08613356 0.476794 0.47022817 1.3054197
-0.3838594 0.4100309 0.9533122 2.2737203 -1.2767175 1.466994 0.324368 -0.29472727
-0.32219592 -1.5710539 0.38436303 1.0823401 0.1541696 0.060146607 0.7396951 -0.468136
0.5303171 -0.67309994 -0.96698487 -0.5996159 -0.19311923 1.4543511 0.055816926 0.3702225
0.80080175 0.05578111 0.70415205 -0.20106809 2.2734919 -1.2448217 0.10528848 -0.7374516
-0.46022964 1.9929506 -0.48250425 0.51798755 1.0769212 1.4809268 0.2084154 -0.2115534
0.69758976 -0.091800086 1.3629206 -0.3921616 -0.33095765 -0.21335793 -1.2627639 0.7077223
-0.069567196 0.46474916 -0.8322079 -0.10437208 1.3806984 0.3344409 0.9382207 -0.5137837
1.3373365 -1.0061165 0.080831066 0.6876876 -0.5081857 0.8175807 0.40557957 -0.6140919
-0.27951825 1.1336849 1.6609784 -0.92832386 -1.0695031 0.042574015 0.17052071 1.6096722
-0.2861335 -0.1546117 -0.23492217 -0.084159456 -0.72850025 -0.19114448 1.112615 0.36625302
0.56870776 0.5801465 -0.7435615 1.6821123 0.14956686 -0.21121536 0.001290251 0.17317164
0.44017622 0.2914507 -1.6276327 1.1857575 -0.28781033 -0.28770143 1.8764434 0.62882894
-1.5919392 0.5589187 -0.95800185 -0.6727345 0.9979547 -0.4487891 -0.59282774 -1.2255298
-0.89812785 1.0368739 0.83538055 -0.5535053 0.41375765 -0.23370396 0.37221473 2.7657356
-0.14092307 -0.042013183 0.14007418 -0.619292 1.6695832 0.71617925 -1.4121492 -2.7638881
-0.37332857 -0.7127061 0.42947268 0.35080436 -0.29551747 0.8178096 -1.1045169 0.99955887
0.14165963 -2.6919904 -0.42868257 0.32238352 -1.868056 0.08635165 -0.5466865 1.0605098
-0.020281669 0.8639341 0.29626763 1.3035796 0.82147545 0.8038901 0.12329416 -0.24040835
-0.12627527 -0.2481596 0.58404416 -0.75826496 -0.21088524 -0.68380517 -0.036716912 -0.062151928
1.1272343 -0.20287094 -0.31203854 1.7676151 3.3455377 -0.08522214 0.47722164 2.6885624
0.92791104 -0.11574956 -1.5132213 0.41176042 -1.4703945 1.1213616 -0.12780139 0.26350775
0.33911487 0.14600693 1.249311 -0.12998295 -0.2673979 -1.4418243 -0.41345373 -0.64455324
1.0457164 -0.25780424 0.5365238 3.0872276 0.2165027 0.63558084 2.6907346 -0.24641494
-0.0031640711 -1.3967798 -0.052998897 0.20584112 0.17912729 1.977009 -2.9821222 0.25240532
00000000: aabb b1be 5c59 20bf 4e92 243e b527 0abe
00000010: b78d e4bf 6d3f b5be 625e 133f f66e ddbe
00000020: e791 01c0 5697 853f f922 0a3f 0f7d e03d
00000030: 1c2c 45be 2d18 bf3f 0bed a03f 5666 b5bf
00000040: a08d cfbf fc30 71be 9a16 0ebd 6643 643f
00000050: 7411 98bf b06a c7bf be4c cd3e 92a6 abbe
00000060: 8553 413f a674 843e ee8a 8e3e 167f 85bf
00000070: 4332 813f 15ff aabf 4225 993f c075 a63e
00000080: 15e7 b33f f359 1540 8f6d ba3f df67 493f
00000090: aa55 ac3f 1f43 d53f a144 e33f 7e41 953f
000000a0: ccb8 b23f c302 eabd 0e6b 05bf 4ee9 7d3e
000000b0: cc53 6b3e 82f9 fd3e cadd a2bf df6a d6be
000000c0: 8b6a 8ebf a633 a43e f135 a03e c999 a33e
000000d0: 0a1f 4abf 7f2b 93bf 788d 263f dc61 7f3f
000000e0: 1d3a d13d e3cc d33f 3d54 1cbf f0c4 cd3f
000000f0: cb66 b03d 581e f43e bfc1 f03e fe17 a73f
00000100: 3889 c4be 92ef d13e 450c 743f a284 1140
00000110: 7b6b a3bf 76c6 bb3f 9013 a63e 7ee6 96be
00000120: ddf6 a4be 4b18 c9bf 3bcb c43e 1f8a 8a3f
00000130: a3de 1d3e 4a5c 763d a85c 3d3f 86af efbe
00000140: ddc2 073f 4750 2cbf 528c 77bf 6d80 19bf
00000150: 0cc1 45be 2d28 ba3f 4aa0 643d ce8d bd3e
00000160: 5801 4d3f bc7a 643d 4f43 343f cbe4 4dbe
00000170: e480 1140 5156 9fbf 7da1 d73d a1c9 3cbf
00000180: 38a3 ebbe 0119 ff3f cc0a f7be d59a 043f
00000190: 8ed8 893f 028f bd3f d96a 553e 74a1 58be
000001a0: 3e95 323f af01 bcbd 2f74 ae3f 68c9 c8be
000001b0: 4873 a9be 807a 5abe 3fa2 a1bf 4a2d 353f
000001c0: 3f79 8ebd 9af3 ed3e 940b 55bf 07c1 d5bd
000001d0: baba b03f d63b ab3e 3b2f 703f 5487 03bf
000001e0: d82d ab3f 6dc8 80bf c28a a53d 4b0c 303f
000001f0: 7518 02bf f84c 513f 20a8 cf3e 2035 1dbf
00000200: 041d 8fbe 961c 913f f19a d43f a2a6 6dbf
00000210: 7ae5 88bf 1762 2e3d fb9c 2e3e bd09 ce3f
00000220: 1780 92be 8852 1ebe 708f 70be cb5b acbd
00000230: fe7e 3abf 61bb 43be 2b6a 8e3f 8485 bb3e
00000240: d596 113f 7b84 143f 0c5a 3ebf 754f d73f
00000250: 0e28 193e d748 58be a41d a93a e853 313e
00000260: c75e e13e 0739 953e 4556 d0bf e7c6 973f
00000270: e05b 93be 9a4d 93be 4c2f f03f effa 203f
00000280: aac4 cbbf 4c15 0f3f 9c3f 75bf 5438 2cbf
00000290: f679 7f3f afc7 e5be 8fc3 17bf 29de 9cbf
000002a0: b5eb 65bf 49b8 843f 80db 553f 86b2 0dbf
000002b0: 0bd8 d33e 1750 6fbe ee92 be3e d001 3140
000002c0: 234e 10be 0416 2cbd 9b6f 0f3e ec89 1ebf
000002d0: e7b4 d53f 8657 373f 4ec1 b4bf 8be3 30c0
000002e0: ec24 bfbe e873 36bf d8e3 db3e a19c b33e
000002f0: 114e 97be f85b 513f cf60 8dbf 17e3 7f3f
00000300: 390f 113e 9249 2cc0 487c dbbe 740f a53e
00000310: 761c efbf 22d9 b03d a5f3 0bbf c9be 873f
00000320: be25 a6bc c92a 5d3f 64b0 973e b2db a63f
00000330: 374c 523f becb 4d3f a681 fc3d 9b2d 76be
00000340: 4e4e 01be 8d1d 7ebe eb83 153f a71d 42bf
00000350: 4df2 57be db0d 2fbf 7964 16bd 0593 7ebd
00000360: 3749 903f 66bd 4fbe 84c3 9fbe 3641 e23f
00000370: 4a1d 5640 f288 aebd 6556 f43e 6811 2c40
00000380: 948b 6d3f 1b0e edbd 3cb1 c1bf 43d2 d23e
00000390: e335 bcbf c788 8f3f 5ede 02be 7dea 863e
000003a0: 77a0 ad3e d782 153e 6ce9 9f3f 401a 05be
000003b0: 61e8 88be b38d b8bf 35b0 d3be 7101 25bf
000003c0: 09da 853f ebfe 83be a059 093f 2395 4540
000003d0: e2b2 5d3e 6db5 223f ff34 2c40 3354 7cbe
000003e0: 4e5c 4fbb aec9 b2bf 5f15 59bd 04c8 523e
000003f0: 256d 373e a20e fd3f 17db 3ec0 453b 813e

fc2.bias f4 [128]
-0.8701115 -0.11262897 0.8849745 0.6793302 -0.1630144 0.71897686 -1.2461641 -0.9331275
0.89388466 -0.8025179 -0.12514538 -1.3383168 0.0923989 0.3386384 -1.6521509 -1.2112311
0.47736102 0.7008468 -0.42955613 1.0570962 -0.6038954 -0.34909883 -0.5389811 -1.3275645
0.78399676 -0.2639849 1.1154151 0.17011873 0.6233738 -0.5438428 0.11439483 -0.029380929
1.5088526 -0.4651573 -0.86718446 -0.31350654 -0.12459189 -0.6072893 0.38081396 -0.22450827
-1.0813246 -0.31769204 -1.0813847 0.50805295 -0.55187255 0.44101253 1.0886176 -0.18343428
1.40442 0.10029357 -0.42916152 0.27048442 0.25708944 -0.25560462 -0.6887673 0.2884588
1.1876104 1.2565157 -0.4927056 -0.052130323 -0.08550207 -0.77437353 -0.034690067 -0.6148313
-1.4075626 0.3372919 -0.5946582 0.7586351 1.0707395 0.57983446 0.27908644 0.355165
-0.9185613 -0.49825996 0.90179545 0.22669737 1.017049 -0.5702588 0.010837717 0.6496999
-0.97835493 -1.64714 0.51227087 -0.47325447 1.15579 0.3713847 0.5500585 0.23337758
-0.33163318 0.25015694 0.44665104 0.91581154 -0.3768642 -1.2390556 0.54293126 0.25938934
0.24501036 0.60756826 -1.1316222 -0.08122795 0.049715053 -0.18860966 -0.58348316 -1.7286806
0.3103983 1.364057 -0.3967193 0.8225215 -0.20248653 -0.54529536 -0.47257012 0.25537723
-0.11173428 0.8095098 0.15944047 -2.2710574 0.81205434 0.7565698 -0.600903 -0.13711645
-0.22068802 1.0313097 0.81339216 0.27048767 0.5272172 -0.93044597 -1.0010434 0.78673923
00000000: a1bf 5ebf 04aa e6bd b08d 623f 96e8 2d3f
00000010: 3fed 26be de0e 383f 4e82 9fbf 72e1 6ebf
00000020: a0d5 643f d071 4dbf 1c26 00be f74d abbf
00000030: a23b bd3d 0362 ad3e ae79 d3bf 9f09 9bbf
00000040: aa68 f43e b26a 333f c8ee dbbe ee4e 873f
00000050: e498 1abf 15bd b2be aafa 09bf a2ed a9bf
00000060: 03b4 483f 0729 87be ecc5 8e3f 9b33 2e3e
00000070: 6d95 1f3f 4839 0bbf d647 ea3d 46b0 f0bc
00000080: 1522 c13f 1929 eebe cdff 5dbf ee83 a0be
00000090: 082a ffbd 5077 1bbf 0cfa c23e 7fe5 65be
000000a0: d868 8abf 88a8 a2be d06a 8abf c20f 023f
000000b0: 8547 0dbf 65cc e13e d257 8b3f 32d6 3bbe
000000c0: 09c4 b33f b766 cd3d 0fbb dbbe ef7c 8a3e
000000d0: 3aa1 833e 9cde 82be 0e53 30bf dfb0 933e
000000e0: 9e03 983f 82d5 a03f e943 fcbe 9b86 55bd
000000f0: b61b afbd 583d 46bf 2c17 0ebd 9665 1dbf
00000100: 032b b4bf 86b1 ac3e 853b 18bf e935 423f
00000110: fe0d 893f 0870 143f 6be4 8e3e 30d8 b53e
00000120: d526 6bbf ee1b ffbe 11dc 663f 5b23 683e
00000130: a92e 823f 7bfc 11bf ae90 313c bc52 263f
00000140: 7875 7abf 7cd5 d2bf 2f24 033f 694e f2be
00000150: edf0 933f 2326 be3e a2d0 0c3f 88fa 6e3e
00000160: d3cb a9be 9214 803e 72af e43e a072 6a3f
00000170: 58f4 c0be 6099 9ebf 8bfd 0a3f aece 843e
00000180: ffe3 7a3e 9889 1b3f ffd8 90bf d75a a6bd
00000190: 03a2 4b3d e422 41be 275f 15bf 6845 ddbf
000001a0: 87ec 9e3e 6b99 ae3f cb1e cbbe c590 523f
000001b0: a158 4fbe 7a98 0bbf b6f4 f1be cec0 823e
000001c0: f1d4 e4bd 093c 4f3f 5d44 233e 0159 11c0
000001d0: cbe2 4f3f 8fae 413f c7d4 19bf 4168 0cbe
000001e0: 0afc 61be f501 843f 783a 503f 5c7d 8a3e
000001f0: b5f7 063f b531 6ebf 3122 80bf be67 493f

fc3.weight f4 [2, 128]
-1.6040816 1.1942437 -2.6676197 1.9475355 0.32375616 0.9986968 -0.9433514 -0.38964513
1.8843802 0.9019599 0.6234024 -1.6953253 -0.597086 -1.7452234 1.1949562 -0.88976926
-1.8302757 -1.2585502 -0.79038376 1.9839197 -0.36215627 -1.378008 -0.044376515 -1.3258107
-1.3163792 -2.0745828 -0.2896937 -1.8079582 0.2633716 -1.871868 -2.0505142 -1.8272932
-1.3157076 -0.53551656 0.21545254 1.3296233 -1.56258 -1.6948798 -0.5729333 0.6155172
1.6999767 -2.1997206 0.19771692 0.29130107 1.1846607 0.5609637 1.5384629 -0.8879739
-2.2349072 0.8079187 1.8263779 -1.6744303 0.60728323 -0.30698204 -0.48015127 -1.9839052
0.513747 -0.5312101 -1.8341491 0.16682087 1.819028 -1.3629949 1.2521516 -1.4417825
0.69640356 -1.4741871 -1.1795255 0.52776307 0.64478284 1.2158418 0.8925982 -0.25907725
-0.55099005 -1.3292143 -0.20211111 -1.6364474 0.74915546 -0.35870942 -1.7940589 -1.1249827
-0.9849538 0.7738891 0.6994648 1.1228414 1.0850117 0.34771538 1.8660295 -2.7400103
1.3091509 0.5617058 -0.067483276 -2.2383096 1.55437 -2.307648 0.43760577 0.16727845
2.7452893 -0.76641375 -0.92149 -0.8262598 -1.6067307 -2.4908571 0.9143513 0.21087715
-0.41972092 -0.0067873816 1.3378325 0.92421836 0.41600385 0.8231411 2.3587806 -2.5033898
-2.0161877 0.90027875 1.2443416 -1.7011161 -2.5962956 -2.159872 -1.0382527 1.186131
0.7720859 -1.929416 -2.0900264 -1.6532917 0.5527074 -0.5417639 -0.76622623 -1.7924684
1.0924855 -0.74846625 0.95220894 1.9707401 0.4442215 1.5292475 -2.814408 2.1227355
2.5094635 0.79516584 2.316948 -1.8218616 1.686898 3.08289 -0.80806077 -2.094551
1.0993102 0.6442765 0.6254674 1.6745478 -0.8873766 0.5388218 -0.6670388 -0.42564768
0.08119869 1.966592 3.3570814 1.1742494 -0.7402536 0.95683444 0.30618352 0.49410582
0.06562087 3.2585256 0.86986727 -0.39171597 0.0041047484 0.42112574 2.493849 -0.2233543
-0.9607254 -0.12668982 0.5896619 3.0863419 0.01655581 0.9379243 3.9393651 -2.2159264
0.4761774 0.2379999 -1.2407552 -1.0202316 2.279494 2.0783944 -1.9244891 0.59091836
-0.6011549 2.7387395 3.383135 -1.3403445 0.09830698 -0.3634068 1.6707213 2.2710552
-0.58369106 0.20469025 -1.0232736 2.7712622 2.7901425 2.9595382 0.28316125 -0.392397
1.1390047 1.3775706 -0.3339368 0.2701528 3.0617359 -1.3691163 1.2573584 0.84894425
1.9461162 0.7146991 1.2146208 -0.5655157 2.797807 2.9113996 1.0285101 0.88948715
-1.4497837 -1.382135 3.8468356 0.33595422 0.4821941 -0.38417542 0.3137644 -0.48400477
0.2999945 3.160813 0.91649264 -0.90385514 1.0064365 0.8189606 1.5994579 2.346667
3.1598024 3.3241272 0.77951926 -0.21540238 1.21217 0.5665296 -1.9655527 0.4592194
0.56813544 -0.7373056 0.009376138 0.09463505 0.48674676 0.94001365 -1.0293337 0.49547088
0.81735957 -0.46892574 1.4412657 -0.28799012 1.2481142 0.41535008 1.2333072 0.41557944
00000000: 8c52 cdbf fadc 983f 48ba 2ac0 d848 f93f
00000010: 5ec3 a53e 98aa 7f3f 7a7f 71bf 917f c7be
00000020: 5f33 f13f d8e6 663f 4d97 1f3f 6b00 d9bf
00000030: a1da 18bf 7b63 dfbf 53f4 983f ebc7 63bf
00000040: 7946 eabf 2c18 a1bf 9756 4abf 15f1 fd3f
00000050: 8c6c b9be 9162 b0bf 26c4 35bd 2ab4 a9bf
00000060: 1d7f a8bf f7c5 04c0 bc52 94be 2d6b e7bf
00000070: a4d8 863e 5f99 efbf a03b 03c0 bee4 e9bf
00000080: 1b69 a8bf 9d17 09bf 979f 5c3e 1931 aa3f
00000090: 9f02 c8bf d2f1 d8bf c2ab 12bf 8992 1d3f
000000a0: d698 d93f 39c8 0cc0 4e76 4a3e 6a25 953e
000000b0: f6a2 973f 519b 0f3f 5aec c43f 4252 63bf
000000c0: b808 0fc0 c3d3 4e3f c0c6 e93f bb53 d6bf
000000d0: ea76 1b3f c02c 9dbe 63d6 f5be 9bf0 fdbf
000000e0: ec84 033f 63fd 07bf 66c5 eabf 17d3 2a3e
000000f0: e9d5 e83f 9e76 aebf 8146 a03f 548c b8bf
00000100: 8147 323f 2ab2 bcbf b1fa 96bf 7b1b 073f
00000110: 7d10 253f b4a0 9b3f 5181 643f c6a5 84be
00000120: af0d 0dbf b223 aabf 37f6 4ebe 1c77 d1bf
00000130: a7c8 3f3f c3a8 b7be b9a3 e5bf 6fff 8fbf
00000140: ef25 7cbf 991d 463f 2010 333f 44b9 8f3f
00000150: aae1 8a3f c007 b23e 0eda ee3f 545c 2fc0
00000160: 4292 a73f f4cb 0f3f ac34 8abd 7740 0fc0
00000170: 99f5 c63f 81b0 13c0 dd0d e03e 0b4b 2b3e
00000180: d2b2 2f40 b133 44bf c5e6 6bbf c385 53bf
00000190: 5aa9 cdbf 346a 1fc0 ed12 6a3f 2ef0 573e
000001a0: a9e5 d6be af68 debb 183e ab3f 9399 6c3f
000001b0: 75fe d43e 60b9 523f 43f6 1640 8a37 20c0
000001c0: 3809 01c0 ab78 663f 9646 9f3f 2cbe d9bf
000001d0: b529 26c0 583b 0ac0 77e5 84bf 24d3 973f
000001e0: 6ca7 453f 1af7 f6bf fec2 05c0 109f d3bf
000001f0: 3b7e 0d3f 0ab1 0abf 6727 44bf 9b6f e5bf
00000200: 91d6 8b3f 7c9b 3fbf f7c3 733f 3641 fc3f
00000210: 0071 e33e 62be c33f 431f 34c0 e6da 0740
00000220: 0d9b 2040 fd8f 4b3f e048 1440 c332 e9bf
00000230: 46ec d73f 124e 4540 12dd 4ebf 200d 06c0
00000240: 32b6 8c3f 4eef 243f a21e 203f 9557 d63f
00000250: 1d2b 63bf 3af0 093f 0ec3 2abf 7eee d9be
00000260: 804b a63d 49b9 fb3f 6cda 5640 ce4d 963f
00000270: 4381 3dbf 1af3 743f 16c4 9c3e 70fb fc3e
00000280: 3c64 863d af8b 5040 9faf 5e3f ff8e c8be
00000290: 2081 863b cb9d d73e 399b 1f40 fdb6 64be
000002a0: 1af2 75bf faba 01be 15f4 163f a086 4540
000002b0: 0da0 873c cf1b 703f 8f1e 7c40 bdd1 0dc0
000002c0: 86cd f33e 3fb6 733e 11d1 9ebf f396 82bf
000002d0: 3be3 1140 6a04 0540 a955 f6bf 6d46 173f
000002e0: 4ae5 19bf 8247 2f40 4985 5840 6990 abbf
000002f0: 2c55 c93d 7510 babe 32da d53f f858 1140
00000300: c76c 15bf 529a 513e a1fa 82bf 5c5c 3140
00000310: b291 3240 1369 3d40 83fa 903e 42e8 c8be
00000320: e8ca 913f 3c54 b03f c4f9 aabe 7851 8a3e
00000330: 7bf3 4340 343f afbf 1ff1 a03f 6954 593f
00000340: 561a f93f 85f6 363f b278 9b3f a3c5 10bf
00000350: 450f 3340 5f54 3a40 38a6 833f 6eb5 633f
00000360: 8392 b9bf cde9 b0bf 8e32 7640 3102 ac3e
00000370: 25e2 f63e a4b2 c4be baa5 a03e 79cf f7be
00000380: e198 993e c34a 4a40 439f 6a3f 0d63 67bf
00000390: e9d2 803f 67a7 513f 09bb cc3f cb2f 1640
000003a0: 343a 4a40 80be 5440 938e 473f 7192 5cbe
000003b0: 6328 9b3f 1508 113f 3b97 fbbf ce1e eb3e
000003c0: 5371 113f 0fc0 3cbf 609e 193c 05d0 c13d
000003d0: df36 f93e bca4 703f 35c1 83bf 5cae fd3e
000003e0: 7a3e 513f 0917 f0be 657b b83f 7173 93be
000003f0: 35c2 9f3f c4a8 d43e 03dd 9d3f d4c6 d43e

fc3.bias f4 [2]
-0.7624647 0.24194507
00000000: e330 43bf 73c0 773e
