training_output/best_agent/checkpoints/episode_639/weights_critic.pth (torch_old, 84182 bytes, 9 tensors)

fcs1.weight f4 [128, 24]
00000000: 0359 3b3e 9876 ce3c 1598 053d ec39 d03e
00000010: 12b7 1cbf ff49 443e 587b 7bbd e488 d83e
00000020: 4e01 653e 7bd3 b43e 5617 b4bc 1cec be3b
00000030: 6bf5 6cbf 86e8 6fbf 9d16 043d 93eb 4d3d
00000040: 88b1 433f d991 b73e 7736 6b3d 4394 45be
00000050: a277 37bf 0370 1fc0 757e 99bb e146 16be
00000060: 0736 0b3f 7843 ab3f 4b5f d4bd b11f e4be
00000070: 7818 bcbe 5a00 1fbe 7f32 c4bd cfa7 c0be
00000080: d9b1 2e3f c86a 1a3f 5bf2 cd3d cad6 0abd
00000090: d728 f4be b155 643d becf 0c3e a51a b33d
000000a0: 96da 573f cf97 423d 578f 81bd 5500 b5be
000000b0: 0e72 93bf 31c4 a83e 8a75 f3bd a27f e9be
000000c0: 8b6e 11be a621 b03e 03f4 043c 5419 1d3e
000000d0: 297a 56bf f648 b03f eeb1 dbbb 1172 4d3e
000000e0: 91c9 47bc b51e 2a3f ab63 22bc 9425 c13c
000000f0: b678 9e3c a4e1 8a3d e571 b1bb e793 d3bc
00000100: 8fc9 3c3d a52f 333f d028 383d 84c0 9c3e
00000110: c628 623f 0435 fcbf 9e60 66bd 0f7b 933e
00000120: 43b8 d3be 7b45 c53d bc4b 91bd 307e 28bf
00000130: f3d5 d03e 4284 d4be 0f56 cc3c e18e 16bf
00000140: be83 35bf eec7 823b f29e 35bd d84c 60bf
00000150: 475c fd3e a50f 79bd 7eb2 2cbe bd82 5ebf
00000160: 7980 66bf 7ebc 07bf 2d51 07be a4e2 37bf
00000170: 3d81 243f 28b7 afbe f429 a6bd 6ce4 59bf
00000180: f349 8abf cf65 21bf 9742 04bb 8ac2 053d
00000190: 4a78 403e 6f4b 39be dd32 f2bd 92e8 66bd
000001a0: 5668 0ebf 2176 c2be a11f 9a3c e3d4 083f
000001b0: 0408 8e3e c1bd 13be b8f9 853d afa0 263f
000001c0: 0204 24bf 6af9 f2be 3d25 2b3d 04ae bbbe
000001d0: da0f 613d 7518 1440 042d 193e 8f5b bfbe
000001e0: 8db0 07be 1f1d 953f 4772 c3bc cd92 e73d
000001f0: 4bb9 a33e 5206 3bbf 5efe a7bc 00d2 033e
00000200: ef70 9fbe dbe8 583f 021e 99bd 3292 d13d
00000210: ec96 da3e 84db b0bf 7f36 923d b909 d83d
00000220: 4d98 92bf 5367 943f 7a1d abbd 39cb ce3d
00000230: e396 843e 819c d4bf 0fae 393d 7732 113e
00000240: 96d9 583e 0830 8b3f addd 1ebc 5d60 0abf
00000250: 6416 8b3e e354 73bf 8b42 adbd 9b3e 05bf
00000260: 84cd 373e d5fd 443f d74b efbc 15bc 91be
00000270: b466 063f fc9c dfbf 2be3 e83c c8ea 50be
00000280: 6812 383e 3373 72be 96a7 823e 56b4 07bf
00000290: f7f7 ba3e 9349 25c0 240d 6f3e 79dc 17bf
000002a0: ccfe 14be e1ce 6cbe 3b21 fbbc 8c5f 233c
000002b0: 889b 7e3f 2158 2d3e d436 e23c 51bc 04bd
000002c0: 4323 d5bc dd10 d83d 0ae7 6e3c 753f c8bb
000002d0: 6ee3 2f3f 8ce6 1a3f 74a1 0dbd ac30 71bc
000002e0: c365 b63e 1c74 23be 25c5 06bd 3ca0 193d
000002f0: 9d29 fbbf 9b64 d4bd e0f8 00bb 5d2b 3cbd
00000300: 76de b63d 0201 82bf eba4 b73c c6f5 ae3c
00000310: 2e1e fbbc 4446 6a3f 10c8 2dbd e395 d33d
00000320: a0de cb3e e81c b2bf 1db4 e73c 08d5 53bd
00000330: 7a69 183d 99ba ab3f ab33 17bd 9e16 b5bd
00000340: 211f 1f3f 9028 dabf ff89 8d3d 6d2c a3be
00000350: 5ed0 23be ab89 e23f 0ced 32bd 57e7 b6be
00000360: b3b3 10be 0dce 94bf a4ae bb3e d2e9 033f
00000370: 67d4 463f 2124 04bf 89b2 bd3e c226 ec3e
00000380: a767 21be 5497 6dbf fcb5 5cbd e303 833c
00000390: 4d3d 473f 2b40 8abe 2713 16be 10c9 133e
000003a0: 375f 03bf 656e 85bf c8be dfbd 3351 03bf
000003b0: 9ca3 923f 9c33 2cbe fca2 84be fd7c e9be
000003c0: b073 ad3f 66c0 003f 0ea9 2fbe e9bc 353f
000003d0: e02e 153e 5cfb 11be 2bc9 01bd 97b5 263f
000003e0: d4b2 623f c5b2 363f 3451 5cbd f811 873d
000003f0: 142d 5c3d b5bd 1a3d efd5 25bd 6c37 c23c
0.18295674 0.025203034 0.03261574 0.4066919 -0.61216843 0.19168852 -0.061396927 0.4229194
0.22363779 0.35317597 -0.021983784 0.0058264863 -0.9256198 -0.9371418 0.03224813 0.05027349
0.76442766 0.3585346 0.05742499 -0.19294839 -0.7166692 -2.4912117 -0.0046842643 -0.14675476
0.54379314 1.3379965 -0.10369738 -0.4455543 -0.36737418 -0.15527478 -0.09579944 -0.37628028
0.68240124 0.60319185 0.10055991 -0.033896245 -0.47687408 0.055745784 0.13751122 0.087453164
0.8431791 0.047508057 -0.06326168 -0.35351816 -1.1519182 0.32962182 -0.11887653 -0.4560519
-0.14202325 0.34400672 0.008114818 0.15341693 -0.8378015 1.3772266 -0.0067045605 0.20063044
-0.012194053 0.66453105 -0.009911458 0.023577489 0.019344669 0.06781319 -0.0054151886 -0.025827361
0.04609066 0.69994575 0.044960797 0.30615628 0.88343465 -1.9703679 -0.056244485 0.28804824
-0.41351518 0.09632393 -0.07094523 -0.65817547 0.4078823 -0.41507155 0.02494338 -0.58811766
-0.7090415 0.0039911186 -0.044341035 -0.87617254 0.49484465 -0.060805935 -0.16864964 -0.8691824
-0.90039784 -0.5302199 -0.1321456 -0.718302 0.642597 -0.34319425 -0.08113471 -0.8511417
-1.0803818 -0.6304597 -0.0020181292 0.03265623 0.18795887 -0.18095182 -0.11826108 -0.05637414
-0.55627954 -0.3798075 0.01881391 0.5344984 0.2774049 -0.14427854 0.06541771 0.65088934
-0.64068615 -0.47455913 0.04178356 -0.366562 0.054946758 2.3139927 0.14958578 -0.3737454
-0.13250943 1.1649512 -0.023858203 0.11307297 0.31977305 -0.7305652 -0.020507034 0.12873077
-0.3114085 0.8473031 -0.07476427 0.10232963 0.4269327 -1.3816991 0.071393006 0.105487294
-1.1452729 1.1594032 -0.083552316 0.100973554 0.25896367 -1.6610261 0.04533201 0.14179407
0.21176752 1.0874033 -0.009696406 -0.5405329 0.2716552 -0.950514 -0.08459958 -0.52048653
0.17949492 0.76949817 -0.029210968 -0.28463808 0.5250046 -1.7469783 0.028428635 -0.20402062
0.17975771 -0.23676758 0.25518483 -0.53009546 0.36517307 -2.5826156 0.23344857 -0.5932079
-0.14550322 -0.23125793 -0.030655494 0.009971511 0.9945607 0.1692815 0.027614035 -0.032406155
-0.02601779 0.105500914 0.014581451 -0.0061110803 0.68706405 0.60508037 -0.0345778 -0.014721077
0.35624513 -0.15962261 -0.032902855 0.037506327 -1.9622074 -0.103707515 -0.001967959 -0.045939792
0.0892915 -1.0156558 0.022417506 0.021357428 -0.03065404 0.91513467 -0.042427123 0.10331323
0.39818287 -1.3915071 0.028284127 -0.051716834 0.037209965 1.341632 -0.03691451 -0.088422045
0.62156874 -1.7043629 0.06911086 -0.31869832 -0.15997455 1.7698263 -0.043683097 -0.35723373
-0.1413105 -1.1625382 0.36656678 0.51528656 0.7766785 -0.5161763 0.37050274 0.4612332
-0.15762196 -0.92809033 -0.05388449 0.015993064 0.7782791 -0.2700208 -0.14655744 0.14432168
-0.5131716 -1.0424315 -0.109250605 -0.51295775 1.145618 -0.16816562 -0.25905597 -0.4560317
1.355093 0.50293577 -0.17154333 0.7099138 0.14568663 -0.14256042 -0.03168599 0.65120834
0.8855412 0.7136653 -0.05378838 0.06595224 0.053753927 0.037778575 -0.040487226 0.023708068

fcs1.bias f4 [128]
00000000: 2a5b d03e 86d9 12bf 1840 15bf dcaa 95bf
00000010: 2ba5 09c0 dc5a 693f 6031 3fbd 2342 0cbf
00000020: da71 f8be 564c b9be 6a93 38bf d561 1abf
00000030: 8240 ab3e d96b 2fbe 94a7 ef3e bc27 10be
00000040: 47e1 cabb 7880 1abe 187e 7bbd 5478 e33d
00000050: a01f c8bf ca74 5fbf e286 b43e bec9 d0be
00000060: 9972 d1be ff22 20be c47c d3bf f767 f7bd
00000070: c0db 223e e22d bebf 2018 77bf 8a77 02c0
00000080: f335 25c0 ccea fbbf 2da9 f9be a2cd 86c0
00000090: d944 18bf 0cb1 503f 548e ad3f eaec 42be
000000a0: d8c0 7abf b217 0abf 3538 14bd dccf 0dbf
000000b0: c77d afbe d5df 933f 9a45 16bf 94ad dcbe
000000c0: 2dba 55bf d1ce b9be 8e6c 54bf 67bf f73e
000000d0: 8947 b1bc 2958 c8be 0d0a adbf 0cc6 71be
000000e0: 676a 843e 185c 1c3e ffbe 25be 6389 13be
000000f0: 7719 5bbd 9ea0 e9be 33c9 04bc 1333 0cbf
00000100: 9823 053e 4622 7ebf f48d 27be fd27 313f
00000110: 5104 043e d185 c6be b875 fdbe 02fe 1cbf
00000120: bdb7 d5be 1aee 243e c34c f2be 3319 b33f
00000130: 997a 9e3d 573a 74be 7544 d7be 1dee fdbe
00000140: 77ff f1be 2dcb 263f 0242 c33e a7ef 88bf
00000150: 535c f5be 4a2f 4d3e 457d ee3b 94d5 ff3c
00000160: 0b06 0fbf 31b3 973c fb41 9dbe d331 41bf
00000170: e87d 2dbe ddba 803e 9709 713e 731f ccbe
00000180: c562 f8be d111 bbbe 6e0d 8a3e 9a9e 86be
00000190: 9d4d e5bf 07d2 de3e 790d a73d 7624 3abf
000001a0: ca4a 8fbf 02da 38bf c935 84be a324 af3f
000001b0: b23a a43e b79a 393d f744 d33d 1b08 233e
000001c0: 6308 93bf 0abd d3bf 90ae 73bf b732 a53b
000001d0: 0eb3 213e fcb5 8abf 3832 093d b4ae d6bf
000001e0: fc14 81be fa97 50bf 7d59 2d3f d780 bdbf
000001f0: 53f7 ef3e 4278 afbf 4ec7 c33e a754 023f
0.40694553 -0.57363164 -0.58300924 -1.1692767 -2.150706 0.91154265 -0.046677947 -0.54788417
-0.48524362 -0.36191052 -0.72099936 -0.6030553 0.33447653 -0.17130984 0.4680754 -0.14077657
-0.006191406 -0.1508807 -0.06139955 0.11106935 -1.5634651 -0.8728758 0.35259157 -0.40778917
-0.40907744 -0.1563835 -1.652245 -0.120803766 0.1590414 -1.4857752 -0.96521187 -2.038546
-2.5814178 -1.9681029 -0.48761883 -4.2126017 -0.59480053 0.8152015 1.355906 -0.19035688
-0.97950506 -0.53942406 -0.036186416 -0.55395293 -0.34275648 1.1552683 -0.58699954 -0.4310118
-0.83487207 -0.362906 -0.8297814 0.48388216 -0.021640556 -0.3912976 -1.3518692 -0.23610705
0.2586243 0.15269506 -0.1618614 -0.14407878 -0.053491082 -0.45630354 -0.00810461 -0.54765433
0.13001859 -0.9927105 -0.16362745 0.6920164 0.12892272 -0.3877397 -0.49503875 -0.61325085
-0.41741744 0.16106454 -0.4732419 1.3992065 0.077382274 -0.2385038 -0.42044416 -0.4959573
-0.47265217 0.6515377 0.38136297 -1.0698136 -0.47922 0.2003757 0.007278117 0.031229772
-0.55868596 0.018518062 -0.30714402 -0.7546665 -0.1694256 0.25142565 0.23538814 -0.39867744
-0.48512855 -0.3653703 0.2696337 -0.26292878 -1.7914311 0.43519613 0.081568666 -0.72711885
-1.1194699 -0.72207654 -0.25822285 1.3683056 0.3207603 0.045313563 0.103158884 0.1592106
-1.1486934 -1.6542065 -0.95188236 0.005041446 0.1579096 -1.0836787 0.033495158 -1.6772065
-0.25211322 -0.814819 0.67714673 -1.4804944 0.4686838 -1.3708575 0.38237995 0.5091042

bn1.weight f4 [128]
00000000: 6471 263e 0ec7 443d e5e1 f43d 91b0 bd3d
00000010: 759d 6e3d 7220 5f3e 1cca 173e e0f8 f93e
00000020: fc4a 7e3e 3e50 2f3e 431c 46bd 4846 933d
00000030: 2b54 813d 734a f4bb fb46 9c3e 5dd4 183f
00000040: a251 603d 5ce0 c83d 4e69 a53e a0ab c63d
00000050: 05db 5a3e 1b6a 4c3c 88c2 1d3e 5682 3d3f
00000060: b3b1 423d 862d e33d ae20 2b3f 4a95 913b
00000070: 8468 a63d 8f07 753f 7285 2c3e fbcf e83d
00000080: 4fbd 7f3e 7611 003e 9231 083e 224e aa3e
00000090: 83b1 1b3f b755 483e 31e1 833d 918f 203e
000000a0: 9098 b93d efdf 1e3b 3084 a93f fde5 4c3d
000000b0: 8ea1 eb3c 2972 573e 7afc 0a3d 89f1 0a3e
000000c0: 8984 113e 063e f63d 6d03 a63c c0a0 d03d
000000d0: 8186 8b3e 62af eb3e 83aa c23d e780 a83f
000000e0: 98c5 063e a568 2f3d 8b8d 343e 2caa 613e
000000f0: 0408 013e 309d 143e 7233 3a3d 789a dc3d
00000100: 495b 543d 8e9c 8c3f 7f50 763a 7533 9b3d
00000110: 79bf 623d 7578 803d 7483 053e 6730 083e
00000120: 7c02 363e 7827 c4bd 2e0f e23d d1dc f73e
00000130: 4df1 6b3d 1f4d d53e 3e4d a33e 3a5b 2a3f
00000140: d269 4c3e 014e a63d 95ed a43d 3fbe 0d3e
00000150: 3952 bd3c 338a cbbb 0185 0d3e d5ba 9a3e
00000160: 42fd 293d 101a a73d f664 713f f9cd d53d
00000170: 2db5 7d3b 5e86 ab3f 1752 d23e 4fd5 c33e
00000180: 2b03 723d 002d 6c3d 77be 693d ba03 a63e
00000190: a20e 103f 37a0 c53d feaf 273e c75f f83c
000001a0: 3014 be3d 1eee af3b e029 b43d 8a45 1e3f
000001b0: 81ae 6e3b cff6 693e fc03 293b d0b6 bc3d
000001c0: b352 013e 173e 7d3e 25e5 8b3e 8d8f c73d
000001d0: 8c1d 733d fe88 063e b1d3 0e3f e5c9 923e
000001e0: fe4c 463d 8de1 4a3e 47fb c73e f9ee 5d3f
000001f0: d3cb e53d 0abc db3d 6042 f23e 9cd7 da3c
0.16254193 0.048041396 0.119571485 0.09262193 0.05825563 0.2178972 0.14823192 0.4882269
0.24833292 0.17120454 -0.048366796 0.071911395 0.06314882 -0.007455164 0.30522904 0.5969904
0.05476535 0.09808418 0.32306904 0.097007036 0.21372612 0.012476469 0.15406239 0.74027
0.04753275 0.11092667 0.6684674 0.0044428455 0.081254035 0.9571466 0.1684778 0.11367794
0.24974559 0.12506661 0.1330016 0.33262736 0.60817736 0.19563948 0.06439436 0.15679766
0.09062302 0.0024242362 1.3243465 0.05002402 0.028763559 0.21039642 0.033932187 0.13568701
0.14210714 0.12023549 0.020265305 0.10186911 0.27251056 0.46032244 0.09505179 1.3164338
0.13161314 0.042824406 0.1763212 0.22037572 0.12600714 0.14513087 0.04545922 0.1077165
0.05184487 1.0985277 0.000939615 0.07578174 0.055358384 0.06272975 0.13038427 0.13299714
0.17774385 -0.095778406 0.110380515 0.48410657 0.05760317 0.416604 0.3189487 0.6654545
0.19962242 0.08120347 0.08053128 0.13842104 0.023110496 -0.006211543 0.13820268 0.30220667
0.04150129 0.08159268 0.9429468 0.10439677 0.0038712726 1.3400381 0.41078255 0.3824868
0.059085052 0.057660103 0.057066407 0.32424718 0.5627233 0.09649699 0.1637573 0.030319108
0.09281194 0.005368962 0.087970495 0.6182486 0.003641993 0.22848056 0.0025789728 0.09214556
0.12629203 0.24730717 0.2732326 0.09744177 0.05935435 0.13138196 0.55791765 0.28669658
0.04841327 0.19812603 0.39058897 0.8669277 0.11220517 0.10729225 0.47316265 0.026714139

bn1.bias f4 [128]
00000000: ad6e b13b dcd0 203c 34e5 a6bc 1050 193d
00000010: 5240 c83b b21a 3a3d 4eac 733d 00de bb3e
00000020: ab45 5a3e c229 f13d 4461 89bb 2246 9b3c
00000030: 2970 a13b 7213 453b 950a 083e d240 253e
00000040: 372e 683b e531 8d3d bdfe 673d a1ae d33b
00000050: 490e 963d aa17 383b 1add fe3d 116e 6d3e
00000060: b00e db3b e9e1 653d 98ad f03e 7350 153b
00000070: e265 873c fa7d 043f 7694 3f3d 460b e2bc
00000080: 509b a03e cb5f 183d 986c fdbb 1071 543e
00000090: 058e db3e 5556 a73d 8043 983c 5da6 b73c
000000a0: eeea 2f3c 7a37 0dbb 1439 173f ee76 64bc
000000b0: 4097 f33c d9ad b9bb a25e 1abc 2c45 883d
000000c0: 3639 213d a1d5 0d3d 0e95 703c e36d 9f3c
000000d0: f0de 493e 616b 853e 58c3 0a3b 371f 123f
000000e0: a1d4 253d 1092 0d3c 101e 913d a397 fb3d
000000f0: 39f7 513d cbaf 693d 3ce5 623c 5840 443d
00000100: 0752 9c3c e813 263e d919 b9ba b5c8 b23c
00000110: 9c75 9c3c 1c8d 9b3c 1dba 9a3d 04fb 273d
00000120: 9a1c c03d a08f 1ebd b8b7 1f3d 67a3 9ebd
00000130: 8f4e 783b bd9e 7c3e 599a 643d 74eb 053e
00000140: e3d2 4f3d bc22 ab3c 60c8 7abb 6bb9 6d3d
00000150: 34fc 843b 1e90 133a 56d3 a73d 7e1a 2c3e
00000160: 514b 303c cbb0 843c fbb9 e03e 3dcb 233d
00000170: f284 fb3a 9a09 163f 6155 953e 6b42 953e
00000180: 5c8e 1c3c c611 e939 908d 513c 6ca4 8a3d
00000190: e9d6 c63e b625 8d3c be27 b83d 8ef1 993b
000001a0: 2629 293d 59e6 11bc 79a9 1c3d dbdf 0d3f
000001b0: 29c4 93ba fd53 913d fa23 1bbb 1f3f 143d
000001c0: 7967 613d 6e23 813d a711 7e3d b5b2 133d
000001d0: a4e6 8b3c da77 a9bd 2e5f e83d 1dff 333e
000001e0: aaad 033d 03b4 ed3d 8ce0 b63d 80a3 203f
000001f0: 6940 583d 9c6f 52bb 67fa 25be e498 913b
0.005414805 0.009815421 -0.020372964 0.03742987 0.006111183 0.045435615 0.059490494 0.3669281
0.21315639 0.11775543 -0.004192503 0.01895434 0.0049267006 0.0030071405 0.13285287 0.16138008
0.0035427937 0.06894282 0.05663942 0.0064600264 0.073269434 0.0028090277 0.124445155 0.23186518
0.0066851005 0.056123648 0.47007442 0.0022783547 0.016528074 0.51754725 0.046772443 -0.027593266
0.31368494 0.03720073 -0.0077338926 0.20746255 0.4288179 0.081707634 0.018586874 0.022418195
0.010737164 -0.002154796 0.5907147 -0.013944371 0.029735208 -0.005666476 -0.009421976 0.066538185
0.0393612 0.03462756 0.014683975 0.019461578 0.1971395 0.26058486 0.0021173563 0.5707888
0.04048598 0.008640781 0.07085812 0.12284782 0.05126116 0.057052415 0.013848599 0.047912925
0.019082082 0.16218531 -0.0014122083 0.02182422 0.01909905 0.018988185 0.075550295 0.04101087
0.09380455 -0.03871119 0.038993567 -0.0774601 0.0037888621 0.24669929 0.05581126 0.130781
0.050738227 0.020890586 -0.0038266405 0.058038156 0.0040583853 0.000562908 0.08194606 0.16806981
0.010760144 0.016197583 0.43891892 0.039988745 0.0019189401 0.586084 0.291667 0.29152235
0.0095554255 0.00044454465 0.012790099 0.06769642 0.38835838 0.017229896 0.08991955 0.004697985
0.041299008 -0.008905017 0.03824756 0.554197 -0.001127367 0.070960976 -0.0023672567 0.03619301
0.05503032 0.06305586 0.062028553 0.0360591 0.017077751 -0.08274813 0.11346279 0.17577787
0.03214804 0.116066 0.08929548 0.6274948 0.0527958 -0.0032109981 -0.16208802 0.004443275

bn1.running_mean f4 [128]
00000000: c5d7 3c3f 4652 773f 92e4 363f a72c 3141
00000010: c5f4 b441 e140 ab3f e072 0440 95ab d23f
00000020: 8055 2541 dcef 3441 3503 c43b b10b 463f
00000030: d902 c53e af39 c240 674a eb3f 6a4b a041
00000040: 89aa 743f 85b3 7e41 3361 9f3d f9c3 093f
00000050: ab43 6e40 ab15 ad40 7705 db40 b603 9b3f
00000060: fbf7 803f cf30 e440 4fc7 4941 cd4c 1640
00000070: d990 7040 2ec1 9641 4837 fb3f d08d 6e41
00000080: 0fb9 ab41 ae36 d23f 6bc0 ca3f a64a 9440
00000090: 84e8 df40 a270 e940 8be3 413f de9f 0640
000000a0: 42da 7c41 c8a4 703e 4890 f341 6e93 d63f
000000b0: 2a7b 9e41 d3ed 1a40 3423 433f dea9 5e40
000000c0: 878b a741 d993 c33f dfb2 8540 74a1 0240
000000d0: a76d e240 5264 5240 e6e8 ab40 280c df41
000000e0: 2d22 9c3f 7631 d03f 191d 3e40 a6b1 7740
000000f0: 354d 9f3f 5c66 1740 4d0c 6a41 c619 0a41
00000100: ffa1 4040 bb87 5841 c6b4 9f40 5e99 853f
00000110: 1b87 aa40 38a3 563f 2e8c 0d41 8bbc 9f3f
00000120: 9b72 1341 ccc1 c13f 5316 e73f b92c 3640
00000130: bfb8 f040 144b 6140 9c69 403f 3003 c33e
00000140: ca89 6d3f f511 7f3f a8bd 2440 2622 2c40
00000150: d02a 8a40 319b 7a41 ed10 0141 72de a040
00000160: 7a82 a440 7117 cd3f 8087 7141 cc57 2840
00000170: 036f 3c41 ec39 fb41 a2f2 5141 1c11 a340
00000180: 0e77 0c40 c280 dd3a 8c52 e840 e821 723f
00000190: ea7f 8740 61cb 3d3f 0b0a a940 fac7 f13e
000001a0: 34c8 e640 88ff ba41 12e4 5840 0652 3440
000001b0: eeac a141 f003 4f3f f0df e340 f482 9340
000001c0: c5cb 8c40 84a9 453f 8abf a43e 2d26 4740
000001d0: 39e4 1340 d711 e641 0d34 9c3e e90f 0a40
000001e0: 573e 8d40 b3d2 a640 c50f f53e 5b45 b941
000001f0: c8a6 e840 1c40 7d40 0c05 8f41 1f22 763f
0.7376674 0.96609914 0.7144252 11.073401 22.619516 1.3379174 2.0695114 1.6458613
10.333374 11.308559 0.0059818276 0.7736159 0.38478735 6.0695415 1.8382081 20.036823
0.95572716 15.918828 0.07782211 0.53814656 3.7228801 5.408895 6.844417 1.2110507
1.0075678 7.130958 12.611159 2.3484375 3.7588408 18.844326 1.9626245 14.909622
21.46536 1.6422937 1.5839971 4.6341124 6.9971333 7.294999 0.7573783 2.1035075
15.803286 0.23500359 30.44545 1.6763742 19.810139 2.4207656 0.7622559 3.4791179
20.943129 1.5279495 4.178085 2.0411043 7.0758853 3.287373 5.37218 27.880936
1.219793 1.6265094 2.970526 3.8702178 1.2445437 2.3656225 14.628003 8.631292
3.0098875 13.533137 4.990817 1.0437429 5.3289924 0.838428 8.846724 1.2479414
9.21548 1.5137267 1.8053688 2.8464797 7.522552 3.5202074 0.7516115 0.3808837
0.92788374 0.99636775 2.5740757 2.6895843 4.317726 15.662889 8.066632 5.027154
5.1409273 1.6022779 15.095581 2.6303587 11.777102 31.403282 13.121737 5.0958385
2.1947665 0.0016899335 7.2600765 0.94582987 4.2343645 0.74138457 5.282476 0.47222883
7.211939 23.374771 3.3889203 2.8175063 20.209438 0.80865383 7.121086 4.6097355
4.399874 0.77211785 0.32177383 3.111705 2.3108046 28.75871 0.30508462 2.157221
4.41386 5.21322 0.47863594 23.158865 7.270359 3.957038 17.877464 0.96145815

bn1.running_var f4 [128]
00000000: e596 d340 8d15 4f41 739a d63f 32fa 1843
00000010: 3620 e942 a09e 5541 6e81 e441 c251 9040
00000020: 7a91 3e42 10d4 4c43 8066 6c3c 4a38 bf40
00000030: 9ef8 6140 3fe6 0143 d07e 8941 ff5e 2844
00000040: 5fae d340 c0cf d143 4e1c f23e 5929 d140
00000050: a2b7 cb41 e9a7 ba42 54d7 2f42 3890 5141
00000060: 8ebb 8041 75a4 0f43 717f 7243 453d 1542
00000070: e655 7842 b2a6 0244 0a87 eb41 02bb 2c43
00000080: ee52 2e43 bb91 2741 e2c7 2c41 434e c041
00000090: 5a75 c042 333c dc42 d1fe 8c40 1bc7 b341
000000a0: 5c8c 9743 b727 d23f 913e a644 4b8e 1341
000000b0: e488 2644 927c 9441 0d87 d640 649c 2542
000000c0: 6271 0443 17bf b241 3c8f a642 06ac 1c42
000000d0: 7dd2 8842 0423 0142 b1f5 3742 bd8e 8f44
000000e0: 5fab 2741 abaa d841 74d2 3f42 cafb 1642
000000f0: bb87 0f41 36f7 e741 cf4d b443 9ef8 2843
00000100: 5891 6742 600d 8b43 0fc9 7a42 af67 1341
00000110: 80ca 5f42 f470 e140 29dd 5043 f616 5a41
00000120: 616c 4c43 62de 4341 8c6c eb41 bc97 8f40
00000130: 5a40 2f43 80c0 fb41 3157 2641 76a5 8340
00000140: f138 2c41 4050 2941 2041 bc41 205b 0442
00000150: e8c2 a342 a02f 5b42 cb7b 1743 2fcd b142
00000160: 8076 b242 2b45 9741 e5bf 9143 62db dc41
00000170: 3bee 9843 fdcf ab44 0f2d 4343 f8d2 1b42
00000180: f51a 0542 4d16 6d3b bcc4 cd42 71db 4641
00000190: 7233 6f41 df94 2741 9224 ce42 06f8 0241
000001a0: 2e24 2843 438b 1844 d0fa da41 9319 0541
000001b0: 60dc 0d43 4276 f340 6f09 4a43 1fd4 3a42
000001c0: e1d8 8942 3e48 fd40 c62f 1a40 4105 1442
000001d0: 5ddc c941 6352 9743 22ec 2340 264d 7541
000001e0: e0d1 8942 c4f1 a642 36cd d040 8918 3f44
000001f0: bb0e 3243 0854 3642 6c7f 0944 bc01 5641
6.6121697 12.942761 1.6765884 152.97733 116.56291 13.351227 28.563198 4.50998
47.642067 204.82837 0.014428735 5.975621 3.5307994 129.8994 17.18692 673.4843
6.6150355 419.62305 0.4728722 6.5362973 25.464664 93.32795 43.96028 13.09771
16.09158 143.64241 242.49782 37.309834 62.083885 522.6046 29.440937 172.7305
174.32394 10.473079 10.7987995 24.038214 96.2292 110.11758 4.4061055 22.47222
303.09656 1.641837 1329.9552 9.2222395 666.1389 18.560825 6.7039857 41.402725
132.4429 22.343306 83.279755 39.16799 68.41111 32.284195 45.989933 1148.4606
10.479339 27.083334 47.95552 37.745888 8.970637 28.995708 360.60788 168.97116
57.891937 278.1045 62.696346 9.212813 55.947754 7.045038 208.8639 13.630606
204.42336 12.241793 29.428001 4.4872723 175.25137 31.468994 10.396287 4.113948
10.763902 10.582092 23.5318 33.08899 81.88068 54.79651 151.48357 88.90075
89.231445 18.908773 291.49918 27.60712 305.86118 1374.4996 195.17601 38.956024
33.276325 0.0036176622 102.88425 12.428575 14.95006 10.4738455 103.07143 8.185553
168.14133 610.17596 27.372467 8.318744 141.86084 7.608186 202.03685 46.70715
68.92359 7.9150686 2.4091659 37.00513 25.2326 302.64365 2.5612874 15.331335
68.90991 83.4722 6.52505 764.38336 178.05754 45.58206 549.99097 13.375423

fc2.weight f4 [128, 130]
00000000: f815 ef3c 1f4d 06be c327 fd3c 5714 8b3d
00000010: a8cb 3b3d 0edb 80bd 82a7 853c 6d65 d93c
00000020: 8d89 40bd 6a75 1fbe 1e2c 813d 3854 f6bc
00000030: 26af 113d f21a a73d cea1 7fbd c590 08be
00000040: 6e50 953b 06cc b9bc eac6 b0bd bb45 89bd
00000050: 27db 44bd de5c a53d 390c 30bd a991 d33c
00000060: 19a8 6abd 9f9e 4dbc e01b b5bc a34b 503d
00000070: 80e4 49bd 1396 9ebd 917c 313d 2bbd 59bd
00000080: 9d6b 38be 7b66 31bb 785a c3bb eb3f 80bc
00000090: 83d0 9abd f9e3 313c dacb 2c3b 4035 9abc
000000a0: 4eb3 4ebd aaa1 da3d 58a9 ca3d 72c9 39bd
000000b0: ec9e 0fbe 8915 843d ceba 55bd 7278 2bbd
000000c0: 4064 5fbd 2f36 c2bd e562 48bd 02ba 003e
000000d0: dce9 823d a6da 55bd ef7c 04bd 46df 953d
000000e0: 6fa8 9ebd ae18 0f3e 44e0 ccbd adc2 1a3d
000000f0: 7972 23bd a935 ea3c 89ce 78bc 3a09 1cbd
00000100: c550 edbc 77d7 243d 0823 84bd 32f3 33bd
00000110: 7f7b 783d 6893 c2bc f181 d83d a04f 273d
00000120: 7a6d b5bd 1f4c b1bc 64e8 d5bd adc4 de3d
00000130: 1451 523d fbc9 ab3d 0aa4 423d 2bf1 9cbd
00000140: c8fa 48bc f2f1 3fbd 858b b53a 8aa9 8439
00000150: d637 21bd 12d5 923d e13f a43d 56b3 f3bd
00000160: 8b1e 743d f40f d3bd 53cf 3bbd 737e a6bd
00000170: f502 963d 45f7 39bc 5d45 cbbc a9cf 8dbd
00000180: 9599 1e3d 1bfc 8fbc 70b0 8e3d c7c4 c0bd
00000190: 993b 633d e527 453d d8c4 18be 8446 22bd
000001a0: deca 9bbd e0cf dfbd 11fa b83d ad68 433c
000001b0: b386 b33d 6539 b7bc 84d2 eb3b 2eff 1ebd
000001c0: b9f4 413d c2f0 b5bd ea03 43bd c6f1 c8bc
000001d0: 21e9 d33c 8999 96bc d460 97bc 6c5d ce3d
000001e0: 96d2 883c 5586 a83c c833 c7bd 5c4f e0bd
000001f0: f66e 91bd 5cc4 42bd 5b4b 41bd 8392 5cbd
00000200: 938d ebbc ad9c e43c b602 e8bd fc9c ebbd
00000210: 30bd 603d 4cd7 19be b40c aebd f4ed 383a
00000220: f11d 66bb 2beb ad3a 19ba 73bb 8396 8bbe
00000230: 517a 1abd 8007 e43c 44ad b7bd 897d c53d
00000240: a075 8dbe 40a8 fa3c d971 5c3d 6e60 1cbe
00000250: 10a7 11be fe6c 84bd 3ce5 603d 1f19 99bd
00000260: f03d 07bd 7e4e 2d3d 3ee9 31be d59b c3bd
00000270: 7e0d 003a 2c14 ae3d ff4f 6dbd 1ce8 d7bd
00000280: cdd9 673c 84b1 c3bd a2b4 82bd 9722 683d
00000290: 1c13 fa3d ae67 0cbe ebcd 80be 6f11 35be
000002a0: 5ea2 1b3e d092 d23a 457b 26bd b96b 283e
000002b0: c4df 533d bd16 a6bd 41e6 45bc 8095 873d
000002c0: aead fb3d 966b 59bd 2eab 52bd 7064 1fbd
000002d0: 4c41 723b 386d 2f3e 7d46 dfbc da4a b8bd
000002e0: 879d 01bd be49 1cbd 284a 0dbe d9e7 e63d
000002f0: 5793 adbd 2112 40bd 5fee 563d 114f 91bd
00000300: 4dcb 00be 6242 8bbe e4b9 2c3b 93d7 253d
00000310: c1aa 973d 82a2 163e 470b d83c 0744 b9bd
00000320: 7202 a83b 60c2 0bbd e5a2 d9bd f3a8 17bd
00000330: d47d bfbd 605e a83c a80c 453d b356 153e
00000340: e36d a5bd 335a 94be cb5d b6bd 35ba 8dbd
00000350: 36ef 123e 5beb 8e3d a410 293d cb57 853d
00000360: a608 6f3e 99d3 08be 642b 5b3d 514f 45bd
00000370: dcd7 bd3d 212e 01be 549a 73bd aaba b7bc
00000380: cecd 16bd 0dc9 e0bc 7f7a 233e c656 a33c
00000390: a147 413e 2cb9 03be cb25 86bd a72b 98bd
000003a0: 21a5 90bd 7020 3a3e 0c08 a8bd 2aad bfbd
000003b0: 5017 9e3d ba06 26be 4e56 0bbd 0c51 68bd
000003c0: fc3a 7bbc d9ae bb3d e1ab 14bd c8ca d6bb
000003d0: e548 17bd 794a 823d 6be5 47be 52f8 493c
000003e0: 679d b4bd 997e ae3d a72c b4bd 31ae 9abe
000003f0: 168e 89be 8bc8 10be a90d 91bd 30ba b0bd
0.02918528 -0.13115357 0.030902749 0.06790989 0.04584852 -0.06291781 0.016315226 0.026537621
-0.04700618 -0.15572134 0.06307243 -0.030069456 0.035567425 0.08159436 -0.06241017 -0.13336475
0.004556707 -0.022680294 -0.0863169 -0.06702753 -0.048060562 0.08074354 -0.042980406 0.025826292
-0.057289217 -0.012550025 -0.022108018 0.050853383 -0.04929018 -0.07743468 0.043331686 -0.05315892
-0.18009801 -0.002706914 -0.0059617124 -0.015655478 -0.07559302 0.010857576 0.0026366622 -0.01882422
-0.050463967 0.10675366 0.09895581 -0.04535813 -0.14025468 0.0644942 -0.052180104 -0.041862912
-0.054538965 -0.09482991 -0.04892244 0.12570956 0.063922614 -0.052210473 -0.03234571 0.07317977
-0.0774697 0.13974258 -0.10003713 0.037783314 -0.03990409 0.02859004 -0.015185961 -0.038094737
-0.028969178 0.040244546 -0.06451994 -0.0439331 0.06066465 -0.02375193 0.10571659 0.04084742
-0.088587716 -0.021642743 -0.104447156 0.10877357 0.051346853 0.08388134 0.04751972 -0.07663187
-0.012266822 -0.046861596 0.0013850784 0.00025303318 -0.03935989 0.07169546 0.080199964 -0.1189944
0.05959944 -0.10305777 -0.045852017 -0.08129587 0.07324783 -0.011350458 -0.024813348 -0.06924374
0.038720686 -0.017576268 0.069672465 -0.09412532 0.05547676 0.04813375 -0.1491884 -0.03961803
-0.07607053 -0.10928321 0.090320714 0.011926812 0.08765926 -0.022366235 0.0071967263 -0.038817577
0.047352526 -0.088838115 -0.047611155 -0.024529349 0.025868 -0.018383758 -0.018478788 0.100764126
0.016701978 0.020571867 -0.09726673 -0.109526366 -0.07101242 -0.047550544 -0.047191005 -0.053850662
-0.028754031 0.02790674 -0.11328642 -0.11504552 0.054867923 -0.15023535 -0.08498517 0.0007054501
-0.0035113061 0.0013268938 -0.003718978 -0.2726327 -0.037714306 0.027835608 -0.08968595 0.096430846
-0.27628803 0.030597806 0.05381951 -0.1527116 -0.14223886 -0.06466101 0.054906115 -0.074754946
-0.033018053 0.042311184 -0.17374131 -0.09551207 0.0004884823 0.08499941 -0.05793762 -0.10542318
0.014151049 -0.09555343 -0.06382109 0.056673612 0.12210676 -0.13711426 -0.25157103 -0.17682432
0.15198657 0.0016065482 -0.040644903 0.16447343 0.05172707 -0.08109806 -0.012078823 0.06620312
0.12288986 -0.053081118 -0.05143278 -0.038914144 0.003696519 0.17131507 -0.027255291 -0.08998652
-0.03164437 -0.038156264 -0.1379782 0.1127469 -0.084753685 -0.04689229 0.052473422 -0.07095159
-0.12577553 -0.27199084 0.0026355917 0.04048879 0.074056156 0.1471043 0.026372565 -0.09046178
0.0051272446 -0.034120917 -0.10626773 -0.037026357 -0.09350172 0.020552814 0.048107773 0.14583854
-0.080776 -0.28975067 -0.08904608 -0.06920282 0.14349064 0.06978484 0.041275635 0.06510886
0.23343143 -0.13361968 0.053508177 -0.048171345 0.092696875 -0.12615253 -0.05947335 -0.022427876
-0.036817364 -0.027439618 0.15964697 0.019938838 0.1887498 -0.12863606 -0.06550177 -0.07430201
-0.07062746 0.18176436 -0.0820466 -0.093592 0.0771929 -0.16213503 -0.034017853 -0.056717917
-0.015333887 0.09164209 -0.03629673 -0.006554935 -0.036934752 0.06361861 -0.1952111 0.012327271
-0.088190846 0.0852024 -0.08797579 -0.30211022 -0.26866215 -0.14139001 -0.070826836 -0.086292624

fc2.bias f4 [128]
00000000: b323 8bbe a409 9cbe e69a 81be 4c89 4dbf
00000010: ed23 c2be 08da 683e bd5b 2ebf e8b1 07be
00000020: a0df 09bf 2500 0abf 408a 8cbe d27a c3be
00000030: 79ad 67be ecfc 8ebe 7147 b5be e2ff dabe
00000040: 08c6 73be 3922 aabe 835a 91be 27bb a4be
00000050: 367f 2fbf f830 f7be 322c 8bbe 0df5 c7be
00000060: aaa6 a2be 8538 95be 4ab4 58be 9b80 cbbe
00000070: ee9e 3fbf 644b 87be 62e9 ee3c 48a3 d2be
00000080: 54d7 a8be 11e0 5ebe e32b 42be a9c1 a4be
00000090: 6f66 a1be 75b5 72be 0ddc 49bd 2f47 4cbe
000000a0: ee93 7cbe 4e11 43be a57c 9bbe 1ed8 0abf
000000b0: 11a1 3cbe e7a2 84be a43d 5cbe 4e90 80be
000000c0: 7551 e8be 68d9 7dbe f1f4 aabe 435a 1dbf
000000d0: 25c7 98be b4bd 7dbe dcfa 0abf 948e 9ebe
000000e0: 96b0 c8be ef3e 89be 8d71 19bf 6ed8 6abe
000000f0: 18a3 7ebe 8aa3 d6be f972 d8be 514b b8be
00000100: 78f8 9abe f459 71be f266 1ebf 3589 afbe
00000110: 8bf9 0fbf e2d6 f3be 3898 9bbe 1672 85be
00000120: 277d 21bf 2f1a f7be a4e0 c5be b2af d9be
00000130: 2caa 91be 6499 c2be 7a94 9bbe d510 dbbe
00000140: 6d8f 95be 71a5 adbe a236 79be acb2 4dbe
00000150: c002 a6be 42b5 9ebe 8bf6 9abe 81ed 8bbe
00000160: ad4f 96be 976e 88be c772 8fbe 2b3a b8be
00000170: b115 89be 79e2 9dbe ef07 87be 85df e7be
00000180: 59c6 a8be 9d5e 49be f533 05bf 16e6 febe
00000190: 2a61 b4be b006 c4be 1d5b 6ebe 4202 4fbe
000001a0: 2ee2 96be adba 9dbe fa4a 94be 4006 59be
000001b0: 0ea2 b9be 5bf1 8bbe 39c2 7dbe dd53 b6be
000001c0: a6f8 21bf 0a82 9fbe d046 8bbe 04cb 7dbe
000001d0: 6d6f abbe bfa1 95be 32fd 80be 2cdd 87be
000001e0: 57ea 54bf 2a5d 80be de08 9fbe 328d 39bf
000001f0: b3d9 8abe 81cf c0be c9e6 80be a668 4fbe
-0.27175674 -0.30476105 -0.2531349 -0.80287623 -0.37918034 0.22739422 -0.6810873 -0.1325146
-0.5385685 -0.5390647 -0.27449226 -0.38179642 -0.22624768 -0.2792734 -0.35406068 -0.42773348
-0.23806012 -0.33229235 -0.28389367 -0.32174036 -0.68553483 -0.48279548 -0.27182156 -0.39054146
-0.3176778 -0.29144683 -0.21162525 -0.39746556 -0.7485188 -0.26424706 0.02916402 -0.411402
-0.32976782 -0.21765162 -0.18962054 -0.32179 -0.31523463 -0.23702033 -0.049282122 -0.1994903
-0.24665806 -0.1904957 -0.30368534 -0.5423602 -0.18420817 -0.25905535 -0.21507889 -0.25110096
-0.45374647 -0.24789965 -0.3339 -0.61465853 -0.29839435 -0.24779397 -0.5428903 -0.30968153
-0.39197224 -0.26805827 -0.5993889 -0.22934124 -0.24866903 -0.41921645 -0.42275217 -0.35994962
-0.30267692 -0.2356947 -0.6187583 -0.34284368 -0.5624015 -0.4762488 -0.3038957 -0.26063603
-0.6308159 -0.48262164 -0.3864795 -0.42516857 -0.28450143 -0.38007653 -0.30386716 -0.4278628
-0.29210988 -0.33915284 -0.24337247 -0.20087689 -0.32423973 -0.30997664 -0.30266222 -0.2732964
-0.29357663 -0.26646873 -0.28017256 -0.3598188 -0.26774362 -0.30836847 -0.2637324 -0.4528772
-0.32963827 -0.19664998 -0.52032405 -0.49784917 -0.3523038 -0.38286352 -0.23276944 -0.20215705
-0.29469436 -0.30806485 -0.28963453 -0.2119379 -0.3625645 -0.27332577 -0.24781121 -0.35610858
-0.6327003 -0.311539 -0.27202463 -0.24784476 -0.3348345 -0.29224965 -0.25193173 -0.26535928
-0.83170074 -0.2507108 -0.31061453 -0.7248107 -0.27119216 -0.37658313 -0.25176075 -0.20254764

fc3.weight f4 [1, 128]
00000000: 4258 d23b 6a4f 42bb cb12 15bd 127f d23d
00000010: 3bb2 23bc 940e b0bc 9a6c e03c e3d6 2c3d
00000020: 91cf 50bd aa92 823d fd64 703c 620c 1cbb
00000030: 9fcb 783c 90b3 723c a49e 48bd 8f4d 08bb
00000040: f074 25bc 938e cd3b cc09 4ebd 7978 0b3b
00000050: f4f3 b63c 8d58 533d ec09 03bc a5e2 c3bc
00000060: 5ae6 c0bc f7f9 d1bc c76f 283c 4209 8fbc
00000070: a0db bd3d 3ad6 45bc 7baf 083d 12ad ad3c
00000080: 6f99 65bd b057 1bbc 09bf 5e3c 45d0 113c
00000090: 27c3 59bd d8f2 7cbb 2f84 463c 202c cd3c
000000a0: 7486 103c 3130 5bbc ef6f 183c 57e1 1e3e
000000b0: 9887 68bc f9ba de3c 354f 9e3c 8e6d 07b9
000000c0: afc9 a7bb 4f70 8d3c b627 913b d937 b43c
000000d0: 39ee 1fbc d930 9f3a 8d90 f33c bfe1 e83c
000000e0: ebc8 bc3b f1bb b7bb fc77 f63d 1074 0fbb
000000f0: 4ba8 163b e8a8 913d 0b7d 923c 1eba 073a
00000100: 22b7 e8bd 001f e73c cde4 94bd 3c1e 25bc
00000110: c8f3 a73c cd95 04bd 96da c63b c941 a03b
00000120: 0280 19bd d6fb d2bd cf7e a3bc 2b2f b7bc
00000130: cdb0 dd3a 8280 f9bc ba29 2e3c effb 613d
00000140: ca1d d53a 471f 123c fdde ddb8 19ba 06bc
00000150: 55a5 783c d76d 5a3c 04a5 a33c c0cb a73c
00000160: dcc7 ad3c 7b08 123d da42 c0bc 4d13 bbbc
00000170: 3cc8 b93b 6764 e73c 671d 413c 5d1f 633e
00000180: 503b 52b9 54fc da3a 69f8 61bd 5332 d3bd
00000190: 8f56 873c 6903 953a ff05 76bb c9e9 c83b
000001a0: 24a2 93bb fa3f 94bc 0343 50bd e068 fcbc
000001b0: 4b15 92ba a90a 89bb 8707 403c 650e 2c3a
000001c0: 64d2 763d 2313 52bd aa88 eabc 746b d4bb
000001d0: 23e8 80bc 7088 8e3d f914 72bc b328 66bc
000001e0: 06bc 2c3d 5f4b 32bc fa4d 2a3c 6b5a b4bc
000001f0: 41d6 76bc e10b 7c3d a5a6 52bc d8eb ae3d
0.0064192126 -0.0029649385 -0.036394875 0.10278143 -0.009991224 -0.021491326 0.027395535 0.04219712
-0.0509792 0.0637563 0.014672515 -0.0023811092 0.015185266 0.014813319 -0.048979416 -0.0020798182
-0.010098681 0.0062730997 -0.05030231 0.0021281524 0.022333123 0.05159812 -0.007997971 -0.023911783
-0.02354734 -0.025631888 0.010280556 -0.01746047 0.09270406 -0.012075001 0.033370476 0.02120069
-0.05605453 -0.009481356 0.013595351 0.008899753 -0.053164627 -0.0038596895 0.012116476 0.025045455
0.008821119 -0.013378189 0.009304031 0.15515648 -0.014192484 0.027188765 0.019324878 -0.00012915416
-0.005120478 0.017265467 0.0044297827 0.021999286 -0.009761387 0.0012145295 0.029732013 0.028427957
0.005761256 -0.005607121 0.12034604 -0.0021889247 0.0022988494 0.071122944 0.01788189 0.0005177575
-0.11363055 0.028213024 -0.07270203 -0.010078009 0.020501986 -0.032369424 0.006068538 0.0048906547
-0.037475593 -0.1030194 -0.019957928 -0.022361359 0.0016913653 -0.030456785 0.010630066 0.055171903
0.0016259488 0.00891859 -0.00010579636 -0.00822308 0.015176137 0.013331852 0.019976147 0.020482898
0.021213464 0.03565262 -0.023469377 -0.022836352 0.0056696218 0.028246118 0.011786795 0.22179933
-0.00020049256 0.001670728 -0.055168543 -0.10312333 0.016520767 0.0011368814 -0.0037540195 0.006131385
-0.0045054127 -0.018096913 -0.050845157 -0.030811727 -0.0011145262 -0.004182179 0.011720545 0.0006563424
0.060259238 -0.05128778 -0.02862962 -0.006482536 -0.015735691 0.06959617 -0.014775508 -0.014047789
0.0421715 -0.010882228 0.010394568 -0.02201577 -0.015065731 0.061534766 -0.012857114 0.085410774
