training_output/best_agent/checkpoints/episode_639/weights_actor_target.pth (torch_old, 83672 bytes, 10 tensors)

fc1.weight f4 [128, 24]
1.4912324 -1.2743402 -0.57199335 -2.4840233 -1.9259306 0.23026723 -0.5263455 -2.4589493
1.4754918 -1.6683507 -0.018273728 -1.5534543 -2.1829975 1.2966871 -0.015335019 -1.5066955
2.074171 -1.5016767 -0.76691425 0.86442053 -2.385322 0.8047594 -0.700568 1.0104252
0.04220772 1.7819636 0.5345581 -0.77122897 1.277967 -1.0558761 0.5031309 -0.9140348
0.013736888 1.5616809 0.9765062 -0.020349529 1.3328481 -2.486172 0.96234304 -0.06649018
0.037174746 1.4766128 0.38280466 0.40491125 1.2478788 -4.469523 0.44352588 0.3804289
1.2134115 -2.666816 -0.3445199 -0.5494172 -0.03170769 -2.3168015 -0.38005862 -0.40299675
0.95469517 -2.5183964 -1.3399457 -0.5860553 -0.3059403 -2.0416007 -1.2673613 -0.6062963
1.2993853 -2.7943552 1.1304963 -1.6387912 -1.0531232 -1.028223 1.1089026 -1.6556352
0.62877643 -6.10667 -0.46284866 0.92917657 1.7353551 -1.728685 -0.5544513 0.9082042
0.2664347 -5.698993 0.06934316 0.830577 0.26454735 0.7001182 0.011629278 0.75942457
1.2189598 -4.955224 0.49339837 -0.55586565 -1.3526155 1.7741296 0.5150515 -0.5747617
-0.33499292 0.59905076 -0.4731116 1.5467665 0.91368407 0.7141506 -0.4581505 1.6081855
0.13779159 1.8866557 -0.43155488 2.4448795 1.640559 1.055779 -0.4105136 2.5005627
-0.3696437 2.4547682 -0.57919514 1.6643288 2.6061163 2.14289 -0.5385856 1.6263231
-1.0118306 2.936959 0.050153933 -0.42134532 -1.0095532 -2.143535 0.023030078 -0.3724092
-1.1665671 3.1013706 0.053821005 -0.037645917 -0.14617161 -4.2777476 0.070048906 -0.07459322
-1.4854239 3.2618513 -0.19273774 1.1133509 0.47433725 -7.3772645 -0.14828604 1.215871
0.10633512 -0.41592434 -1.1543473 -2.5093162 -0.08090532 -2.5192082 -1.1081468 -2.5131938
0.10479789 -1.2720381 -0.3344953 -1.6057204 0.16568366 -2.1664777 -0.26523048 -1.6785345
0.39651692 -1.8642681 0.59250826 -0.6166419 0.58034927 -1.4409149 0.713854 -0.5488475
-0.10499037 -3.7076092 -0.2430913 -0.36949822 2.238948 -1.0808238 -0.3456208 -0.45261872
-0.19385895 -3.8373466 0.39994332 -1.2445436 1.5282553 -0.56181824 0.44715458 -1.1770847
0.72666603 -3.6957943 1.3267404 -0.61966896 0.53036815 -0.55366564 1.2773277 -0.6291628
0.5938106 0.6287618 0.14123325 -0.9336108 -1.8965437 -1.3485942 0.1231253 -0.9826623
0.7325685 0.2665786 -0.36464664 -1.8515241 -1.2054032 -1.8820423 -0.2945923 -1.908804
1.3464385 -0.026366986 0.39295053 -2.890952 -0.7030496 -1.8706621 0.39994207 -2.9639502
0.76865387 -2.719291 0.3522205 0.6024875 -1.7793236 -1.6218317 0.21939492 0.57384306
0.75637347 -2.550353 0.29248968 0.16504008 -1.9628918 -1.6772183 0.20346516 0.08468996
1.7120202 -2.8650897 0.38254106 -2.2981598 -2.2015548 -0.7236882 0.49893188 -2.2932894
0.14661476 2.344147 0.40458527 -3.2369719 0.015603959 0.06863001 0.39740205 -3.1254666
0.8126309 1.6321017 0.86853164 -2.6394198 1.0867281 0.049163774 0.88419104 -2.622614
00000000: b4e0 be3f 941d a3bf 286e 12bf 3dfa 1ec0
00000010: e584 f6bf 2ccb 6b3e 94be 06bf 6d5f 1dc0
00000020: eadc bc3f 848c d5bf c9b2 95bc 97d7 c6bf
00000030: 3bb6 0bc0 d8f9 a53f bb3f 7bbc 66db c0bf
00000040: 38bf 0440 f136 c0bf 7e54 44bf aa4a 5d3f
00000050: 1ea9 18c0 b604 4e3f 6d58 33bf 9d55 813f
00000060: 01e2 2c3d 6217 e43f cdd8 083f 436f 45bf
00000070: 6c94 a33f f326 87bf 30cd 003f 2ffe 69bf
00000080: af10 613c 29e5 c73f 4ffc 793f 0eb4 a6bc
00000090: c49a aa3f 711d 1fc0 1d5c 763f 012c 88bd
000000a0: 8c44 183d a601 bd3f f9fe c33e 8750 cf3e
000000b0: 7eba 9f3f 5506 8fc0 d315 e33e 94c7 c23e
000000c0: 1151 9b3f 1dad 2ac0 ea64 b0be 9ba6 0cbf
000000d0: ecdf 01bd 7a46 14c0 0b97 c2be 9755 cebe
000000e0: e766 743f 682d 21c0 5783 abbf b807 16bf
000000f0: 35a4 9cbe 96a9 02c0 e538 a2bf 3c36 1bbf
00000100: 4252 a63f b7d6 32c0 1ab4 903f e9c3 d1bf
00000110: becc 86bf d09c 83bf 85f0 8d3f dbeb d3bf
00000120: 7ef7 203f d769 c3c0 80fa ecbe 84de 6d3f
00000130: 1e20 de3f 8d45 ddbf 85f0 0dbf 1280 683f
00000140: 216a 883e 275e b6c0 c903 8e3d b2a0 543f
00000150: c072 873e f23a 333f ba88 3e3c a669 423f
00000160: e006 9c3f 3291 9ec0 b69e fc3e 364d 0ebf
00000170: 8122 adbf ae16 e33f 6ada 033f 9523 13bf
00000180: 3184 abbe 645b 193f af3b f2be 72fc c53f
00000190: 33e7 693f 93d2 363f b492 eabe 06d9 cd3f
000001a0: 3d19 0d3e ef7d f13f c3f4 dcbe e878 1c40
000001b0: d6fd d13f c423 873f d72e d2be 3809 2040
000001c0: f041 bdbe ec1a 1d40 2246 14bf ba08 d53f
000001d0: 9cca 2640 1c25 0940 bfe0 09bf 5b2b d03f
000001e0: aa83 81bf 23f7 3b40 366e 4d3d 93ba d7be
000001f0: 0a39 81bf ad2f 09c0 93a9 bc3c 6bac bebe
00000200: 1252 95bf db7c 4640 6a73 5c3d 9b32 1abd
00000210: 03ae 15be 4fe3 88c0 cd75 8f3d 55c4 98bd
00000220: 5f22 bebf 2cc2 5040 0b5d 45be 4882 8e3f
00000230: 55dc f23e 8d12 ecc0 4cd8 17be a9a1 9b3f
00000240: 3ac6 d93d 09f4 d4be a7c1 93bf a398 20c0
00000250: b0b1 a5bd b53a 21c0 c1d7 8dbf 2bd8 20c0
00000260: 47a0 d63d 25d2 a2bf f842 abbe 3f88 cdbf
00000270: faa8 293e 92a7 0ac0 4acc 87be 38da d6bf
00000280: 4404 cb3e 56a0 eebf 9fae 173f 3edc 1dbf
00000290: c591 143f e66f b8bf 23bf 363f 4581 0cbf
000002a0: 3105 d7bd 7849 6dc0 edec 78be df2e bdbe
000002b0: ed4a 0f40 6f58 8abf 36f5 b0be a4bd e7be
000002c0: f682 46be 1697 75c0 5fc5 cc3e 344d 9fbf
000002d0: df9d c33f 52d3 0fbf 72f1 e43e b6aa 96bf
000002e0: c906 3a3f e587 6cc0 a1d2 a93f a0a2 1ebf
000002f0: 35c6 073f 08bd 0dbf 797f a33f d010 21bf
00000300: f903 183f 89f6 203f 739f 103e 1e01 6fbf
00000310: f2c1 f2bf bc9e acbf 1e29 fc3d c28f 7bbf
00000320: 9c89 3b3f fe7c 883e f7b2 babe befe ecbf
00000330: a74a 9abf c3e6 f0bf cdd4 96be b153 f4bf
00000340: 1958 ac3f 94ff d7bc d030 c93e 5c05 39c0
00000350: 0ffb 33bf db71 efbf 35c5 cc3e 5cb1 3dc0
00000360: 80c6 443f dd08 2ec0 3f56 b43e 9f3c 1a3f
00000370: e0c0 e3bf 2e98 cfbf 10a9 603e 61e7 123f
00000380: b1a1 413f fc38 23c0 35c1 953e 4400 293e
00000390: 0a40 fbbf 17af d6bf 2c59 503e ee71 ad3d
000003a0: 7a23 db3f a15d 37c0 6cdc c33e 0d15 13c0
000003b0: 46e6 0cc0 a143 39bf 0074 ff3e 41c5 12c0
000003c0: 2e22 163e 8106 1640 cd25 cf3e 8c2a 4fc0
000003d0: bfa7 7f3c e48d 8c3d 4878 cb3e a507 48c0
000003e0: 9408 503f b5e8 d03f 1758 5e3f 41ec 28c0
000003f0: e819 8b3f f45f 493d 585a 623f e8d8 27c0

fc1.bias f4 [128]
-2.257876 -0.40401492 -0.7149127 -0.35367537 -1.8234129 0.26242998 -0.83453983 -0.22201014
-1.2943982 -0.7062151 -0.41910172 -0.7213729 -0.35007748 -1.2055964 -0.4508682 -1.0235089
-0.4517453 -0.64478374 -2.4592915 -0.5066578 -0.62758285 -1.8708247 -0.94571835 0.10816559
-1.465823 -1.8507597 -0.5125802 -1.6956831 -2.1707494 -0.18108258 0.044451322 1.7970607
1.803633 -0.5673601 -2.212198 0.041827116 -0.723757 0.012888729 -2.4852288 -1.4458724
-0.6106638 -0.6399645 -1.1467305 0.9113319 -1.7163126 -1.224382 -0.6487805 -1.9628446
-1.04007 -1.0520787 -0.2813079 -0.47511482 -3.444148 0.14289111 -0.49479797 -1.9186695
-1.5000108 0.13036676 0.5182402 -1.225151 -0.97745466 -0.9794734 -0.7997194 0.06885294
-0.032262594 -0.02746998 -0.8543173 -1.6157067 -1.1247365 -2.6574402 -2.1540966 -0.29140592
0.21922834 -1.0304765 0.66144735 0.04888509 -0.92166466 0.18932611 0.3752989 1.5781139
-2.4111738 -1.3156409 -1.9048271 -0.68630624 -1.3564286 -1.2649722 -0.6332029 -1.7556838
-2.5084958 -2.2382119 -2.1179173 -0.24378441 -0.65396637 -0.92784965 -1.4547251 -1.6768728
-0.034178082 -0.20178406 -0.44296616 -0.8327065 0.784418 -1.7399892 -0.051244073 -1.3327423
-2.1731336 0.6596013 0.15850767 0.9840115 -2.0281668 -0.72973996 -2.1975443 -0.3616101
-1.6760908 -0.26664388 -1.3965625 -0.7405776 -1.0188627 0.6766953 -1.507183 -0.8878764
-2.095519 -1.9050902 0.0013121938 -1.549315 -1.6048306 -1.8650961 -0.73389584 -1.2805256
00000000: 0a81 10c0 0bdb cebe 8504 37bf f014 b5be
00000010: 9865 e9bf 395d 863e 67a4 55bf a056 63be
00000020: d7ae a5bf 83ca 34bf 8094 d6be e5ab 38bf
00000030: 5b3d b3be fc50 9abf 32d8 e6be 5702 83bf
00000040: 294b e7be 8c10 25bf 0865 1dc0 53b4 01bf
00000050: 45a9 20bf 2f77 efbf 991a 72bf ec85 dd3d
00000060: 17a0 bbbf b2e5 ecbf 7538 03bf 250c d9bf
00000070: 8fed 0ac0 b66d 39be 9712 363d 1606 e63f
00000080: 72dd e63f 833e 11bf a794 0dc0 e952 2b3d
00000090: 2448 39bf 3f2b 533c fd0d 1fc0 5912 b9bf
000000a0: 7654 1cbf b7d4 23bf 11c8 92bf 0c4d 693f
000000b0: 22b0 dbbf 8db8 9cbf 7b16 26bf 7e3e fbbf
000000c0: 0421 85bf 84aa 86bf 9707 90be 4042 f3be
000000d0: ec6c 5cc0 0c52 123e 2956 fdbe f696 f5bf
000000e0: 5b00 c0bf dd7e 053e 64ab 043f bfd1 9cbf
000000f0: 783a 7abf c5be 7abf 69ba 4cbf c502 8d3d
00000100: c825 04bd b908 e1bc 8ab4 5abf 7acf cebf
00000110: 5ef7 8fbf 8013 2ac0 b8dc 09c0 2833 95be
00000120: 657d 603e a7e6 83bf 9d54 293f bb3b 483d
00000130: 37f2 6bbf b4de 413e 2d27 c03e a3ff c93f
00000140: ac50 1ac0 ec66 a8bf 60d1 f3bf c4b1 2fbf
00000150: 749f adbf 9cea a1bf 9619 22bf 3fba e0bf
00000160: 328b 20c0 dd3e 0fc0 f58b 07c0 9fa2 79be
00000170: 576a 27bf 8e87 6dbf 6f34 babf c5a3 d6bf
00000180: 51fe 0bbd 7ba0 4ebe 76cc e2be 412c 55bf
00000190: 9ecf 483f f7b7 debf 4ee5 51bd 4d97 aabf
000001a0: 9f14 0bc0 a1db 283f d64f 223e 2de8 7b3f
000001b0: 7ccd 01c0 3dd0 3abf 91a4 0cc0 f624 b9be
000001c0: 258a d6bf 8c85 88be 8fc2 b2bf 7e96 3dbf
000001d0: 186a 82bf e73b 2d3f 5feb c0bf de4b 63bf
000001e0: fc1c 06c0 ffd9 f3bf ebfd ab3a f44f c6bf
000001f0: 176b cdbf 78bb eebf 99e0 3bbf 43e8 a3bf

bn1.weight f4 [128]
-0.32703218 0.204773 0.26377895 0.91694283 0.53634936 4.190044 -0.07494029 0.11930768
0.25980234 1.6200999 0.79956573 2.0493078 3.0448952 1.6783862 0.16726588 0.3892092
1.2724692 1.6609232 1.5231906 1.1639119 3.1805823 0.22662516 0.81098306 1.2967972
0.71755874 2.1079628 0.83374643 0.1892499 1.0532124 1.6816486 0.355357 0.7947183
0.86059844 2.1011376 -0.07338882 0.065155365 1.7462817 0.5214033 0.3345024 2.0042748
-0.2450236 2.3846393 -0.0055126776 0.21115653 0.47775263 2.0496113 -0.1016746 1.777591
1.844144 -1.6060772 3.0334659 1.428625 1.4366912 0.011026023 -0.048852053 0.09288297
-0.15943764 1.4104218 0.15049852 0.13302504 -0.2900539 2.3195581 0.35650736 3.0597062
3.9381785 1.9468205 1.36148 2.5745857 3.2808292 2.424471 0.85140496 1.4099627
1.3684186 2.210949 3.0388744 -0.5325481 0.12445544 -0.13406096 1.8024122 2.097027
2.3674579 2.5222142 4.579696 1.7897383 1.6571385 1.079899 0.8697702 1.6611311
3.158291 2.2269382 1.7222878 -0.24646834 2.5707138 0.7785957 0.5260928 1.1538445
0.006912242 1.452363 0.2298271 1.5159626 1.3547285 2.6659544 1.1567972 2.6600268
2.2824306 -0.29454768 1.2483708 0.11811766 0.31059134 0.021299431 1.1456423 2.1217349
0.9690554 2.3620958 0.84206325 0.15067644 1.2733972 1.3592165 6.365589 1.4530238
1.2021232 0.4851635 1.5852218 1.8404137 0.11688163 0.68778616 0.064215265 3.079225
00000000: c370 a7be 03b0 513e 090e 873e c4bc 6a3f
00000010: 314e 093f d714 8640 4b7a 99bd 9657 f43d
00000020: d004 853e 6f5f cf3f 57b0 4c3f dc27 0340
00000030: 90df 4240 5cd5 d63f bf47 2b3e 6e46 c73e
00000040: 45e0 a23f 2299 d43f e9f7 c23f 11fb 943f
00000050: a98e 4b40 6d10 683e 969c 4f3f 73fd a53f
00000060: eeb1 373f dde8 0640 6870 553f baca 413e
00000070: aacf 863f 4340 d73f 5af1 b53e a972 4b3f
00000080: 2e50 5c3f 0a79 0640 e14c 96bd 2d70 853d
00000090: 2986 df3f b07a 053f e643 ab3e 0a46 0040
000000a0: 77e7 7abe ee9d 1840 b1a3 b4bb 6b39 583e
000000b0: fe9b f43e d52c 0340 c63a d0bd 1a88 e33f
000000c0: e90c ec3f f093 cdbf 4e24 4240 2fdd b63f
000000d0: 7fe5 b73f 7ea6 343c 1719 48bd 6d39 be3d
000000e0: 9f43 23be b488 b43f 491c 1a3e b737 083e
000000f0: f281 94be a473 1440 2288 b63e 3ad2 4340
00000100: 1e0b 7c40 6a31 f93f fa44 ae3f 03c6 2440
00000110: 1bf9 5140 882a 1b40 adf5 593f a879 b43f
00000120: 5728 af3f 3080 0d40 eb7c 4240 1355 08bf
00000130: 7ee2 fe3d 4747 09be 71b5 e63f b135 0640
00000140: 6e84 1740 f56b 2140 df8c 9240 2516 e53f
00000150: 1d1d d43f 213a 8a3f 43a9 5e3f f29f d43f
00000160: 7121 4a40 2886 0e40 ed73 dc3f 3262 7cbe
00000170: 9386 2440 0c52 473f 05ae 063f 2db1 933f
00000180: 1780 e23b 08e7 b93f cc57 6b3e 100b c23f
00000190: be67 ad3f ff9e 2a40 ee11 943f e13d 2a40
000001a0: 5813 1240 f4ce 96be 9dca 9f3f ace7 f13d
000001b0: d405 9f3e 257c ae3c 68a4 923f 81ca 0740
000001c0: 0414 783f 942c 1740 7591 573f ed4a 1a3e
000001d0: aefe a23f cefa ad3f e8b2 cb40 affc b93f
000001e0: 2cdf 993f 5a67 f83e 8ce8 ca3f ad92 eb3f
000001f0: a35f ef3d c112 303f 4b83 833d 0612 4540

bn1.bias f4 [128]
-0.10223172 -0.04144258 0.11223534 1.1722971 0.10998594 0.8769684 0.23745427 0.37426674
0.17832865 0.42857414 0.22387387 1.166105 0.3094611 -0.5997429 -0.51151884 -0.18938468
1.5731571 0.13091493 -1.4646366 0.346821 -0.9661713 -0.6541062 0.27585328 1.1507392
-0.38203228 0.61001056 -0.42534104 0.11207199 0.09586511 1.0445734 0.22468084 -1.0828986
-0.53870225 -0.29010344 -0.11169101 0.009479151 0.61548525 -1.267095 0.10953521 0.23747954
-0.032960933 0.24122843 0.12530231 -0.13328677 0.18447003 0.46777287 -0.09939703 0.5012321
0.5438602 0.58943063 0.46413523 1.0353451 -1.4210628 -0.043301556 -0.11227303 0.1641044
-0.056112237 0.4965974 -0.004026493 0.040167913 0.13356785 1.1711398 0.18576346 0.47181544
0.44519567 0.7388423 0.2023846 0.8390269 0.5298046 0.049174495 -0.105593875 0.6656902
1.1446507 -1.7754108 -1.4276735 -0.38886034 -0.1334852 -0.3064308 0.8493729 -0.7077867
-0.11895705 0.7368118 -0.8766271 1.6154928 0.56750077 0.39723763 0.5291139 0.1461917
0.4438676 0.24130179 0.40398765 -0.25852036 1.7247705 -0.9006843 0.04474048 0.45351005
-0.06151864 0.6183478 -0.25303638 0.23965147 1.0970523 0.49281958 0.69965863 0.16596417
-0.42343333 -0.07385186 0.635835 -0.19474597 0.038358416 0.05229578 -0.034535684 0.30066726
0.089074366 0.9365904 0.11304718 0.27230307 0.0005863247 0.7482179 -0.55316865 0.57303643
-1.0238893 0.020031424 1.2017268 1.2547638 0.2235301 -0.16537003 0.17012739 1.1331043
00000000: dd5e d1bd b2bf 29bd a4db e53d d50d 963f
00000010: 4f40 e13d 0081 603f 3627 733e e49f bf3e
00000020: c99b 363e 126e db3e 313f 653e ee42 953f
00000030: af71 9e3e c088 19bf e6f2 02bf 0fee 41be
00000040: 365d c93f 900e 063e 3679 bbbf 8692 b13e
00000050: 0157 77bf 8173 27bf a43c 8d3e 6c4b 933f
00000060: bc99 c3be a729 1c3f 4dc6 d9be 0086 e53d
00000070: ed54 c43d 95b4 853f bc12 663e 6c9c 8abf
00000080: 64e8 09bf 7088 94be 42be e4bd 714e 1b3c
00000090: 7190 1d3f 2b30 a2bf ff53 e03d d62d 733e
000000a0: 0b02 07bd 9604 773e 404f 003e 547c 08be
000000b0: b6e5 3c3e ed7f ef3e ac90 cbbd bf50 003f
000000c0: 6c3a 0b3f ede4 163f 22a3 ed3e 3086 843f
000000d0: 63e5 b5bf f95c 31bd 67ef e5bd fc0a 283e
000000e0: f2d5 65bd 0442 fe3e acf0 83bb 1c87 243d
000000f0: 03c6 083e e9e7 953f c738 3e3e cb91 f13e
00000100: b0f0 e33e c524 3d3f e93d 4f3e 78ca 563f
00000110: 46a1 073f 326b 493d 9a41 d8bd ac6a 2a3f
00000120: ea83 923f a940 e3bf 01be b6bf b418 c7be
00000130: 58b0 08be 7fe4 9cbe 8170 593f 8231 35bf
00000140: c19f f3bd b39f 3c3f a26a 60bf 78c8 ce3f
00000150: bb47 113f bb62 cb3e 0274 073f 47b3 153e
00000160: 9d42 e33e d117 773e 78d7 ce3e c85c 84be
00000170: 48c5 dc3f 3f93 66bf cb41 373d 7832 e83e
00000180: f8fa 7bbd 0b4c 1e3f fc8d 81be 3267 753e
00000190: 366c 8c3f d952 fc3e d41c 333f 83f2 293e
000001a0: 41cc d8be a53f 97bd 15c6 223f 7d6b 47be
000001b0: b71d 1d3d 1a34 563d 4a75 0dbd 0ff1 993e
000001c0: 9f6c b63d 63c4 6f3f 4885 e73d 4f6b 8b3e
000001d0: 96b3 193a 358b 3f3f 769c 0dbf 84b2 123f
000001e0: ce0e 83bf f118 a43c 2fd2 993f 1a9c a03f
000001f0: 13e5 643e c356 29be e035 2e3e 9009 913f

bn1.running_mean f4 [128]
7.9312434 26.389566 7.534072 11.597704 24.938688 2.4642892 8.613506 37.043423
7.7136807 9.215645 33.215977 16.700157 53.30036 22.348185 12.421945 69.13292
45.906647 0.23012003 25.252365 16.510454 34.81756 1.3917853 16.516027 52.0221
78.95179 18.448048 4.3709106 5.2057414 73.74388 32.824886 23.09517 55.68321
29.98915 3.595716 3.1388137 61.2342 16.737425 33.450745 12.28677 16.276001
10.9252 0.95482767 23.48829 72.74212 4.69957 10.618736 2.9186206 7.028142
3.6272473 7.3105474 36.602318 46.496853 22.678408 31.296015 33.3998 0.016174866
0.22144194 50.690453 42.392456 15.047692 1.5568919 32.460564 10.56989 1.9560051
3.4225261 42.671688 20.45199 66.8907 1.9260445 3.083723 76.01429 22.169086
57.299446 40.69797 36.09279 19.851223 8.923479 29.122726 14.684993 36.31638
91.53911 24.363811 31.284378 36.80368 6.3441386 16.75819 10.079381 7.8904057
78.79833 76.350784 12.5615 43.67631 15.928574 24.143032 1.6142957 12.552096
47.333473 56.15246 78.84334 19.06982 33.139435 90.31159 25.475328 34.126537
16.883852 37.18059 11.258224 44.253117 0.22490887 5.261039 1.0613866 20.085155
6e-45 31.621212 0.6690594 26.572094 2.4352722 40.25658 40.07584 2.8311982
17.34533 6e-45 24.83395 12.603985 8.07725 1.0201077 23.565205 90.78475
00000000: bfcc fd40 d51d d341 1e17 f140 3290 3941
00000010: 6f82 c741 eab6 1d40 ecd0 0941 772c 1442
00000020: 79d6 f640 4873 1341 29dd 0442 ec99 8541
00000030: 9233 5542 15c9 b241 49c0 4641 0e44 8a42
00000040: 68a0 3742 96a4 6b3e d804 ca41 6915 8441
00000050: 2e45 0b42 0526 b23f d320 8441 a116 5042
00000060: 51e7 9d42 9a95 9341 80de 8b40 6f95 a640
00000070: de7c 9342 af4c 0342 e8c2 b841 9bbb 5e42
00000080: c7e9 ef41 3620 6640 53e2 4840 d2ef 7442
00000090: 3fe6 8541 90cd 0542 9c96 4441 4035 8241
000000a0: 9fcd 2e41 966f 743f 05e8 bb41 f77b 9142
000000b0: e162 9640 58e6 2941 aeca 3a40 8ae6 e040
000000c0: d224 6840 01f0 e940 c668 1242 c7fc 3942
000000d0: 616d b541 3d5e fa41 6599 0542 2781 843c
000000e0: adc1 623e 06c3 4a42 e091 2942 59c3 7041
000000f0: 3c48 c73f 9ed7 0142 451e 2941 605e fa3f
00000100: ab0a 5b40 cfaf 2a42 ad9d a341 0ac8 8542
00000110: a088 f63f b85b 4540 5107 9842 4a5a b141
00000120: a232 6542 b9ca 2242 045f 1042 4ecf 9e41
00000130: 92c6 0e41 58fb e841 bbf5 6a41 f943 1142
00000140: 0614 b742 16e9 c241 6846 fa41 f836 1342
00000150: 2f03 cb40 c610 8641 2545 2141 347e fc40
00000160: bf98 9d42 9ab3 9842 e7fb 4841 8bb4 2e42
00000170: 70db 7e41 ee24 c141 3ea1 ce3f 63d5 4841
00000180: 7a55 3d42 1e9c 6042 caaf 9d42 fe8e 9841
00000190: c88e 0442 899f b442 79cd cb41 9381 0842
000001a0: 2112 8741 edb8 1442 af21 3441 3103 3142
000001b0: 834e 663e 6e5a a840 84db 873f 66ae a041
000001c0: 0400 0000 3ef8 fc41 7a47 2b3f a693 d441
000001d0: 80db 1b40 bd06 2142 a94d 2042 5a32 3540
000001e0: 3cc3 8a41 0400 0000 eeab c641 eca9 4941
000001f0: 6a3c 0141 e492 823f 8a85 bc41 cb91 b542

bn1.running_var f4 [128]
469.33197 1811.7457 485.9514 285.81726 1019.06165 69.91639 498.42365 2563.0034
388.0271 333.04636 2502.1145 725.58484 516.17303 1013.27106 787.5512 754.7523
3166.0815 6.6709924 867.0773 715.55743 1761.3335 40.290764 887.3075 4671.1494
2163.7441 741.65186 150.55383 306.1395 1218.6787 2157.422 1263.7571 1802.545
1383.4824 165.01897 130.24937 3078.2122 803.3101 1160.5294 487.7847 752.2719
1059.934 23.152462 1420.8574 2239.9075 147.61873 580.81604 75.895325 452.20734
148.75494 199.7949 1037.8418 3598.8958 691.9173 1007.90704 2753.8677 0.18513913
4.571653 4398.6455 2439.1719 1305.9852 51.0112 1127.6683 538.3465 53.45612
78.97931 742.07965 1006.53156 2397.525 58.253307 116.5276 759.2726 2099.6567
4789.342 2373.14 2138.6362 2241.3535 697.3295 2295.2554 678.92114 678.7789
3247.4373 1499.2734 894.837 1606.5111 365.0032 984.3704 771.7422 462.142
1807.1135 1573.3217 294.63535 4034.0305 870.0338 980.6929 40.859955 1299.9286
2417.5227 5915.7266 1434.2944 729.6405 1865.1136 3949.9788 1219.6019 659.96875
423.77936 2254.8494 674.9228 3077.2576 5.051091 289.578 33.708263 1142.3732
6e-45 1783.3934 24.843252 1852.1156 91.99197 575.4025 499.4253 138.15134
927.37396 6e-45 1080.3613 825.52747 308.32532 27.98636 859.1483 1347.837
00000000: 7eaa ea43 dd77 e244 c7f9 f243 9ce8 8e43
00000010: f2c3 7e44 31d5 8b42 3a36 f943 0e30 2045
00000020: 7803 c243 ef85 a643 d561 1c45 6e65 3544
00000030: 130b 0144 5951 7d44 47e3 4444 26b0 3c44
00000040: 4ee1 4545 c578 d540 f2c4 5844 ade3 3244
00000050: ac2a dc44 be29 2142 aed3 5d44 32f9 9145
00000060: e83b 0745 b869 3944 c88d 1643 db11 9943
00000070: b855 9844 c1d6 0645 3af8 9d44 7151 e144
00000080: 70ef ac44 db04 2543 d73f 0243 6563 4045
00000090: d9d3 4844 f110 9144 71e4 f343 6711 3c44
000000a0: e37d 8444 3e38 b941 709b b144 85fe 0b45
000000b0: 659e 1343 3a34 1144 68ca 9742 8a1a e243
000000c0: 44c1 1443 7fcb 4743 f0ba 8144 55ee 6045
000000d0: b5fa 2c44 0dfa 7b44 e21d 2c45 1d95 3d3e
000000e0: fb4a 9240 2a75 8945 c072 1845 873f a344
000000f0: 780b 4c42 63f5 8c44 2d96 0644 11d3 5542
00000100: 68f5 9d42 1985 3944 05a2 7b44 66d8 1545
00000110: 6303 6942 220e e942 72d1 3d44 823a 0345
00000120: bcaa 9545 3d52 1445 2eaa 0545 a815 0c45
00000130: 1755 2e44 1674 0f45 f4ba 2944 d9b1 2944
00000140: fff6 4a45 c068 bb44 91b5 5f44 5bd0 c844
00000150: 6980 b643 b517 7644 80ef 4044 2d12 e743
00000160: a2e3 e144 4baa c444 5351 9343 7d20 7c45
00000170: 2a82 5944 582c 7544 9870 2342 b77d a244
00000180: 5d18 1745 d0dd b845 6c49 b344 fe68 3644
00000190: a323 e944 a9df 7645 4373 9844 00fe 2444
000001a0: c2e3 d343 97ed 0c45 0fbb 2844 1f54 4045
000001b0: 8aa2 a140 fcc9 9043 43d5 0642 f1cb 8e44
000001c0: 0400 0000 97ec de44 fbbe c641 b383 e744
000001d0: e3fb b742 c3d9 0f44 70b6 f943 be26 0a43
000001e0: efd7 6744 0400 0000 900b 8744 c261 4e44
000001f0: a429 9a43 11e4 df41 7ec9 5644 c97a a844

fc2.weight f4 [128, 128]
0.09989561 0.060493805 -0.29676977 -0.8439444 1.4555125 -0.6583858 0.32735473 0.62965435
-0.010612913 -1.0389736 1.47115 -0.39156362 -1.0026978 1.0083935 -0.25517476 0.361743
0.9720106 -0.69774884 -0.24895872 1.7733414 -3.8532107 0.8816345 0.6585128 0.63610584
1.824495 3.2365377 0.3170734 -0.152102 0.4329614 0.49190396 -0.21730088 0.931929
-1.3580625 1.0516517 -0.49450472 -0.015238829 0.9481556 0.12199594 -0.36615378 1.9028572
-0.061563026 -0.8398697 0.23371388 1.6317801 1.0181385 2.1467378 -0.697204 0.4001689
-1.7505366 -0.507078 5.4588585 0.8866601 -0.63445204 0.43058825 0.4067052 -0.5670732
-0.37337315 0.6572398 0.402802 -0.43351576 0.19954214 4.6439533 -0.61466783 -0.67970717
-1.013738 -1.0457323 1.5701108 2.4522367 -0.1566573 1.7636588 0.51727414 -1.3451933
0.39496562 -0.22287086 -1.1104141 0.061334554 -0.38172123 0.1605914 0.06489329 1.4767385
1.4334539 -0.33751076 -0.24924266 2.607193 0.03836678 0.32418278 0.58706987 1.3179046
1.1528853 0.5939338 1.7012451 1.1090103 0.36118972 0.27150568 -1.3132033 0.04694989
-0.07593593 0.32066423 -0.052259024 0.38379222 0.26924917 0.50727344 -0.5614668 -2.6489518
-1.0071676 0.2110736 -1.1326907 0.7163993 -0.4664046 0.7074577 0.3055244 1.5343182
1.1891037 -0.9445667 -0.41988245 0.70339906 -0.8404561 -1.1843685 0.13733293 -0.2898484
1.8396667 -0.23717478 -1.3435758 -1.3669375 -0.27739695 -1.2844023 -0.477393 2.5115843
0.69557816 -0.39689744 0.18328068 -1.9151558 0.14780399 0.032528415 -0.30326515 -0.30122617
-0.5895335 -0.32474938 -1.094113 -0.06058201 0.15116657 0.71246827 1.7337527 -0.8178625
-1.2489115 0.9705492 0.8435631 1.0281149 -0.481246 1.0263232 0.90452385 -1.0689335
0.55837333 0.7441349 1.3620232 1.1747228 -1.0154063 -0.53505564 0.09976751 0.91895866
-1.5373036 -0.42270684 1.0153716 -0.9981766 0.15739569 1.1742195 0.9586816 0.65902907
0.29676196 0.31971714 -0.03223997 0.38704368 0.15783055 0.25883615 0.85312456 -0.8186896
-0.45609796 0.18221976 1.2488922 -0.19166051 0.9964153 0.0822986 -0.14385834 0.481996
0.54484826 -1.5474648 -0.06759631 -1.066028 0.6696091 0.80746514 0.13936558 0.28383517
0.13988827 -0.91448057 -0.024731457 0.92867696 0.55056185 1.455812 -0.9281934 0.31513426
-1.834237 1.1698928 1.1828396 1.1636745 0.9685819 1.2306248 -0.9343684 -0.037121914
0.65000963 -0.47893828 1.2212534 -0.5656274 0.57041484 -1.4513006 0.08649735 1.4895684
-1.0762075 -1.4376011 1.6530684 1.0824257 -0.67345446 0.3455277 -0.15214998 0.53793
-0.44375914 -0.07045772 0.28878778 0.8176754 -0.86724657 0.40238497 0.3043779 -0.5539313
0.12896045 0.19548392 -0.3889284 -1.4152138 0.5815367 0.43684074 0.6413213 -0.077326424
0.14862184 -0.44682604 1.2071524 -0.18947588 0.3879169 -0.17596626 2.9508145 -0.9730146
1.7238789 0.09043053 -0.6614776 -0.83434 -0.031471275 1.9367507 -0.91170865 -0.007557795
00000000: 1296 cc3d 5ac8 773d 35f2 97be bd0c 58bf
00000010: 3c4e ba3f f98b 28bf 0a9b a73e 0731 213f
00000020: c9e1 2dbc 16fd 84bf a54e bc3f 077b c8be
00000030: 6758 80bf 0a13 813f 44a6 82be 6136 b93e
00000040: b0d5 783f ab9f 32bf 09ef 7ebe dafc e23f
00000050: 019b 76c0 ccb2 613f 4b94 283f d5d7 223f
00000060: 0d89 e93f 6f23 4f40 7257 a23e a0c0 1bbe
00000070: 1ead dd3e d6da fb3e 1f84 5ebe e692 6e3f
00000080: fed4 adbf 869c 863f b92f fdbe 48ac 79bc
00000090: 53ba 723f 02d9 f93d 8278 bbbe d390 f33f
000000a0: 8329 7cbd b301 57bf b152 6f3e 2cde d03f
000000b0: 5d52 823f 2764 0940 f67b 32bf f0e2 cc3e
000000c0: 9511 e0bf ddcf 01bf f8ae ae40 28fc 623f
000000d0: 736b 22bf 1076 dc3e aa3b d03e b62b 11bf
000000e0: c42a bfbe de40 283f 103c ce3e c7f5 ddbe
000000f0: c654 4c3e 449b 9440 df5a 1dbf 4a01 2ebf
00000100: 2bc2 81bf 8eda 85bf 64f9 c83f 72f1 1c40
00000110: c56a 20be 92bf e13f 146c 043f 4b2f acbf
00000120: ef38 ca3e 4238 64be 0d22 8ebf f139 7b3d
00000130: f770 c3be 1272 243e c6e6 843d c405 bd3f
00000140: 6b7b b73f 36ce acbe 7839 7fbe 40dc 2640
00000150: 7c26 1d3d 49fb a53e 364a 163f 19b1 a83f
00000160: bf91 933f 0c0c 183f 66c2 d93f 0df4 8d3f
00000170: dced b83e cb02 8b3e 0c17 a8bf 874e 403d
00000180: 4c84 9bbd 1a2e a43e 8f0d 56bd 6a80 c43e
00000190: 07db 893e acdc 013f 4abc 0fbf 6d88 29c0
000001a0: deea 80bf ae23 583e 02fc 90bf f265 373f
000001b0: 95cc eebe f31b 353f b26d 9c3e 8a64 c43f
000001c0: 8d34 983f 20cf 71bf d5fa d6be f611 343f
000001d0: 2228 57bf 6399 97bf 01a1 0c3e 0267 94be
000001e0: 337a eb3f f2dd 72be 4bfa abbf cff7 aebf
000001f0: f906 8ebe 4b67 a4bf db6c f4be ccbd 2040
00000200: 6911 323f 2436 cbbe eead 3b3e d323 f5bf
00000210: ee59 173e 843c 053d 9245 9bbe 513a 9abe
00000220: abeb 16bf 8d45 a6be e50b 8cbf d724 78bd
00000230: 69cb 1a3e 5264 363f 9ceb dd3f 705f 51bf
00000240: 55dc 9fbf ea75 783f c0f3 573f 4599 833f
00000250: e065 f6be 8f5e 833f e08e 673f d0d2 88bf
00000260: 8ef1 0e3f a07f 3e3f c756 ae3f 515d 963f
00000270: d5f8 81bf 68f9 08bf e952 cc3d e040 6b3f
00000280: 5dc6 c4bf 086d d8be b2f7 813f 8088 7fbf
00000290: 562c 213e d34c 963f 286c 753f 21b6 283f
000002a0: 2ff1 973e f7b1 a33e 0f0e 04bd 972a c63e
000002b0: 559e 213e 2c86 843e 5f66 5a3f a495 51bf
000002c0: ac85 e9be d197 3a3e b3db 9f3f a742 44be
000002d0: 1315 7f3f 2b8c a83d 9a4f 13be 2ec8 f63e
000002e0: 2d7b 0b3f 5413 c6bf ef6f 8abd 9b73 88bf
000002f0: 816b 2b3f 09b6 4e3f dab5 0e3e d852 913e
00000300: df3e 0f3e 661b 6abf a099 cabc c6bd 6d3f
00000310: 9ff1 0c3f 0c58 ba3f 159e 6dbf 4759 a13e
00000320: 47c8 eabf 0cbf 953f 4a67 973f 49f3 943f
00000330: fcf4 773f 1d85 9d3f c432 6fbf 260d 18bd
00000340: 0867 263f 6637 f5be 0852 9c3f f5cc 10bf
00000350: b506 123f 38c4 b9bf 8625 b13d 2daa be3f
00000360: 2bc1 89bf 5003 b8bf bf97 d33f ed8c 8a3f
00000370: 8367 2cbf 02e9 b03e 34cd 1bbe c8b5 093f
00000380: 6634 e3be 234c 90bd fedb 933e 2d53 513f
00000390: df03 5ebf 6705 ce3e 6cd7 9b3e 71ce 0dbf
000003a0: 350e 043e f02c 483e a021 c7be ba25 b5bf
000003b0: 97df 143f 97a9 df3e a22d 243f 515d 9ebd
000003c0: 5330 183e 62c6 e4be f883 9a3f f705 42be
000003d0: 0b9d c63e 8030 34be 25da 3c40 7c17 79bf
000003e0: 10a8 dc3f a433 b93d 9956 29bf 4e97 55bf
000003f0: 06e8 00bd 72e7 f73f bd65 69bf 61a7 f7bb

fc2.bias f4 [128]
-0.89690465 -1.4240714 0.477715 -0.06539757 -0.50741726 0.2696934 -1.217273 -1.4611299
-1.2089176 1.1218727 -0.7272444 -0.06070487 0.79363865 -0.24165808 -0.3134687 -0.21877116
-2.5854502 0.15494883 -1.0672193 -0.08416075 -1.3690796 -1.532584 0.52551967 1.7445562
1.4080343 -1.7041479 -1.3532524 0.4675894 1.2481571 -0.38742638 -1.0408976 -0.76805353
-1.2328769 -1.0213219 -0.20666113 0.2702418 0.8141591 1.3093333 -0.14194036 -0.1969593
1.3577029 -1.0364921 -0.65866065 -1.1249232 1.3721107 -0.905785 -1.6720606 0.25433895
-1.5611401 -2.158592 -0.78098065 -0.42437696 -1.012263 -0.6660521 -1.1925979 0.20235078
1.1654315 -0.4141171 0.014297068 -1.7963256 -0.9357643 1.3756098 0.4203974 -3.0027745
0.41128433 -1.1266885 -0.5209269 0.7285329 -0.3570215 0.10357251 0.16732311 0.4669566
-2.3830802 -0.67506284 -1.4576153 -0.7238011 -0.43255568 -0.93835217 -1.1070923 -0.52763563
-0.09279628 -1.1322948 -2.8811746 -0.5489151 -1.5867043 0.04815052 -0.5623438 0.6421845
0.5501773 1.074577 -0.9449959 -1.5476103 -1.4976783 -0.55782807 -1.8603871 -0.93363535
-0.32614315 -0.77957803 -0.13572706 -1.2208996 -1.0378128 -0.10049985 -0.44704774 -1.659328
0.9249314 -1.4113276 -1.8399634 -1.2732079 -0.81946105 0.8362498 0.6034258 -0.003957709
0.9009972 -0.98010796 -1.2633638 -0.59920543 -1.564469 0.47824663 0.20533523 -0.24819265
0.8088621 -0.04793691 -1.235805 -0.12741874 -1.3439592 0.9918165 0.6219071 -0.9095873
00000000: 8b9b 65bf f947 b6bf 0f97 f43e 29ef 85bd
00000010: 19e6 01bf 4115 8a3e 9acf 9bbf 4e06 bbbf
00000020: d0bd 9abf 8699 8f3f b02c 3abf aba5 78bd
00000030: e72b 4b3f 3775 77be f87e a0be 8c05 60be
00000040: 0478 25c0 e8aa 1e3e a49a 88bf 795c acbd
00000050: 003e afbf b62b c4bf 7588 063f 9e4d df3f
00000060: 783a b43f 8521 dabf 6037 adbf e167 ef3e
00000070: 9dc3 9f3f c05c c6be 223c 85bf 289f 44bf
00000080: e9ce 9dbf adba 82bf fa9e 53be 225d 8a3e
00000090: bb6c 503f 3c98 a73f d058 11be b3af 49be
000000a0: 35c9 ad3f c6ab 84bf fc9d 28bf 7cfd 8fbf
000000b0: 53a1 af3f 87e1 67bf 1506 d6bf b738 823e
000000c0: 70d3 c7bf 5f26 0ac0 59ee 47bf f047 d9be
000000d0: d591 81bf 6482 2abf 0ca7 98bf 0b35 4f3e
000000e0: dc2c 953f 2807 d4be 403e 6a3c ffed e5bf
000000f0: 408e 6fbf fb13 b03f 543e d73e 752d 40c0
00000100: dc93 d23e 5437 90bf 775b 05bf 2281 3a3f
00000110: 86cb b6be d31d d43d c056 2b3e ef14 ef3e
00000120: 6384 18c0 ebd0 2cbf 2393 babf 074b 39bf
00000130: f077 ddbe d937 70bf 33b5 8dbf 2113 07bf
00000140: fa0b bebd 09ef 90bf 2a65 38c0 b385 0cbf
00000150: 2019 cbbf 7b39 453d c3f5 0fbf 3466 243f
00000160: 6bd8 0c3f bd8b 893f 40eb 71bf 1818 c6bf
00000170: ecb3 bfbf d2cd 0ebf 2a21 eebf ba02 6fbf
00000180: 3cfc a6be 6d92 47bf 09fc 0abe 7046 9cbf
00000190: 0dd7 84bf ded2 cdbd 71e3 e4be dc64 d4bf
000001a0: 4ec8 6c3f 62a6 b4bf ec83 ebbf 7af8 a2bf
000001b0: 33c8 51bf 7814 563f 1d7a 1a3f abaf 81bb
000001c0: c1a7 663f 5be8 7abf e8b5 a1bf 8765 19bf
000001d0: 8540 c8bf bedc f43e 6643 523e 3726 7ebe
000001e0: 9611 4f3f 7e59 44bd dc2e 9ebf 0f7a 02be
000001f0: db06 acbf b0e7 7d3f 4e35 1f3f b7da 68bf

fc3.weight f4 [2, 128]
2.409286 -0.33269337 2.236293 -0.38405758 1.4074428 -1.731991 -0.110448845 0.01637086
0.07063402 -1.2909184 0.10226427 -1.3392766 -2.2877877 -1.3214173 -0.9451711 -0.92641056
2.501716 -1.7803319 1.6991092 -0.90604514 -0.307076 2.4043953 -1.1845089 -1.6879852
0.6202802 -0.9168232 1.5332928 -0.3835679 -1.9559486 -0.37790287 0.7480485 0.5197428
0.33934453 1.6838881 -1.7060628 2.9217682 -1.7816186 -1.2577786 -1.6207298 -1.0655775
-2.1811867 0.79737616 -0.92359596 -0.5003448 -1.6054246 1.0969851 0.34011865 2.8318202
1.7953308 -0.98409015 -0.37661198 0.8142006 1.6065415 0.66263723 -1.3864858 -1.1228536
-1.4604721 -0.63688344 -0.824557 -0.8653639 1.2542273 -1.7273866 -1.4122647 2.1182604
2.4191658 1.5983931 0.24756052 -1.1569694 1.0698323 -0.47253942 -1.4152272 -1.6156076
0.5379732 -0.08742225 -0.15565081 -0.81653243 -1.9424917 -0.9063647 -0.19658855 -0.25260797
1.1459049 0.5388806 1.1616857 -0.77511483 0.6378086 -1.4263098 1.4206014 -1.384879
-1.500809 -1.154245 3.0474236 -0.06536244 -1.367127 -1.8079239 -0.0046477513 -2.0769439
0.71515566 -1.6654141 -1.7793494 2.0041378 -1.2349478 -0.8291344 1.8365384 2.3244667
-1.8688258 1.951077 -0.5573612 0.6530189 -1.004268 -1.8436087 -2.0367973 -1.2887282
-2.6502 3.5544124 2.131006 0.95526165 -0.16636226 2.5677693 -1.42372 -0.43862388
-1.7078532 -0.32102254 1.7499337 -1.1045873 1.5620463 -1.2269591 -1.864701 -0.14398727
-1.1224643 0.13077287 0.8543556 2.347149 0.26267928 -1.987377 -1.2500637 -2.3923283
-1.0040674 2.1079464 -1.5783744 0.01728015 -2.0065348 0.016884612 0.10974941 0.75374883
-0.15017271 -0.102677785 -2.2467165 1.6644256 -1.4326662 -0.21734682 -0.08376923 0.640746
1.9128085 1.8290312 -0.514753 2.8099973 0.045353767 -1.7192793 -1.2367344 -1.6519873
-0.95503604 -0.82280326 -0.22199304 0.4808734 0.0194856 1.7482369 -0.3114033 -0.06109279
-0.19224715 -1.2411005 -3.5366285 0.7485103 0.019657407 0.35494235 -0.9256975 0.30368945
-1.2149627 0.9024617 -0.015550628 -0.6910682 0.1990161 0.6561464 0.19274524 2.6020617
-0.42826682 0.89970136 -0.6621878 1.0871727 -1.1490064 -0.1311389 1.8734189 1.0112965
0.8998332 -2.076917 -1.6382205 -0.4983599 -0.7313263 0.5610965 0.45605835 0.88066494
0.8320988 -0.015683472 -1.1970494 1.4921224 -1.6030667 0.70454913 -0.9561316 0.5233247
-0.2620533 -1.3826894 0.3538401 0.6991931 1.908817 -0.7537766 0.52597195 -1.3109114
1.5643996 0.56890094 -0.59021837 -3.3960745 0.066938125 0.09735463 -0.1859478 0.999766
-2.6919 0.07754641 -1.0211784 -2.1353996 -3.6623306 0.26551348 -0.67332596 -1.1292399
0.17738137 -1.6507454 0.05063091 -0.9440303 -1.7382041 0.71847385 -0.050671555 -1.8902657
0.2548827 -1.2356974 -1.1974653 1.3678216 -0.7045832 0.48496422 -1.4282063 0.5620131
1.5231452 0.12217676 0.64528424 1.1383411 -1.8219234 1.6280423 0.12385132 -2.837421
00000000: be31 1a40 c956 aabe 6d1f 0f40 32a3 c4be
00000010: 1627 b43f e2b1 ddbf 0133 e2bd 2f1c 863c
00000020: 92a8 903d d03c a5bf ee6f d13d 6a6d abbf
00000030: 1d6b 12c0 3424 a9bf bcf6 71bf 3e29 6dbf
00000040: 1d1c 2040 eae1 e3bf 697c d93f 93f2 67bf
00000050: 1139 9dbe 9de1 1940 fd9d 97bf e60f d8bf
00000060: afca 1e3f edb4 6abf f042 c43f 0363 c4be
00000070: 865c fabf 7c7c c1be 1b80 3f3f dd0d 053f
00000080: 91be ad3e a589 d73f 4460 dabf 40fe 3a40
00000090: 140c e4bf e4fe a0bf 1374 cfbf d864 88bf
000000a0: 9098 0bc0 d820 4c3f c970 6cbf 9916 00bf
000000b0: 8e7e cdbf 026a 8c3f 0824 ae3e 8b3c 3540
000000c0: 66cd e53f 55ed 7bbf 49d3 c0be 736f 503f
000000d0: 27a3 cd3f 98a2 293f 5e78 b1bf abb9 8fbf
000000e0: c0f0 babf cb0a 23bf 2b16 53bf 7d88 5dbf
000000f0: 858a a03f 011b ddbf 17c5 b4bf 9491 0740
00000100: 9dd3 1a40 2598 cc3f 8180 7d3e 9317 94bf
00000110: 44f0 883f b0f0 f1be 2a26 b5bf 3bcc cebf
00000120: 9db8 093f 700a b3bd ed62 1fbe 4508 51bf
00000130: 91a3 f8bf 8407 68bf 824e 49be d555 81be
00000140: 03ad 923f 14f4 093f 1eb2 943f ed6d 46bf
00000150: 6d47 233f 5291 b6bf 44d6 b53f b743 b1bf
00000160: 821a c0bf 4dbe 93bf fd08 4340 bedc 85bd
00000170: 04fe aebf 0d6a e7bf 2a4c 98bb a6ec 04c0
00000180: 7114 373f 4a2c d5bf b9c1 e3bf cb43 0040
00000190: c512 9ebf 2742 54bf b113 eb3f 10c4 1440
000001a0: af35 efbf e4bc f93f 39af 0ebf 3f2c 273f
000001b0: db8b 80bf 5ffb ebbf e35a 02c0 0cf5 a4bf
000001c0: e09c 29c0 7e7b 6340 6762 0840 078c 743f
000001d0: de5a 2abe 5556 2440 753c b6bf 4f93 e0be
000001e0: ef9a dabf 115d a4be d4fd df3f 1e63 8dbf
000001f0: 22f1 c73f ff0c 9dbf 86ae eebf 6671 13be
00000200: e9ac 8fbf 53e9 053e 0cb7 5a3f b037 1640
00000210: e67d 863e 5f62 febf 1602 a0bf e81b 19c0
00000220: 4885 80bf 98e8 0640 2c08 cabf 1a8f 8d3c
00000230: 116b 00c0 9951 8a3c 4cc4 e03d aff5 403f
00000240: e0c6 19be bb48 d2bd 34ca 0fc0 e60b d53f
00000250: 9b61 b7bf 2a90 5ebe 348f abbd ee07 243f
00000260: e9d6 f43f b21d ea3f dac6 03bf ffd6 3340
00000270: dfc4 393d 5811 dcbf 504d 9ebf 5274 d3bf
00000280: 3e7d 74bf 3ca3 52bf 2552 63be 0a35 f63e
00000290: 44a0 9f3c 3ac6 df3f 4170 9fbe 6f3c 7abd
000002a0: 70dc 44be 62dc 9ebf 1f58 62c0 5f9e 3f3f
000002b0: 9208 a13c 01bb b53e 83fa 6cbf 2f7d 9b3e
000002c0: e683 9bbf bb07 673f 10c8 7ebc d8e9 30bf
000002d0: e0ca 4b3e 36f9 273f 025f 453e 2e88 2640
000002e0: ca45 dbbe d452 663f 2485 29bf 7a28 8b3f
000002f0: a412 93bf 4749 06be 31cc ef3f 2a72 813f
00000300: 785b 663f 35ec 04c0 36b1 d1bf 0729 ffbe
00000310: 3338 3bbf 05a4 0f3f 7b80 e93e 4273 613f
00000320: 6d04 553f a07a 80bc ea38 99bf defd be3f
00000330: 4a31 cdbf 555d 343f 0ac5 74bf 9cf8 053f
00000340: da2b 86be f7fb b0bf 882a b53e 52fe 323f
00000350: 1e54 f43f 81f7 40bf 19a6 063f f2cb a7bf
00000360: 3f3e c83f 7ea3 113f 8d18 17bf 4959 59c0
00000370: db16 893d dd61 c73d 1a69 3ebe aaf0 7f3f
00000380: 1748 2cc0 a7d0 9e3d f9b5 82bf 63aa 08c0
00000390: a063 6ac0 62f1 873e 175f 2cbf ef8a 90bf
000003a0: 76a3 353e a04b d3bf 5b62 4f3d f8ab 71bf
000003b0: 797d debf e7ed 373f fa8c 4fbd 3af4 f1bf
000003c0: fc7f 823e 552b 9ebf 8b46 99bf c714 af3f
000003d0: 915f 34bf 3b4d f83e 77cf b6bf 17e0 0f3f
000003e0: 6cf6 c23f cf37 fa3d 5931 253f 29b5 913f
000003f0: c934 e9bf b163 d03f c3a5 fd3d 4e98 35c0

fc3.bias f4 [2]
0.45808136 1.3871619
00000000: a489 ea3e 858e b13f
