training_output/best_agent/checkpoints/episode_639/weights_actor.pth (torch_old, 83672 bytes, 10 tensors)

fc1.weight f4 [128, 24]
000000 e9 1c bf 3f 2c d0 a5 bf d3 1b ed be 09 53 22 c0
       1.4930698 -1.2954154 -0.4631029 -2.536318
000010 70 60 f5 bf 75 cf 8b 3e b3 bc d5 be 3f b8 20 c0
       -1.9170055 0.27306715 -0.4174553 -2.5112455
000020 0b 7d be 3f 26 af d7 bf 76 12 78 3d c5 3f bd bf
       1.488191 -1.6850326 0.06056448 -1.4785086
000030 bc bf 0a c0 8f 51 ae 3f fa 0d 82 3d 92 43 b7 bf
       -2.1679525 1.361864 0.06350322 -1.4317496
000040 aa 7a 05 40 c7 62 bf bf 06 b8 5b bf 68 1d 6f 3f
       2.0856118 -1.495202 -0.8582767 0.93404245
000050 35 71 17 c0 bb fa 63 3f e8 bb 4a bf 02 3f 8a 3f
       -2.3662846 0.8905446 -0.7919297 1.0800478
000060 7c ad 63 3d 67 99 e0 3f 50 8a 01 3f 7d 42 47 bf
       0.05558537 1.7546815 0.50601673 -0.7783583
000070 01 67 a3 3f 78 30 89 bf 62 fd f2 3e 6e d1 6b bf
       1.2765809 -1.0717916 0.4745894 -0.9211644
000080 90 51 d7 3c ec f1 c2 3f 9a d3 76 3f 62 27 e7 bb
       0.02628401 1.5230079 0.9641663 -0.0070542553
000090 73 6b aa 3f 41 6b 20 c0 66 33 73 3f 30 e3 59 bd
       1.3314041 -2.5065463 0.950003 -0.05319518
0000a0 8f a3 54 3d 27 06 ba 3f 7a 53 dc 3e 1f a0 d7 3e
       0.051913794 1.4533128 0.43032438 0.4211435
0000b0 ef 7f 9f 3f d9 d7 8f c0 5f 6a fb 3e 3c 17 cb 3e
       1.2460917 -4.4950986 0.49104592 0.39666164
0000c0 e5 ae 95 3f 1b 2c 2f c0 58 a4 9f be 5c c1 13 bf
       1.1693999 -2.737067 -0.31180072 -0.5771692
0000d0 2d 5f aa 3b c1 9c 0f c0 73 d6 b1 be ee 8a dc be
       0.005199334 -2.2439425 -0.34733924 -0.43074745
0000e0 ad 91 67 3f f2 af 25 c0 e7 45 b5 bf bf dc 09 bf
       0.9045666 -2.5888638 -1.4161958 -0.53852457
0000f0 44 d9 82 be 41 8c fc bf 82 fb ab bf 45 0b 0f bf
       -0.25556386 -1.9730302 -1.3436129 -0.5587657
000100 69 1f a0 3f 75 41 37 c0 7f f1 95 3f 4a b7 c9 bf
       1.2509586 -2.8633702 1.1714324 -1.575906
000110 2d 27 7f bf e9 3f 75 bf f4 2d 93 3f 3c df cb bf
       -0.9966915 -0.95800644 1.1498399 -1.5927501
000120 9e cc 25 3f 0a 98 c3 c0 ba f6 ec be 63 35 65 3f
       0.64765346 -6.1123095 -0.46281987 0.89534587
000130 9a cd df 3f fe bb de bf a7 ee 0d bf dc d6 5f 3f
       1.748462 -1.7401121 -0.5544228 0.87437224
000140 68 69 92 3e bc 9e b6 c0 03 45 86 3d c0 a7 4e 3f
       0.28596044 -5.7068768 0.06556132 0.80724716
000150 8a 96 8e 3e f5 c5 30 3f 15 91 00 3c aa 70 3c 3f
       0.27849227 0.6905206 0.00784709 0.7360941
000160 d1 89 9e 3f 0c de 9e c0 c4 16 f9 3e 1d ba 12 bf
       1.2385808 -4.9646053 0.4865018 -0.57315236
000170 98 e3 ab bf 0c 9f e2 3f 76 16 02 3f 79 90 17 bf
       -1.3428831 1.7704787 0.5081552 -0.5920482
000180 f0 f9 a9 be 8b 61 25 3f 6f c9 d5 be bf b0 d1 3f
       -0.331985 0.64601964 -0.41755244 1.6382064
000190 46 c1 5b 3f 75 44 40 3f 68 20 ce be 6a 8d d9 3f
       0.85841787 0.7510446 -0.402591 1.6996281
0001a0 5b 78 0e 3e 6d a8 f9 3f e7 65 de be 01 49 22 40
       0.139131 1.9504524 -0.4343712 2.5357058
0001b0 55 af cb 3f 16 e1 8a 3f f8 9f d3 be 67 d9 25 40
       1.5912882 1.0849941 -0.41332984 2.5913942
0001c0 2e 48 ba be 90 aa 21 40 5e 1b 09 bf 34 bb e0 3f
       -0.36383194 2.5260353 -0.53557384 1.755713
0001d0 40 7e 24 40 c5 5e 0a 40 f2 6b fd be b9 dd db 3f
       2.5702057 2.1620343 -0.49496418 1.7177039
0001e0 ad 35 86 bf 61 9c 39 40 1a 48 f1 bc 61 cf c7 be
       -1.048513 2.9001696 -0.029453326 -0.39025405
0001f0 77 bb 87 bf bf f0 06 c0 af bd 67 bd 38 c1 ae be
       -1.0604085 -2.108444 -0.05657738 -0.3413179
000200 22 c4 9a bf b3 66 45 40 9f 65 98 bc bf 91 98 bb
       -1.2091105 3.0843933 -0.018603144 -0.004656046
000210 88 9d 49 be d7 d6 87 c0 52 a9 1b bb 68 68 2a bd
       -0.19689 -4.2449756 -0.0023752046 -0.041603476
000220 d9 9f c3 bf 44 d2 50 40 3d 76 2d be 53 bb 91 3f
       -1.5283157 3.2628336 -0.16939636 1.1385292
000230 8a fc d8 3e 4c 2c eb c0 da e2 ff bd ba da 9e 3f
       0.42380172 -7.3491573 -0.124944404 1.24105
000240 13 60 06 3e 66 d7 c3 be dd 07 89 bf 96 69 1e c0
       0.13122587 -0.38250273 -1.0705525 -2.4751945
000250 8b 88 ce bd 58 38 24 c0 ed 1d 83 bf 1a a9 1e c0
       -0.10084637 -2.565939 -1.0243508 -2.4790711
000260 75 c8 ff 3d 03 e1 9d bf 1c 3c dd be f0 b1 d4 bf
       0.12489406 -1.2334293 -0.43209922 -1.6616802
000270 ad f3 15 3e 67 46 0f c0 60 c5 b9 be f4 03 de bf
       0.14643736 -2.238672 -0.36283398 -1.7344956
000280 de 74 d5 3e 2a 8f ea bf ff 5d 14 3f 9e 57 2a bf
       0.41690725 -1.832494 0.57955927 -0.66539943
000290 db 08 0e 3f 51 2e c3 bf 90 6e 33 3f 95 fc 18 bf
       0.5548226 -1.524851 0.7009058 -0.5976041
0002a0 58 72 cd bd e2 18 6d c0 d6 23 70 be 3e 31 b9 be
       -0.10031575 -3.7046437 -0.2345117 -0.3617038
0002b0 36 af 0f 40 d0 7d 8a bf b9 90 ac be 0d c0 e3 be
       2.245069 -1.0819645 -0.33704165 -0.4448246
0002c0 89 25 49 be 2f 89 75 c0 80 e5 c7 3e 1e 6f a0 bf
       -0.19643225 -3.836498 0.39042282 -1.253391
0002d0 13 00 c5 3f f1 48 0f bf a1 11 e0 3e 9b cc 97 bf
       1.5390648 -0.55970675 0.4376345 -1.1859316
0002e0 cc 93 3a 3f 96 95 6c c0 08 e0 aa 3f 84 2a 22 bf
       0.7288177 -3.69663 1.3349619 -0.63346124
0002f0 85 11 0b 3f 59 1f 0d bf cf 8c a4 3f ba 98 24 bf
       0.5432361 -0.5512596 1.2855471 -0.6429554
000300 89 77 18 3f 63 52 24 3f 11 a1 5e 3e 75 89 73 bf
       0.59557396 0.6418821 0.2174113 -0.9513162
000310 f9 e0 ef bf d1 1e a9 bf 31 16 4c 3e 0e 0c 80 bf
       -1.8740531 -1.321253 0.1993034 -1.0003679
000320 b6 90 3d 3f cd 62 8c 3e 09 18 a8 be 3c 56 f2 bf
       0.74048936 0.2741913 -0.32830837 -1.8932567
000330 d2 ff 96 bf 35 b1 ea bf d0 39 84 be 3c ab f9 bf
       -1.179682 -1.8335329 -0.25825357 -1.9505382
000340 e7 1a ae 3f 3f 47 c7 bc e5 2b d9 3e d7 20 3c c0
       1.360196 -0.024325965 0.424163 -2.9395044
000350 9f 77 2c bf 23 d7 e6 bf 46 c0 dc 3e e2 cc 40 c0
       -0.6737003 -1.8034405 0.43115443 -3.012505
000360 0b 0d 4e 3f 4b ca 2d c0 32 3d da 3e 6b c6 26 3f
       0.8048865 -2.715472 0.42624813 0.6514651
000370 eb 92 dd bf e3 c9 ce bf 5b 3b 96 3e 26 71 1f 3f
       -1.7310461 -1.6155361 0.2934216 0.62282026
000380 a3 0d 4e 3f 20 16 22 c0 fb f3 b4 3e 59 e7 6a 3e
       0.8048956 -2.5326004 0.35342392 0.22939815
000390 ee cb f4 bf 28 3a d2 bf 3e 5f 87 3e e5 9f 18 3e
       -1.9124734 -1.6423998 0.26439852 0.14904745
0003a0 5b c0 e1 3f 74 3c 35 c0 54 91 d0 3e 80 87 0e c0
       1.7636827 -2.8318148 0.40735877 -2.2270203
0003b0 eb ab 09 c0 fe ae 28 bf 87 14 06 3f ae 37 0e c0
       -2.151118 -0.65892017 0.5237507 -2.2221484
0003c0 24 36 08 3e bd f4 15 40 f2 f5 d3 3e 49 78 4f c0
       0.13301903 2.3430626 0.4139858 -3.2417166
0003d0 b6 86 ed 3c c8 60 a8 3d 5b 48 d0 3e 62 55 48 c0
       0.0289949 0.082215846 0.40680203 -3.1302114
0003e0 89 c3 4b 3f 21 a6 d0 3f a2 30 5c 3f 9f ff 28 c0
       0.7959524 1.6300699 0.8601171 -2.6406019
0003f0 5a b0 8c 3f d0 54 89 3d e2 32 60 3f 4a ec 27 c0
       1.0991318 0.0670563 0.8757764 -2.623797

fc1.bias f4 [128]
000000 29 75 10 c0 27 1e d7 be 52 11 27 bf b6 b9 be be
       -2.257151 -0.42015192 -0.65260804 -0.3725106
000010 a2 ec e2 bf c5 7c 9a 3e bb ba 5c bf 34 cf 5e be
       -1.7728465 0.30173317 -0.8622243 -0.21758729
000020 9c 97 a3 bf 1a c9 3f bf ce df c9 be d9 49 49 bf
       -1.2780643 -0.7491623 -0.39428562 -0.7862831
000030 4b e9 b5 be 29 78 9b bf 13 03 d2 be 84 de 7d bf
       -0.3552955 -1.2146045 -0.4101797 -0.99167657
000040 8f a3 dc be 7d 01 24 bf 28 ca 1a c0 27 22 fc be
       -0.43093535 -0.6406477 -2.4185886 -0.49244806
000050 73 24 19 bf 51 cd f1 bf 24 cc 74 bf 32 f0 da 3d
       -0.5982124 -1.8890783 -0.95623994 0.10690345
000060 1b c2 b7 bf 9e 58 e9 bf a5 22 f1 be 78 6f e2 bf
       -1.4356111 -1.8230169 -0.47096744 -1.7690268
000070 97 f5 0d c0 f6 66 1b be 24 2c 9b 3d 76 24 ea 3f
       -2.2181146 -0.15175995 0.075767785 1.8292377
000080 b0 37 ea 3f 11 33 f6 be fb e2 0c c0 c0 ad 33 3d
       1.8298244 -0.48085836 -2.2013538 0.043866873
000090 cc 5f 45 bf 09 20 e3 3b 62 a8 20 c0 88 3f bc bf
       -0.770993 0.006931309 -2.5102773 -1.4706888
0000a0 cb 1f 1e bf bf 5d 36 bf bf 6b 90 bf 1e e0 6b 3f
       -0.6176726 -0.71236795 -1.1282881 0.9213885
0000b0 33 2b de bf 09 11 99 bf 51 5f 22 bf 3b 95 02 c0
       -1.7356933 -1.1958324 -0.6342669 -2.0403583
0000c0 aa e5 7d bf 86 8b 8b bf 3c 2d b2 be dc ef 0a bf
       -0.99178565 -1.0901954 -0.34800136 -0.54272246
0000d0 97 57 5c c0 07 cb 24 3e 67 d2 00 bf ea c3 ef bf
       -3.442846 0.16093074 -0.5032105 -1.8731663
0000e0 95 db be bf c1 75 14 3e 16 ab 00 3f f5 8c 9d bf
       -1.4910761 0.14498045 0.50261056 -1.2308642
0000f0 53 04 5b bf b0 d7 7c bf 38 53 48 bf 9d 2a 05 3d
       -0.85553473 -0.98766613 -0.7825198 0.032511342
000100 8f 0b 02 bd e3 cb 03 bd d3 3c 62 bf db 6d d2 bf
       -0.031749304 -0.032176863 -0.8837406 -1.6439775
000110 19 a6 91 bf b1 54 29 c0 e8 5a 0a c0 a1 a7 98 be
       -1.1378814 -2.6457942 -2.1617985 -0.2981539
000120 da c4 67 3e 21 0d 74 bf e9 43 32 3f bd b0 ac 3d
       0.22633687 -0.95332533 0.6963487 0.08432148
000130 4c f9 75 bf 64 0c 37 3e cc 7e d7 3e 0a 37 d3 3f
       -0.9608352 0.1787582 0.42088926 1.6501172
000140 ab 3a 18 c0 7d c6 a2 bf a6 d3 f9 bf ea c5 30 bf
       -2.3785808 -1.2716824 -1.9517715 -0.6905199
000150 d3 78 b5 bf 5b 8b a8 bf 8f da 1c bf 1e fb e6 bf
       -1.4177498 -1.3167528 -0.61270994 -1.8045385
000160 e6 d0 20 c0 cc b2 0f c0 7b bd 06 c0 47 84 86 be
       -2.5127501 -2.245288 -2.105315 -0.26272795
000170 34 07 30 bf a4 1f 65 bf b1 36 bb bf 15 a9 da bf
       -0.6876099 -0.89501405 -1.4626065 -1.708285
000180 42 b0 05 bd 61 2c 21 be 03 43 e9 be ee c3 50 bf
       -0.032638796 -0.15739585 -0.45558938 -0.81548965
000190 18 b9 51 3f 74 88 da bf 42 34 f4 bc 0c 28 ac bf
       0.81923056 -1.7072892 -0.029810075 -1.3449721
0001a0 c5 94 0c c0 a7 31 22 3f 06 39 59 3e af b6 6a 3f
       -2.1965802 0.63357013 0.21213159 0.91685003
0001b0 45 c8 04 c0 0a 13 43 bf 59 6c 0b c0 32 f4 ca be
       -2.0747235 -0.76200926 -2.178488 -0.3963943
0001c0 e2 8a d6 bf ae cb 9c be c7 ac b1 bf f5 86 39 bf
       -1.6761134 -0.30624145 -1.3880852 -0.72471553
0001d0 a5 10 70 bf 74 ef 25 3f 6f 69 c4 bf 4d 2c 67 bf
       -0.937754 0.648185 -1.5344676 -0.9030197
0001e0 96 15 08 c0 a6 da f3 bf 34 b5 35 bc 85 76 c3 bf
       -2.1263175 -1.9051101 -0.0110905655 -1.5270544
0001f0 b3 9f c6 bf e2 97 e3 bf 86 ca 41 bf 86 7e af bf
       -1.5517486 -1.7780726 -0.7569965 -1.3710487

bn1.weight f4 [128]
000000 a8 ee 94 be a4 97 2d 3e f5 bb 40 3e 5f 4b 66 3f
       -0.2908833 0.16952378 0.188217 0.8995876
000010 ba a6 0c 3f 79 18 88 40 08 1c 10 be 22 b3 e6 3d
       0.54941905 4.2529874 -0.14073193 0.112646356
000020 0c 05 67 3e ea 33 cc 3f 60 67 58 3f 3e 75 00 40
       0.22560519 1.5953343 0.8453274 2.007156
000030 61 08 45 40 d4 0a cf 3f 56 37 17 3e e7 c0 a0 3e
       3.0786364 1.617518 0.14767203 0.31397173
000040 68 5d 9e 3f 42 c1 d4 3f 00 08 be 3f d0 bb 9d 3f
       1.2372255 1.6621478 1.4846191 1.2322941
000050 a3 9e 48 40 ce d1 4c 3e 67 a2 51 3f c1 42 a8 3f
       3.1346824 0.20001909 0.8188843 1.3145372
000060 f0 cb 2c 3f 4a ce 09 40 1f 32 5b 3f 6a a5 83 3e
       0.67498684 2.153216 0.85623354 0.25712138
000070 3d 31 85 3f 9b 8d d7 3f 6a 33 9d 3e 27 d0 44 3f
       1.0405651 1.684009 0.30703288 0.76880115
000080 f5 3c 4e 3f 57 9a 01 40 6c 89 ab bd 14 e2 f1 3d
       0.80561763 2.0250452 -0.083758205 0.11810699
000090 aa 9e e4 3f ca 20 00 3f 0b c4 a9 3e 84 8e f9 3f
       1.786092 0.5005003 0.3315738 1.9496617
0000a0 6f 61 6e be 26 7e 13 40 20 90 89 3a e5 b7 65 3e
       -0.23279355 2.3045745 0.0010495223 0.22433431
0000b0 d8 fb fb 3e 3b 13 06 40 23 59 f2 bd 65 8e e6 3f
       0.4921558 2.0949237 -0.11833408 1.8012205
0000c0 a0 4e f4 3f a3 08 ce bf 2c 1d 3e 40 e2 ff b1 3f
       1.9086494 -1.6096386 2.9705305 1.3906214
0000d0 67 45 b3 3f 37 74 08 3d f4 e8 3d bd ea c7 ba 3d
       1.4005555 0.033313956 -0.04636474 0.09120162
0000e0 ee 76 41 be cf 98 b5 3f 4f db 1e 3e 77 ae 10 3e
       -0.18893024 1.4187258 0.15513347 0.14129053
0000f0 4a 62 82 be 01 ca 12 40 42 4f bc 3e 42 eb 42 40
       -0.25465614 2.2935793 0.3677922 3.045609
000100 6b 9e 7f 40 e0 b7 f3 3f f9 54 a8 3f 39 79 24 40
       3.994044 1.9040489 1.3150932 2.5698988
000110 37 c0 52 40 83 1b 1b 40 d5 37 54 3f ff 8e ad 3f
       3.2929819 2.4235542 0.8289769 1.3559264
000120 03 79 b0 3f 0a b2 0a 40 7f c6 3f 40 15 7c f3 be
       1.378693 2.1671166 2.9964902 -0.47555605
000130 69 a8 a2 3d ff 01 e5 bd a8 09 e4 3f 6f ee 04 40
       0.07942278 -0.11182021 1.7815447 2.0770528
000140 ad 67 15 40 b9 69 21 40 da 99 91 40 41 31 e2 3f
       2.3344529 2.5220778 4.5500307 1.7671281
000150 a8 36 d2 3f fd a3 87 3f a4 b9 5e 3f 8d 19 cd 3f
       1.642293 1.059692 0.87002015 1.6023422
000160 af 99 47 40 bf 44 0c 40 3c 79 d8 3f 02 4c 83 be
       3.118755 2.191696 1.6911998 -0.25643927
000170 7c 7a 24 40 3e b0 3f 3f 70 69 04 3f 1f b9 95 3f
       2.5699759 0.748783 0.51723385 1.169712
000180 9d e1 70 3c 81 b1 be 3f 70 78 70 3e 20 67 c7 3f
       0.014702228 1.489792 0.23483443 1.5578346
000190 06 01 b0 3f c8 a0 28 40 35 2b 95 3f ef 1b 28 40
       1.3750312 2.6348133 1.1653811 2.626705
0001a0 fd 86 0f 40 b9 a2 87 be 2e 13 94 3f c2 88 8f 3d
       2.242614 -0.26491335 1.1568353 0.07008506
0001b0 df bd 99 3e de 96 8c 3c 34 f6 96 3f d8 4e 07 40
       0.30027673 0.017161783 1.1793885 2.1141872
0001c0 71 14 78 3f 7c b1 15 40 e1 d4 5c 3f 24 fa 33 3e
       0.9690619 2.3389578 0.8626233 0.1757589
0001d0 16 55 9e 3f 43 d8 a9 3f df 65 cd 40 9a 32 b5 3f
       1.2369716 1.3269123 6.4186854 1.4156067
0001e0 25 5f 99 3f c9 67 f8 3e f7 3c cd 3f 24 e5 ea 3f
       1.1982161 0.48516682 1.603423 1.8351178
0001f0 20 80 29 3e 1a 17 3d 3f f4 d0 93 3d b1 7c 46 40
       0.16552782 0.73863375 0.07217589 3.1013606

bn1.bias f4 [128]
000000 ee a2 42 bd f2 42 67 bb bc bc c3 3d 4e 7e 94 3f
       -0.047518663 -0.0035287705 0.095574826 1.1601045
000010 a3 60 e9 3d 5e 3f 6e 3f c7 7d 7d 3e 2f 2c c3 3e
       0.11395385 0.9306544 0.24755011 0.38119647
000020 dd f3 02 3e 95 66 c0 3e 59 b3 3b 3e 95 00 9a 3f
       0.12788339 0.37578264 0.18330134 1.2031428
000030 10 4f 88 3e 9d 23 1c bf 98 29 f1 be b8 ed 4d be
       0.2662282 -0.6099184 -0.47102046 -0.20110214
000040 6d ac cc 3f 2b 09 ca 3d 36 10 c0 bf 0d 6d 93 3e
       1.599012 0.0986503 -1.5004947 0.28794137
000050 41 91 80 bf bf 84 1f bf 53 bf 88 3e 7e 7d 90 3f
       -1.0044328 -0.6231193 0.2670847 1.1288297
000060 66 7c d5 be 98 e3 13 3f 5c 05 c2 be 7a 73 1a 3e
       -0.4169647 0.57769156 -0.37894714 0.15083113
000070 be 9a 58 3d e5 dd 80 3f 10 5f 43 3e de 31 88 bf
       0.05288195 1.0067717 0.19079232 -1.0640218
000080 ad ff 15 bf 7a 3b b5 be 0c 53 a9 bd a1 20 c9 3c
       -0.58593255 -0.3539694 -0.08267793 0.024551691
000090 e3 5a 12 3f 1b cd a4 bf 47 7c fd 3d 97 7c 6d 3e
       0.5716993 -1.2875093 0.1237722 0.23192059
0000a0 53 d4 07 bd 75 1e 7f 3e 77 10 0d 3e 2e 3e 2d be
       -0.033161473 0.24913962 0.13775812 -0.16918251
0000b0 75 05 c3 3d 09 83 dc 3e 27 2a 96 bd b5 21 eb 3e
       0.09522525 0.43068722 -0.07332259 0.45924154
0000c0 be 04 18 3f a2 1f 23 3f b0 d2 02 3f 03 9b 89 3f
       0.59382236 0.6372014 0.51102734 1.0750431
0000d0 07 40 bb bf a6 39 ca bd 7d d9 d4 bd 3f eb eb 3d
       -1.4628915 -0.09874277 -0.10393045 0.11519479
0000e0 4e db 37 bc 8a 4f f4 3e ee 90 9c bc 3f e7 8a 3d
       -0.01122172 0.47716933 -0.019112077 0.06782388
0000f0 da ce 41 3e 98 e6 99 3f 5b 44 33 3e 35 6b 06 3f
       0.18926564 1.2023497 0.17506544 0.52507335
000100 b0 6f fc 3e f0 87 34 3f 4d ba 1c 3e 30 e0 4b 3f
       0.4930396 0.70519924 0.15305443 0.7963896
000110 73 8c f2 3e 29 3f 50 3d 0a f5 11 be c6 60 1f 3f
       0.4737278 0.050841484 -0.14253631 0.6225704
000120 56 53 90 3f d1 cc e6 bf 20 e7 b7 bf e2 9f ad be
       1.1275432 -1.8031255 -1.4367409 -0.33911043
000130 16 ea b7 bd b1 cc a0 be 76 23 4e 3f 46 e2 28 bf
       -0.08980195 -0.31406167 0.8052286 -0.65970266
000140 ec 7e 17 be 33 5e 34 3f 87 35 6c bf fa 7e d0 3f
       -0.1479451 0.70456237 -0.92269176 1.628875
000150 ea 23 04 3f 59 39 d0 3e a1 26 fb 3e d0 e7 d5 3d
       0.516173 0.40668753 0.4905291 0.10444605
000160 b7 b3 cd 3e 47 a7 4e 3e 26 59 d3 3e 03 b8 59 be
       0.40176174 0.20180999 0.41278952 -0.21261601
000170 b5 41 dc 3f 2a f5 69 bf 15 40 f1 3c f7 24 cf 3e
       1.7207552 -0.91389716 0.029449502 0.4045789
000180 1d ca 23 bd 8f 97 14 3f e2 e5 4b be b2 07 43 3e
       -0.039987672 0.5804376 -0.19911912 0.19045904
000190 60 0a 8a 3f 43 a5 ec 3e d2 03 32 3f 4d 70 01 3e
       1.0784416 0.46219835 0.6953708 0.12640496
0001a0 7f 16 ee be ce c5 0b bd e0 fb 1a 3f 89 06 6f be
       -0.46501538 -0.034124188 0.6054058 -0.23342337
0001b0 75 4f 9d 3d 63 b8 9f 3b c7 a1 c0 bd 4f 84 78 3e
       0.07681171 0.0048742755 -0.094058566 0.24269222
0001c0 52 47 db 3d 3d 5d 65 3f 6c d5 dc 3d 8f de 76 3e
       0.10706963 0.89595395 0.107828945 0.24108337
0001d0 6d 20 95 bd 6e 2b 35 3f e3 49 19 bf 98 0b 1e 3f
       -0.07281575 0.70769393 -0.5987837 0.6173644
0001e0 15 58 81 bf 19 1e 71 3d 0d 00 95 3f 0c 73 9c 3f
       -1.0105006 0.058866594 1.164064 1.222261
0001f0 3a c6 58 3e 92 94 56 be 77 72 1a 3e 7e 9f 8a 3f
       0.21169367 -0.20955113 0.15082727 1.0829923

bn1.running_mean f4 [128]
000000 7d 6c 0b 41 af 75 d5 41 73 6f ed 40 6b 43 31 41
       8.713986 26.682463 7.4198546 11.078959
000010 8c 58 c2 41 0c fb 2b 40 9f c0 fc 40 ae b7 17 42
       24.293236 2.6871977 7.8985133 37.929375
000020 c2 9f 13 41 f6 cd 31 41 74 63 09 42 90 94 6d 41
       9.226503 11.112783 34.347122 14.84877
000030 9a 77 5a 42 d8 d5 ad 41 36 b8 44 41 4c 70 88 42
       54.6168 21.729416 12.294973 68.21933
000040 48 8c 37 42 6e af 23 3e bb b6 ca 41 54 ef 8e 41
       45.886993 0.1598489 25.339224 17.86686
000050 f7 94 0f 42 12 21 a0 3f c6 55 84 41 89 a8 55 42
       35.895473 1.2510092 16.541882 53.414585
000060 f4 36 9b 42 2b 8f 9e 41 a9 71 82 40 5d bd 79 40
       77.60733 19.819906 4.0763745 3.9021828
000070 00 43 92 42 a8 83 10 42 77 30 cb 41 1f 61 5e 42
       73.13086 36.12857 25.398664 55.594845
000080 bb ab fd 41 38 64 68 40 53 7d 3d 40 22 1d 6e 42
       31.708853 3.6311169 2.9607742 59.52845
000090 f5 95 84 41 d9 10 04 42 d6 36 3e 41 34 9a 8c 41
       16.573221 33.016453 11.888388 17.575294
0000a0 77 87 3b 41 6a 1d 68 3f 3e 83 c1 41 45 af 94 42
       11.720572 0.9066988 24.189083 74.34232
0000b0 3f bb f5 40 95 9d 39 41 47 be 69 40 6e 61 e2 40
       7.679107 11.600972 3.6522386 7.0743933
0000c0 51 11 58 40 40 95 0f 41 0d f5 06 42 34 9d 39 42
       3.376057 8.973938 33.739307 46.40352
0000d0 e0 f3 b6 41 60 9e f6 41 c3 38 07 42 90 4e f6 3c
       22.86908 30.827332 33.80543 0.030066758
0000e0 d2 6a 3b 3e f3 27 52 42 39 38 20 42 80 bd 5d 41
       0.18302467 52.539013 40.054905 13.858765
0000f0 e5 90 01 40 de bd fc 41 1b c5 2e 41 69 2c e1 3f
       2.0244687 31.592709 10.923121 1.7591678
000100 a2 1c 6e 40 81 7d 29 42 bf 9e b7 41 77 31 83 42
       3.7204976 42.372562 22.952513 65.59661
000110 d8 ea ec 3f 87 a2 3a 40 5c 24 98 42 7a 54 9e 41
       1.8509169 2.91617 76.071014 19.791248
000120 ed 0e 6c 42 19 48 23 42 2d 1c 12 42 13 b1 98 41
       59.014576 40.820408 36.527515 19.086462
000130 6d ca 0d 41 0c 24 eb 41 ee 9e 81 41 8e 82 0f 42
       8.86192 29.392601 16.202602 35.877495
000140 9f 63 b7 42 ef 97 c9 41 b4 dd f4 41 51 cc 0f 42
       91.69457 25.199186 30.608253 35.949528
000150 d2 91 b6 40 c2 b0 7a 41 92 30 16 41 60 9d f4 40
       5.7053003 15.668154 9.386858 7.644211
000160 4d e6 9b 42 16 60 96 42 bb af 4c 41 67 4e 32 42
       77.94981 75.18767 12.792903 44.576565
000170 f1 18 78 41 b4 f3 b5 41 cd f7 be 3f 71 b8 36 41
       15.506089 22.743996 1.4919373 11.42003
000180 c5 ae 37 42 ec 99 67 42 e6 83 9b 42 56 09 a1 41
       45.920673 57.900314 77.757614 20.129559
000190 ba 22 0d 42 6f b4 b4 42 47 9c cf 41 59 c5 09 42
       35.283913 90.35241 25.951307 34.442722
0001a0 89 83 82 41 b9 c9 0d 42 2f 0b 2d 41 ba af 24 42
       16.314226 35.446995 10.81523 41.171608
0001b0 b8 d2 40 3e 54 3c a3 40 b7 ab 6d 3f 68 b9 bc 41
       0.18830383 5.1011143 0.9284014 23.59053
0001c0 04 00 00 00 3a 34 f4 41 53 a9 39 3f 8c fc dc 41
       6e-45 30.525501 0.72523993 27.623314
0001d0 9c 35 32 40 25 50 22 42 c1 cb 1c 42 d1 54 3a 40
       2.784522 40.578266 39.19898 2.9114268
0001e0 44 95 87 41 04 00 00 00 81 05 c0 41 46 6c 51 41
       16.947884 6e-45 24.002687 13.088934
0001f0 14 4d e8 40 8c 9e af 3f f3 13 b5 41 66 27 b6 42
       7.259409 1.372026 22.63474 91.07695

bn1.running_var f4 [128]
000000 15 ca ff 43 9c 72 e7 44 09 78 f7 43 fc 76 8b 43
       511.57877 1851.5815 494.93777 278.92957
000010 8c 0a 72 44 00 05 8b 42 ba 2f d3 43 29 e8 21 45
       968.1648 69.509766 422.37286 2590.51
000020 a9 a1 e5 43 b2 d0 c8 43 9e ba 20 45 e4 77 33 44
       459.26297 401.63043 2571.6636 717.8733
000030 3a 09 04 44 71 50 7a 44 7f 34 31 44 0a 20 47 44
       528.14417 1001.2569 708.82025 796.5006
000040 fc 83 44 45 fb ff 8a 40 62 02 4e 44 d8 bb 45 44
       3144.249 4.3437476 824.03723 790.93506
000050 f3 6e e6 44 1f 23 04 42 14 f1 5d 44 e5 af 90 45
       1843.4672 33.034298 887.76685 4629.987
000060 c9 e8 0e 45 5e c0 51 44 75 ca f3 42 08 39 5c 43
       2286.549 839.00574 121.895424 220.22278
000070 99 fe 8f 44 91 94 15 45 b3 7c b2 44 e7 96 e4 44
       1151.9562 2393.2854 1427.8969 1828.7157
000080 90 6c b8 44 0c ca 31 43 46 99 f2 42 77 ae 35 45
       1475.3926 177.78925 121.29936 2906.904
000090 98 ae 3c 44 0e 99 88 44 11 d4 e7 43 07 27 49 44
       754.728 1092.783 463.65677 804.6098
0000a0 b4 7a 8d 44 20 1d c8 41 df 51 b9 44 d1 8e 0b 45
       1131.8345 25.014221 1482.5585 2232.926
0000b0 02 16 6e 43 06 4d 29 44 a4 e5 d5 42 a8 5d da 43
       238.08597 677.2035 106.94852 436.7317
0000c0 f4 14 e5 42 e3 fc 70 43 b2 26 7e 44 95 5f 5f 45
       114.540924 240.98784 1016.6046 3573.9739
0000d0 19 68 25 44 3c 0b 7b 44 5e d7 2c 45 90 dc 92 3e
       661.6265 1004.17554 2765.4604 0.286839
0000e0 c8 9c 0c 40 93 e9 88 45 54 6c 11 45 cf 56 8e 44
       2.1970692 4381.197 2326.7705 1138.7128
0000f0 2b 5b 9c 42 e8 05 8b 44 45 7c 0c 44 8e 28 66 42
       78.17806 1112.1846 561.9417 57.539604
000100 d0 ef af 42 4a d8 28 44 1d 94 8b 44 b8 66 10 45
       87.96838 675.3795 1116.6285 2310.42
000110 9a d3 57 42 60 e5 d7 42 d1 0b 34 44 a2 ab eb 44
       53.956642 107.948 720.18463 1885.3635
000120 3b 9e 96 45 3c e6 14 45 68 c2 06 45 14 db 06 45
       4819.779 2382.3896 2156.1504 2157.6924
000130 83 ac 22 44 78 14 10 45 56 64 3f 44 df 83 17 44
       650.6955 2305.2793 765.56775 606.0605
000140 30 02 57 45 d9 a5 b1 44 fb c7 47 44 84 18 c2 44
       3440.1367 1421.1827 799.1247 1552.7661
000150 11 5e a8 43 7e 85 6c 44 a3 ef 35 44 4f cc ea 43
       336.7349 946.0858 727.7443 469.59616
000160 25 b4 db 44 b7 e3 c2 44 95 30 91 43 38 47 7c 45
       1757.6295 1559.1161 290.37955 4036.4512
000170 d2 20 54 44 4f be 5f 44 4b 13 16 42 e4 7a 97 44
       848.5128 894.9736 37.51884 1211.8403
000180 5b f5 0d 45 e3 a8 b9 45 22 0a ab 44 1c 9c 3a 44
       2271.3347 5941.111 1368.3167 746.4392
000190 7b 9a 00 45 d3 6d 7f 45 9f 89 96 44 ca 31 19 44
       2057.655 4086.864 1204.3007 612.77795
0001a0 18 53 d0 43 38 5f 0a 45 3c f1 25 44 76 05 33 45
       416.64917 2213.9512 663.7693 2864.3413
0001b0 ef b6 79 40 00 52 82 43 e6 a8 f5 41 68 f7 a8 44
       3.9017904 260.64062 30.70747 1351.7314
0001c0 04 00 00 00 d9 44 dc 44 95 29 c7 41 45 c7 e6 44
       6e-45 1762.1515 24.895304 1846.2272
0001d0 96 9c bf 42 4c ef fb 43 d8 f1 fe 43 4e 9c 05 43
       95.80583 503.8695 509.8894 133.61057
0001e0 5b 9f 5b 44 04 00 00 00 c8 86 79 44 35 41 54 44
       878.4899 6e-45 998.10596 849.01886
0001f0 95 da 8a 43 42 99 0c 42 47 d2 4a 44 ba 66 a4 44
       277.70767 35.149666 811.2856 1315.2102

fc2.weight f4 [128, 128]
000000 cc 0d e7 3d e6 a5 d0 3d 74 09 8c be 02 5e 55 bf
       0.112819284 0.101878926 -0.27350962 -0.8334657
000010 9d 56 bc 3f 7a fe 26 bf 64 a6 a3 3e d2 61 20 3f
       1.4713932 -0.6523205 0.31962883 0.6264926
000020 7b 41 1c bd 10 1c 80 bf 32 5f be 3f 63 df b0 be
       -0.038148385 -1.0008564 1.4872801 -0.3454543
000030 5e d3 82 bf 94 48 82 3f ed ab 78 be 2d e5 95 3e
       -1.0220754 1.0178399 -0.24284334 0.2927641
000040 3a f1 7d 3f d0 88 3a bf 89 72 80 be ca 2a e8 3f
       0.9919621 -0.7286501 -0.25087383 1.8138058
000050 00 a8 78 c0 55 4c 65 3f e6 10 35 3f 68 cd 26 3f
       -3.885254 0.895696 0.7072891 0.65157175
000060 3d fc e1 3f 1e 13 51 40 23 77 a8 3e 1f d9 05 be
       1.7655102 3.2667918 0.32903394 -0.13071106
000070 2e c3 c4 3e 24 8b f8 3e 0a 28 77 be 5b 0f 6c 3f
       0.3843016 0.48543656 -0.24136367 0.9221093
000080 c8 b2 ad bf 31 54 87 3f c2 76 ef be 9f c3 a9 bc
       -1.3570185 1.0572568 -0.46770293 -0.020723162
000090 d2 33 77 3f 1a 60 00 3e 84 f5 9f be c7 9b f3 3f
       0.96563447 0.1253666 -0.31242 1.9031914
0000a0 22 3c a8 bd ea 05 57 bf 06 40 5f 3e 39 c3 ce 3f
       -0.082145944 -0.839934 0.21801767 1.6153327
0000b0 ab aa 81 3f 30 74 0c 40 f9 54 2f bf 70 57 d2 3e
       1.0130209 2.1945915 -0.68489033 0.41082335
0000c0 cb 1e da bf 11 0c 02 bf cd b1 ae 40 8c 96 6a 3f
       -1.7040647 -0.5079966 5.459204 0.91635966
0000d0 d4 c6 23 bf 73 04 cf 3e 93 9b cc 3e 09 85 16 bf
       -0.6397526 0.40433082 0.39962444 -0.58796746
0000e0 b4 fa b4 be 06 0f 31 3f 22 d0 c1 3e 8c ae cc be
       -0.3534752 0.6916355 0.37854105 -0.3997692
0000f0 52 46 4f 3e 10 b6 96 40 3e b6 16 bf 0a 0c 16 bf
       0.20241669 4.7097244 -0.5887183 -0.5861212
000100 de b7 85 bf b7 7a 8a bf 5c 45 ca 3f 21 26 1b 40
       -1.0446737 -1.08187 1.5802417 2.4242022
000110 13 11 e3 bd b5 32 e3 3f f8 4b ed 3e f4 a8 ac bf
       -0.11087241 1.774985 0.46347022 -1.348906
000120 a8 b7 d5 3e 27 5b 67 be 5a 9d 8e bf e7 ef 92 3d
       0.4174168 -0.22593366 -1.114177 0.07174664
000130 bb 63 b7 be 77 d4 21 3e 27 27 01 3d 7b 9f bd 3f
       -0.35818276 0.15803705 0.03153148 1.4814295
000140 1f a0 b1 3f 24 56 bd be 34 af 7d be f5 83 29 40
       1.387699 -0.36979783 -0.24773866 2.648679
000150 a3 4b 18 3d 20 55 b0 3e 2d 4f 12 3f ab 1e ab 3f
       0.037181508 0.34439945 0.5715206 1.3368734
000160 8d 7f 8d 3f 4a 13 0b 3f 9b 11 da 3f 1f 0d 8d 3f
       1.105455 0.5432631 1.7036623 1.1019629
000170 3c 9c bd 3e 1b 59 8f 3e 10 08 9f bf 7e 51 36 3d
       0.3703326 0.2799767 -1.2424335 0.04451131
000180 ea 0e 8a bd 27 14 bc 3e 31 c5 32 bd aa f9 c6 3e
       -0.06741126 0.36734125 -0.043645088 0.38862354
000190 1a f0 96 3e fc b6 ee 3e dc 5d 02 bf dd 0e 2c c0
       0.29480058 0.4662398 -0.5092447 -2.6884072
0001a0 9f df 83 bf e6 15 7c 3e 94 e2 90 bf e9 f2 36 3f
       -1.0302619 0.24617729 -1.1319146 0.714644
0001b0 88 cc e5 be f3 c3 2f 3f 0d da 9f 3e a7 0d c7 3f
       -0.44882607 0.6865837 0.31221047 1.5551041
0001c0 41 f2 98 3f a4 b1 7b bf 5d 01 ce be a5 da 33 3f
       1.194893 -0.98317933 -0.40235415 0.702555
0001d0 aa e6 50 bf 20 65 9d bf 10 c1 09 3e 1b e5 8d be
       -0.81601965 -1.2296486 0.13452554 -0.27713856
0001e0 f6 c3 ee 3f 39 2d 5e be a3 42 b0 bf e5 d7 b0 bf
       1.8653553 -0.21696939 -1.3770336 -1.3815886
0001f0 97 0e 94 be 93 1b a4 bf a3 b9 fc be 35 74 1e 40
       -0.2891738 -1.2820915 -0.4936038 2.4758427
000200 26 60 33 3f a6 58 c9 be 4d fb 42 3e 3c 1e f7 bf
       0.70068586 -0.39325446 0.19041176 -1.9306102
000210 b7 05 21 3e 4f 13 22 3d 77 9c a2 be a6 60 a2 be
       0.15724836 0.039569195 -0.31759998 -0.31714362
000220 d3 b3 1a bf 42 e5 ab be a6 90 8b bf 28 c5 89 bd
       -0.6043064 -0.33573347 -1.0903518 -0.06727058
000230 b8 5b 06 3e 5c fa 3b 3f d6 21 e0 3f 0d 7c 56 bf
       0.13120925 0.73428893 1.7510326 -0.83783036
000240 e1 1f a2 bf 26 fd 79 3f 61 32 58 3f 8b 40 86 3f
       -1.2665979 0.976519 0.8445187 1.0488447
000250 e5 a9 f6 be 92 72 85 3f 2a 7f 69 3f 4e c6 8a bf
       -0.48176494 1.0425589 0.9120966 -1.0841768
000260 93 12 13 3f da 16 40 3f bd 65 b2 3f 77 30 95 3f
       0.57450217 0.7503487 1.3937298 1.1655415
000270 36 b6 81 bf 0c e0 0b bf fb dd bf 3d 01 64 70 3f
       -1.0133731 -0.54638743 0.09368511 0.93902594
000280 af 62 c5 bf 25 31 bf be ec f6 83 3f 83 f3 7c bf
       -1.5420741 -0.37342182 1.030973 -0.9880907
000290 89 79 1c 3e af 86 97 3f fe a4 79 3f ac 5b 2d 3f
       0.15280737 1.1837977 0.97517383 0.67718005
0002a0 58 ba 8e 3e 9b f7 a7 3e b6 50 26 bd 1c 4b c1 3e
       0.27876544 0.32806095 -0.040604316 0.37752616
0002b0 02 70 16 3e 65 ed 8a 3e 36 78 5e 3f ee 6e 51 bf
       0.14691165 0.27134243 0.8690218 -0.8180989
0002c0 d5 0e eb be 76 a7 45 3e 80 d6 a1 3f 9d df 50 be
       -0.45909753 0.19302163 1.2643585 -0.20397802
0002d0 51 a4 7e 3f cb 9e 9b 3d 00 61 0a be 94 fb ef 3e
       0.99469477 0.07598647 -0.13513565 0.46871626
0002e0 ee 14 0f 3f 59 72 c7 bf 69 47 81 bd 73 30 89 bf
       0.5589131 -1.5581771 -0.063124485 -1.071791
0002f0 e9 f9 27 3f e3 b1 4f 3f 4c ac 06 3e 4c 5c 94 3e
       0.6561571 0.8113081 0.13151664 0.28976667
000300 7a 58 1c 3e e9 0a 6f bf a6 4e bc bc e4 1e 6f 3f
       0.15268126 -0.9337602 -0.022986721 0.9340651
000310 60 95 09 3f 46 1a bc 3f 2b ae 72 bf 60 fe 9c 3e
       0.53743553 1.4695518 -0.9479701 0.30662823
000320 38 93 ec bf 3c a0 99 3f f7 af 9a 3f dc 06 96 3f
       -1.8482428 1.2002025 1.208495 1.1720843
000330 74 f3 7c 3f af 9c 9f 3f 39 41 6f bf db ec ad bc
       0.9880898 1.2469691 -0.93458897 -0.021231106
000340 9b d5 2a 3f cd 0f 00 bf d9 07 9a 3f 85 55 14 bf
       0.66732186 -0.5002411 1.2033645 -0.5794299
000350 41 d4 11 3f 4a c8 ba bf 33 ec 94 3d 4a 48 be 3f
       0.569645 -1.4592373 0.07271614 1.4865811
000360 08 07 8a bf d1 60 b7 bf 2b 4f d4 3f ce 4e 8c 3f
       -1.0783396 -1.4326421 1.658666 1.0961549
000370 81 96 2f bf 4c d0 bf 3e 57 8d 19 be 7d 80 08 3f
       -0.68589026 0.37463605 -0.14995323 0.5332106
000380 a5 b2 dd be 24 90 a9 bd ab af 93 3e 3e 06 4f 3f
       -0.43300357 -0.08279446 0.28844962 0.808689
000390 0f a2 60 bf 5b 0b d7 3e 31 9b 95 3e f5 19 12 bf
       -0.8774728 0.4200085 0.29219964 -0.5707086
0003a0 08 d6 e7 3d 00 73 45 3e 90 55 cd be 9b e7 b2 bf
       0.1132012 0.1928215 -0.40104342 -1.397693
0003b0 30 c8 12 3f b4 2c d9 3e fa af 26 3f d3 2b 76 bd
       0.5733671 0.42416918 0.6511227 -0.060100388
0003c0 73 63 09 3e a4 6d e4 be 8e 1c 9c 3f fa 5e 51 be
       0.13416843 -0.446149 1.2196214 -0.20446387
0003d0 96 27 cd 3e 7b bd 47 be 26 74 3b 40 8e 02 7a bf
       0.40069264 -0.19505875 2.9289641 -0.9766015
0003e0 7b 3f de 3f e1 5d b1 3d 57 26 2c bf 2d 18 59 bf
       1.7363123 0.08660484 -0.67246 -0.84802514
0003f0 f6 61 39 bd 76 a0 f8 3f 28 09 6d bf 98 16 8d bc
       -0.04525944 1.9423969 -0.92592096 -0.017222688

fc2.bias f4 [128]
000000 be b0 68 bf 5f 44 b8 bf be de 06 3f 27 3b 9e bd
       -0.9089469 -1.4395865 0.5268363 -0.07726126
000010 aa 5d fb be 1f f2 81 3e 6a fc 9e bf 03 5a bc bf
       -0.49094898 0.25380036 -1.2420781 -1.4714969
000020 7d aa 9a bf 22 9b 8a 3f d9 0f 35 bf ca 88 f8 bd
       -1.2083279 1.0828593 -0.70727307 -0.121354654
000030 eb 13 47 3f d3 0d 8f be 07 b2 b4 be 29 9b 82 be
       0.7776477 -0.27940235 -0.35292074 -0.25509003
000040 5f d5 22 c0 b6 9a d0 3d ae b0 86 bf 8c 5c 0d be
       -2.5442731 0.10185759 -1.0522668 -0.13804835
000050 b7 73 af bf 6e 6e c5 bf 21 fa f4 3e 1d 22 da 3f
       -1.3707188 -1.5424325 0.47847083 1.704166
000060 68 24 bb 3f 0a 82 dc bf 7d 58 ad bf b8 21 e0 3e
       1.4620485 -1.7227185 -1.354263 0.43775725
000070 62 63 99 3f fa 66 b0 be aa 1c 7f bf c7 9e 43 bf
       1.1983454 -0.34453565 -0.9965311 -0.7641415
000080 b8 f2 9c bf 8a 86 83 bf 52 c3 8b be 9d 26 a3 3e
       -1.2261572 -1.0275433 -0.27297455 0.31865397
000090 bc b8 47 3f ac 8b a0 3f a9 fa 47 be 13 fc 84 be
       0.7801626 1.2542624 -0.19529213 -0.25973567
0000a0 21 c8 a8 3f 94 cd 83 bf 67 70 25 bf 81 b3 93 bf
       1.3186074 -1.0297112 -0.6462464 -1.1539155
0000b0 65 72 aa 3f b7 96 71 bf cd fd d5 bf 3d d8 9a 3e
       1.331616 -0.943706 -1.6718079 0.30243102
0000c0 8d b4 c9 bf 4b 50 0b c0 2f e3 59 bf 54 7f be be
       -1.5758225 -2.1767757 -0.8511228 -0.3720652
0000d0 09 c8 81 bf 71 b5 1b bf 53 d9 9d bf da 21 2f 3e
       -1.0139171 -0.6082373 -1.2331947 0.17102757
0000e0 f2 42 93 3f d1 f2 e3 be 53 3c a8 3c d1 77 e7 bf
       1.1504805 -0.44521192 0.020536577 -1.808344
0000f0 76 fb 6e bf ed 41 ab 3f d3 8d b9 3e 5f b9 3f c0
       -0.9335245 1.3379494 0.36241016 -2.9956892
000100 ec d0 eb 3e 28 96 8d bf 92 45 0b bf e6 09 2f 3f
       0.46057832 -1.1061449 -0.5440303 0.6837448
000110 b0 8b 9d be 1a 4e 71 3d 05 c8 de 3d 01 cb ce 3e
       -0.30770636 0.058912374 0.108779944 0.40389255
000120 a0 7d 18 c0 e5 e6 2f bf 38 b6 bc bf 59 93 40 bf
       -2.3826675 -0.6871169 -1.4743109 -0.75224835
000130 c4 64 f8 be 7f 43 7b bf 0b af 8d bf d7 c2 11 bf
       -0.48514378 -0.98149866 -1.1069044 -0.56937927
000140 4a 00 3c bd 0d f8 90 bf ca 56 36 c0 94 8c 1e bf
       -0.045898713 -1.1325699 -2.8490472 -0.61933255
000150 0d 20 cb bf 5b 66 7f 3c 97 83 03 bf 2e 2d 26 3f
       -1.5869156 0.015588368 -0.51372665 0.6491269
000160 6e 9e 00 3f 02 e7 83 3f 6d 20 6f bf 66 f2 c7 bf
       0.50241745 1.0304873 -0.9340885 -1.5620849
000170 01 fe c1 bf a0 ab 1f bf 32 22 ee bf aa 97 7b bf
       -1.5155641 -0.62371254 -1.8604186 -0.98278296
000180 81 d2 9f be 82 0c 54 bf 44 e3 4d be 92 30 9e bf
       -0.3121529 -0.82831585 -0.20106226 -1.2358572
000190 99 01 83 bf 22 78 0c be e3 13 cc be 60 d5 ce bf
       -1.0234863 -0.13717702 -0.39858922 -1.6158867
0001a0 c8 56 62 3f b7 c3 b4 bf 45 ff ed bf c2 1d a2 bf
       0.8841367 -1.4122227 -1.8593527 -1.2665331
0001b0 f2 2c 5c bf 92 b4 4b 3f 57 ad 11 3f 57 93 12 bb
       -0.8600608 0.79572403 0.5690512 -0.0022365653
0001c0 aa 11 5c 3f a9 53 78 bf 97 fc 9e bf 63 9c 0c bf
       0.85964453 -0.97002655 -1.2420834 -0.5492613
0001d0 e8 0a d3 bf c9 d9 06 3f f8 ba 41 3e 14 a8 90 be
       -1.6487703 0.52676064 0.18918979 -0.28253233
0001e0 d2 40 42 3f ba 67 b3 bd 73 1d 9d bf 23 eb 24 be
       0.7588016 -0.08760019 -1.2274612 -0.16105323
0001f0 e9 c5 af bf 48 19 74 3f 63 79 15 3f 45 07 66 bf
       -1.3732272 0.95351076 0.58388346 -0.8985484

fc3.weight f4 [2, 128]
000000 f1 a9 1b 40 0e 62 aa be 0f e0 12 40 f5 85 c7 be
       2.4322474 -0.33277935 2.2949255 -0.3896939
000010 80 fb b6 3f 58 5f d8 bf 92 9d bb bd da d4 3f 3d
       1.4295502 -1.6904097 -0.091609135 0.04683385
000020 a4 71 97 3d 76 a6 9c bf fc 70 0d 3e 8d 0e a0 bf
       0.07394722 -1.22383 0.13812631 -1.250444
000030 ac ff 11 c0 9d c2 9f bf fa 40 67 bf 18 b0 62 bf
       -2.28123 -1.2481266 -0.9033352 -0.8854995
000040 b7 61 23 40 4c ea de bf b8 5d db 3f 89 2a 5d bf
       2.552839 -1.7415252 1.7137976 -0.8639303
000050 79 38 9d be 17 8e 1a 40 61 fb 90 bf 89 a0 d4 bf
       -0.30707148 2.4149225 -1.1326715 -1.6611491
000060 f8 e4 2e 3f 39 1e 58 bf 1f e6 c8 3f 02 f3 b1 be
       0.6831813 -0.84421116 1.5695227 -0.34755713
000070 53 58 f5 bf f7 81 c1 be 6c b9 46 3f f4 70 0e 3f
       -1.916758 -0.37794468 0.7762668 0.556411
000080 b2 bd b3 3e 8e da d7 3f 41 05 d2 bf d6 d1 3e 40
       0.35105664 1.6863573 -1.6407853 2.9815574
000090 15 12 db bf 26 75 9b bf 7e af c8 bf 2d 33 80 bf
       -1.7114893 -1.2145126 -1.5678556 -1.0015618
0000a0 33 a5 08 c0 c6 70 53 3f 48 15 5e bf 02 78 f6 be
       -2.135083 0.82593954 -0.8675122 -0.48138434
0000b0 e6 36 c8 bf b6 87 89 3f 9c e2 b0 3e fd 2a 39 40
       -1.5641754 1.0744541 0.3454789 2.8932488
0000c0 90 38 e8 3f fe ed 6e bf a2 fd a0 be 01 e9 63 3f
       1.8142262 -0.933319 -0.31443506 0.8902741
0000d0 79 94 cf 3f 4d 4c 43 3f 27 5a ac bf 67 41 8a bf
       1.6217185 0.762883 -1.3465012 -1.0801209
0000e0 65 fb b5 bf 94 74 17 bf 7e 3d 45 bf 9a d2 4e bf
       -1.4217345 -0.5916226 -0.77046955 -0.807901
0000f0 cd 6b a1 3f d3 60 d8 bf 47 bb ae bf 8b f3 07 40
       1.2611023 -1.6904548 -1.3650903 2.1242397
000100 2f 8b 1e 40 33 ff d1 3f db 5e 95 3e ca 27 8e bf
       2.477245 1.6406006 0.2917393 -1.1105893
000110 d8 3d 91 3f b2 fd cc be da 57 ad bf c5 d3 c6 bf
       1.1346998 -0.40037304 -1.3542435 -1.5533377
000120 49 f0 04 3f dd 0e b3 bd 6f d0 12 be ff 5b 45 bf
       0.51929146 -0.08743069 -0.14337324 -0.770935
000130 00 f0 f4 bf f4 86 5a bf f1 25 15 be d4 62 46 be
       -1.9135742 -0.8536217 -0.14565255 -0.19373637
000140 5d 56 9a 3f c0 74 0b 3f 3f 43 97 3f b1 b5 31 bf
       1.2057606 0.5447502 1.1817397 -0.69417864
000150 6d e7 23 3f 89 c7 b3 bf 29 38 be 3f 40 eb ab bf
       0.64025 -1.4045268 1.4860889 -1.3431168
000160 ab 51 b6 bf 91 92 8e bf 0f 94 44 40 cf 15 2c bd
       -1.4243673 -1.1138479 3.0715368 -0.042012986
000170 59 06 a7 bf 28 ef e3 bf 6e 6f 99 bb f1 3e 02 c0
       -1.3048812 -1.780736 -0.004682473 -2.0350916
000180 c2 3d 42 3f 9f 58 cf bf bb 5b df bf 2a 0d 02 40
       0.75875485 -1.619892 -1.7449869 2.0320535
000190 e6 96 98 bf c0 ec 48 bf 33 2d f3 3f 8b c2 17 40
       -1.192105 -0.7848625 1.8998169 2.371249
0001a0 2d a3 e9 bf 7e 4d fd 3f 4a 57 03 bf 2a a7 2e 3f
       -1.8252922 1.9789274 -0.5130507 0.6822382
0001b0 9b ae 7e bf 1c ec e6 bf ed 1f f9 bf 23 33 a1 bf
       -0.99485177 -1.8040805 -1.9462868 -1.2593731
0001c0 5d cc 26 c0 a9 e4 65 40 f3 fe 0a 40 d7 5e 82 3f
       -2.6062233 3.5920813 2.1718109 1.0185193
0001d0 28 85 fa bd 18 3a 28 40 24 45 b4 bf 7f ec c7 be
       -0.12232429 2.6285458 -1.40836 -0.3904762
0001e0 d2 0f d5 bf 43 10 93 be 3f 67 df 3f bb 67 87 bf
       -1.6645453 -0.28723344 1.7453383 -1.0578531
0001f0 d5 0e ca 3f 70 bb 94 bf 71 38 e9 bf 5f ec bf bd
       1.5785776 -1.1619701 -1.822035 -0.09371256
000200 43 a8 8c bf 5f 2a f3 3d 5d 5e 5d 3f f6 e3 14 40
       -1.0988849 0.11873316 0.8647211 2.3264136
000210 8b c2 88 3e ac b8 fe bf fe 7e 9f bf a6 64 18 c0
       0.26710925 -1.9900107 -1.246063 -2.381143
000220 cd a8 80 bf e1 93 06 40 42 59 ca bf 72 6f b2 3c
       -1.0051514 2.1027758 -1.5808489 0.021781657
000230 91 db 00 c0 98 b3 99 3c e4 63 ce 3d 23 ce 49 3f
       -2.0134013 0.018762395 0.100776464 0.78830165
000240 88 c4 1d be 12 a7 d4 bd e5 ae 0f c0 56 3f db 3f
       -0.15407002 -0.10383429 -2.2450497 1.7128704
000250 35 fc b3 bf c9 a0 4d be 2f 48 bd bd 57 7b 1f 3f
       -1.4061342 -0.20080866 -0.092422836 0.62297577
000260 1a 32 f6 3f 66 da e8 3f 0b 6e 01 bf 29 13 34 40
       1.923404 1.819165 -0.5055854 2.8136694
000270 f8 a2 e5 3c 39 8d d9 bf 56 7a 9e bf 56 e5 d2 bf
       0.028031811 -1.6996223 -1.2381084 -1.6476238
000280 3f bf 73 bf 7e 91 51 bf d7 b7 5f be 6c db fb 3e
       -0.95213693 -0.8186263 -0.21847473 0.49190843
000290 74 34 9b 3c f4 c2 dc 3f 5c 91 a0 be 32 e5 72 bd
       0.01894591 1.7246995 -0.313609 -0.05930061
0002a0 a6 72 52 be 50 ac 9b bf 4e 23 63 c0 0e e9 36 3f
       -0.20551547 -1.2161961 -3.5490298 0.71449363
0002b0 3d 1c dc 3b b8 c7 a3 3e 6a 3f 6c bf 91 4d a1 3e
       0.0067172335 0.3198831 -0.9228426 0.3150449
0002c0 3e 80 98 bf 65 23 66 3f 89 07 7e bc cc 0d 30 bf
       -1.1914136 0.8989776 -0.015504726 -0.6877105
0002d0 71 8f 65 3e bf bb 29 3f 56 a7 6f 3e 68 75 26 40
       0.22418 0.663021 0.23403677 2.600916
0002e0 00 53 de be bf 44 7a 3f 41 77 2f bf 49 3c 8a 3f
       -0.434227 0.9776115 -0.6854134 1.0799648
0002f0 36 0d 94 bf 93 df 13 be e2 d8 f4 3f a3 35 7e 3f
       -1.1566532 -0.14440756 1.9128687 0.99300593
000300 2a 34 69 3f dc ef 06 c0 ee 89 cf bf 25 5c 02 bf
       0.9109522 -2.1083899 -1.6213968 -0.5092185
000310 80 b8 39 bf 83 39 11 3f 03 ad f0 3e ec d0 5d 3f
       -0.7254715 0.5672838 0.47006997 0.86646914
000320 8f 3c 52 3f f9 12 f5 bc 7c 33 98 bf 30 03 ca 3f
       0.82123655 -0.029916273 -1.1890712 1.5782223
000330 35 07 cd bf 76 b5 42 3f a0 4d 75 bf 2f 1b 02 3f
       -1.6017824 0.7605814 -0.9582157 0.5082273
000340 2b ff 82 be 04 8c b0 bf 8c ac af 3e 7e ea 2a 3f
       -0.25585303 -1.3792729 0.3431133 0.66764057
000350 13 62 f3 3f c0 ad 43 bf 3c 6b 08 3f c9 38 aa bf
       1.9014305 -0.76436996 0.53288627 -1.329858
000360 2a 02 c6 3f ee 19 0a 3f ee fa 15 bf ae b7 58 c0
       1.546941 0.53945816 -0.58586013 -3.386211
000370 a8 36 a6 3d a9 f6 bb 3d 06 69 3e be dd 8d 7f 3f
       0.081158936 0.09177906 -0.18594751 0.9982584
000380 92 99 2b c0 20 cd 9c 3d 53 3f 83 bf 23 02 07 c0
       -2.6812482 0.07656312 -1.02537 -2.1095054
000390 77 9d 6a c0 51 1e aa 3e 2b 7b 2a bf 30 5b 91 bf
       -3.665861 0.33226255 -0.6659419 -1.1355953
0003a0 99 40 34 3e d0 a8 ce bf b6 8f 3e 3d 60 47 71 bf
       0.17602767 -1.6145267 0.046523772 -0.94249535
0003b0 0d 04 df bf fd 26 38 3f 2b 77 2f bd 6b b9 f2 bf
       -1.7423111 0.7193449 -0.042838257 -1.8962835
0003c0 51 ac 7e 3e 22 18 9e bf 90 69 9b bf 1c c6 af 3f
       0.24870421 -1.2351115 -1.214159 1.3732333
0003d0 59 78 33 bf fe 61 fd 3e f0 5c b7 bf 6b 3b 25 3f
       -0.7010551 0.49488825 -1.4325237 0.6454379
0003e0 8a 2d c8 3f b3 51 1b 3e ad 79 22 3f 12 5e 9b 3f
       1.5638897 0.15167885 0.6346691 1.2138083
0003f0 52 be e6 bf a0 14 cf 3f 07 6c ee 3d 9a 01 36 c0
       -1.8026831 1.6178169 0.11641698 -2.8438478

fc3.bias f4 [2]
000000 d0 3c 01 3f fa 55 b0 3f
       0.5048342 1.3776238
