training_output/best_agent/checkpoints/weights_critic_target.pth (torch_old, 84182 bytes, 9 tensors)

fcs1.weight f4 [128, 24]
00000000: 4e84 3e3e a967 1b3d 977b 193d 9169 d33e
00000010: acf2 1cbf 5c10 493e 2797 67bd 7eb8 db3e
00000020: ff1b 663e 9002 bc3e c070 e1bc 8585 f63b
00000030: 12f4 6cbf afe4 6dbf fdd2 da3c 6bde 543d
00000040: b5d9 433f 8092 bf3e 576c 693d 98bf 47be
00000050: 932f 37bf b5a3 1ec0 f3cb a7bb 4b72 18be
00000060: 7ffe 083f c0bf ab3f 0f60 d2bd 98ad ddbe
00000070: 093e c4be 96f8 07be 4833 c2bd cb35 babe
00000080: f477 2b3f 330e 1c3f 2788 ac3d 137a d1bc
00000090: c532 fcbe e6fa a73d 2535 f83d 1b27 c43d
000000a0: ca4a 533f dd55 643d a264 b0bd ef03 b3be
000000b0: 4852 95bf acb4 b43e 4f25 11be 1f83 e7be
000000c0: 83ba 10be 51ef b33e 6f17 9a3b 892c 193e
000000d0: 5538 56bf e91b b03f e4c0 25bc 2785 493e
000000e0: ad66 2abc 95f5 2b3f c554 25bc a85c ac3c
000000f0: 6a30 9e3c 677f 8a3d 6354 b7bb 185c e8bc
00000100: 0d7a 413d e569 353f c71c 2d3d 87cc 9b3e
00000110: c2b8 613f eb08 fcbf df6b 71bd 1787 923e
00000120: 77ca d8be 18f2 a83d 9e61 90bd 5718 28bf
00000130: 9eed ca3e 8369 cfbe 0cfd cf3c 1129 16bf
00000140: ea06 38bf f71f 03bc 3c93 38bd e8c3 5ebf
00000150: 9c12 f83e 2945 5bbd 516f 2dbe cbf9 5cbf
00000160: d911 69bf 6810 0bbf da58 03be 788d 38bf
00000170: 4e3f 223f 415f acbe 8439 9ebd 328f 5abf
00000180: b525 8bbf a39f 21bf d49b 8dba 3baa cc3c
00000190: 5b05 3b3e fe24 34be c646 f0bd ae2a 83bd
000001a0: 7012 10bf fe24 c4be d682 9f3c 54cc 063f
000001b0: bce1 8b3e 4b22 0fbe 6f52 873d 1198 243f
000001c0: 2970 25bf 8cf1 f4be 2c13 2a3d f126 b8be
000001d0: 15fd 523d 2719 1440 53e8 183e 83d4 bbbe
000001e0: 0c04 08be b273 963f 7cf4 e7bc 2e62 ee3d
000001f0: 5f9c a33e 6b9c 3abf a780 ccbc 9939 073e
00000200: 2cf6 9ebe 97d5 5b3f 0414 93bd cd03 d53d
00000210: 95f5 da3e 044d b0bf e73f 983d 687b db3d
00000220: 8b5d 92bf 7e7c 953f 2a3d afbd 8017 be3d
00000230: 888b 853e d679 d3bf cb6d 313d 87d8 083e
00000240: 80c8 5b3e 81ff 8a3f 5795 14bc f5c8 08bf
00000250: 86ac 8a3e 8894 74bf 42f9 abbd 32a7 03bf
00000260: cc26 3c3e a1e6 443f ac93 edbc 439f 8fbe
00000270: a82a 063f c01e e0bf 7e9a ea3c 49b1 4cbe
00000280: 18b6 3d3e 349f 71be 0fe5 803e 84fe 06bf
00000290: 94a2 ba3e cf58 25c0 3888 6b3e a326 17bf
000002a0: a077 15be 9812 6bbe 8862 edbc c1ad e23b
000002b0: ce2c 7e3f 5ac6 2d3e c3f4 ef3c 303e 11bd
000002c0: 9e12 e4bc e91e d93d 7251 543c 90cc c6bb
000002d0: 9594 2f3f 45a6 1b3f 7646 14bd ef76 70bc
000002e0: 3166 b53e f2d6 22be 5723 00bd 07a7 103d
000002f0: b616 fbbf 6b0d cbbd 6200 b7b9 f723 45bd
00000300: 16b1 b63d e169 83bf e8ac e73c 42f3 e63c
00000310: c127 edbc c582 6a3f 92c3 15bd fd94 e13d
00000320: f1e3 cb3e 5add b2bf 8729 f03c e6df 27bd
00000330: 3c81 263d 9b91 ab3f 73f8 12bd e11b 9fbd
00000340: f45c 1f3f 1080 dabf 213c a93d 8c7c 9bbe
00000350: 287c 1ebe bb1c e23f e50f f7bc 6837 afbe
00000360: 2fd9 10be 4de4 93bf 444d ba3e 9101 003f
00000370: ecc8 463f c64a 04bf 2051 bc3e 3f56 e43e
00000380: 21b3 20be 30d7 6cbf 7837 56bd a23d 013b
00000390: 9a77 473f 6875 8abe 5873 14be 4d6d 053e
000003a0: 8e78 03bf ea70 85bf 8c42 e6bd 59ce 05bf
000003b0: 9bca 923f 6f86 2cbe cf43 86be 6277 eebe
000003c0: 0b76 ad3f 4d0e ff3e cb37 2ebe 990d 363f
000003d0: a343 163e e9c9 12be 4f0a f8bc 4a06 273f
000003e0: ef13 633f 4bcf 353f fdd8 50bd 04ea 813d
000003f0: a28f 613d 969a 183d db5d 1abd 4498 ad3c
0.18605158 0.037940655 0.03747138 0.41291478 -0.6130779 0.19635147 -0.056540634 0.42914194
0.22471617 0.36720705 -0.027519584 0.007523241 -0.9255992 -0.9292707 0.026711935 0.051969927
0.7650407 0.37416458 0.056988087 -0.19506681 -0.7155697 -2.478742 -0.005120748 -0.1488735
0.5351333 1.3417892 -0.10272228 -0.43296504 -0.3832858 -0.13278422 -0.09482437 -0.36369166
0.6697991 0.60959166 0.084244065 -0.025570905 -0.49257484 0.08202152 0.121195115 0.09577771
0.82535994 0.055745948 -0.08612944 -0.3496394 -1.1665735 0.35294092 -0.14174388 -0.45217225
-0.14133649 0.3514352 0.0047025005 0.14958395 -0.83679706 1.3758518 -0.0101167895 0.196797
-0.010400456 0.67171603 -0.010091011 0.021040276 0.019310195 0.06762581 -0.0055947765 -0.028364226
0.047235537 0.7086471 0.042263772 0.3042948 0.88172543 -1.9690222 -0.058940765 0.2861869
-0.42341968 0.08249301 -0.07049869 -0.6566214 0.39634413 -0.40510187 0.025389217 -0.5865641
-0.7188555 -0.0080032265 -0.04506229 -0.8701768 0.48451698 -0.053532753 -0.16936995 -0.86318654
-0.9104286 -0.5432191 -0.12826863 -0.72090864 0.63377845 -0.33666423 -0.07725814 -0.8537475
-1.0870882 -0.6313421 -0.0010803887 0.024983516 0.18263762 -0.17592236 -0.11732249 -0.06404625
-0.56278133 -0.38309473 0.019471567 0.5265553 0.2732066 -0.13977925 0.0660752 0.64294535
-0.6462427 -0.47840536 0.04152219 -0.3596721 0.05151089 2.3140352 0.14932375 -0.3668557
-0.13282794 1.1754057 -0.028314821 0.1163982 0.3195524 -0.72894925 -0.02496369 0.13205566
-0.3104719 0.8587279 -0.07181552 0.104011156 0.4276549 -1.3773503 0.074340634 0.10716897
-1.1434797 1.1678617 -0.08556588 0.09281826 0.26083016 -1.6521556 0.043317597 0.13363849
0.21463203 1.0859224 -0.0090688085 -0.53431636 0.2708475 -0.9553914 -0.083971515 -0.51426995
0.18374175 0.7691441 -0.02900108 -0.28051195 0.5240884 -1.7509384 0.02863812 -0.19989504
0.18526495 -0.23595887 0.25174758 -0.5273211 0.36452162 -2.5835454 0.23001182 -0.5904333
-0.14596415 -0.22956312 -0.028977647 0.0069176857 0.99287117 0.16970196 0.029291516 -0.035459697
-0.027840909 0.10601599 0.012958871 -0.006066866 0.68586093 0.6080058 -0.03620001 -0.0146767935
0.35429528 -0.15902308 -0.031283703 0.03531554 -1.9616306 -0.09914669 -0.00034904765 -0.048130002
0.08920495 -1.0266687 0.02828069 0.028192166 -0.02894962 0.9160579 -0.036563464 0.110147454
0.39822343 -1.3973801 0.029316677 -0.04098501 0.04065059 1.340381 -0.03588147 -0.07768989
0.6225121 -1.7070332 0.08263422 -0.3036846 -0.1547705 1.7665018 -0.030158946 -0.3422196
-0.14145349 -1.1554047 0.36387074 0.5000239 0.7765033 -0.51676595 0.36780643 0.4459705
-0.15693332 -0.9251585 -0.052298993 0.0019720574 0.7791687 -0.270427 -0.14497125 0.13029976
-0.51355827 -1.0425084 -0.112431616 -0.52267987 1.146808 -0.16848157 -0.2622361 -0.46575457
1.3551649 0.49815598 -0.17013471 0.711145 0.14674239 -0.14334835 -0.030278353 0.6524397
0.8870229 0.7101943 -0.050988186 0.06343463 0.05506862 0.0372568 -0.037687164 0.02119077

fcs1.bias f4 [128]
00000000: 6774 d03e 9592 0ebf 3eaf 16bf 3193 93bf
00000010: 54c0 08c0 6a14 683f f545 50bd 0d8a 0cbf
00000020: 5209 f8be 79b7 b8be 944e 38bf e1fc 19bf
00000030: 72fe b73e 9163 2fbe 9606 f43e bbd8 12be
00000040: 472c 70bc 41b6 1abe 5810 78bd 46fa cb3d
00000050: 3c8a c8bf 386d 5fbf e80f b73e 2dd0 d2be
00000060: 1707 d2be ce7d 1abe de34 d3bf 97a0 f4bd
00000070: 8159 2c3e 74ea bdbf 31c5 75bf a287 01c0
00000080: 45f9 23c0 a0b8 fbbf 1167 fcbe b590 86c0
00000090: d323 18bf ddbf 4e3f 68a5 ad3f 2d22 40be
000000a0: 40df 78bf c927 0abf 36f6 0dbd 679c 0bbf
000000b0: ac3d adbe 48c3 933f 71c0 17bf acb2 dabe
000000c0: 4179 55bf 8a9c b2be 17fc 52bf ba18 f73e
000000d0: 9f1f efbc 9362 c6be d161 acbf 4a1c 6fbe
000000e0: c388 843e e88e 203e b9af 31be ca6a 2abe
000000f0: af9b 86bd 0c3e e6be d395 c6bb 6ef5 06bf
00000100: 9097 f83d 41f7 7dbf 958d 27be 7e44 313f
00000110: 6b85 023e 7a46 c9be ad70 fbbe ca16 1bbf
00000120: 0cbf d6be 45a3 1b3e 52ba f5be 2d80 b23f
00000130: 2fec 933d 8f7c 72be b289 d6be 4e10 ffbe
00000140: 9c3d efbe b4cc 243f 4e2f c03e e3e9 88bf
00000150: 9cc6 f2be 5d2e 4d3e 207d 2c3c 020c ff3c
00000160: da0d 0cbf 238a d03c 41ea 9abe e344 42bf
00000170: c92e 2dbe 422c 813e ab56 713e b090 cebe
00000180: dac8 ffbe 5dbd bcbe 5d99 8c3e 499e 82be
00000190: da4f e5bf d1b8 da3e 7de2 b23d 9559 3abf
000001a0: 4c5b 90bf 78c3 38bf 598c 88be aa50 ae3f
000001b0: d8f7 a33e fcf4 683d 5fbc d43d 9c82 2c3e
000001c0: 5708 92bf 116a d3bf a283 74bf 1b52 53ba
000001d0: 7811 313e 8304 89bf ec9f ce3c 878d d6bf
000001e0: f58f 7abe 7182 4ebf e4d0 2b3f c74e bdbf
000001f0: aab5 ec3e 2f40 b0bf 32c0 bf3e 6ca5 033f
0.40713808 -0.55692416 -0.5886115 -1.1529294 -2.1367388 0.9065615 -0.050847966 -0.5489815
-0.4844461 -0.3607748 -0.719949 -0.6015149 0.35936314 -0.17127825 0.47661275 -0.14340489
-0.014658994 -0.15108587 -0.06056246 0.09959845 -1.5667186 -0.8727603 0.35754323 -0.4117445
-0.41021034 -0.15087053 -1.6500509 -0.119446926 0.16831018 -1.4837174 -0.96004015 -2.0239034
-2.5620892 -1.9665718 -0.49297383 -4.2051644 -0.59429663 0.8076151 1.3566103 -0.18763037
-0.9721565 -0.5396696 -0.034658633 -0.54535526 -0.33836114 1.154397 -0.5927802 -0.4271444
-0.83388144 -0.34885055 -0.8241591 0.48261052 -0.029189883 -0.3874708 -1.3467351 -0.23350635
0.2588559 0.15679514 -0.17352189 -0.166423 -0.06572663 -0.44969213 -0.006060341 -0.52718246
0.12138283 -0.99205405 -0.16362603 0.69245136 0.12746207 -0.39311582 -0.49109402 -0.6058165
-0.41942632 0.15199001 -0.47993714 1.3945366 0.07222783 -0.23680328 -0.41901928 -0.49817127
-0.46726692 0.6437485 0.3753609 -1.0696377 -0.47417152 0.20037217 0.010527879 0.031133655
-0.54708636 0.025456494 -0.30256847 -0.7588636 -0.16912378 0.2522908 0.23568217 -0.40344763
-0.49957925 -0.36863223 0.27460757 -0.25511387 -1.7914994 0.4271913 0.087346055 -0.7279294
-1.1277862 -0.7217326 -0.26669577 1.3618367 0.32025027 0.05687426 0.103874914 0.16846699
-1.1408795 -1.6516744 -0.95513356 -0.0008061246 0.1729182 -1.0704502 0.025222741 -1.6761941
-0.24468978 -0.8066779 0.67115617 -1.4789666 0.4623235 -1.3769587 0.3745132 0.5142429

bn1.weight f4 [128]
00000000: cc90 2d3e 280e 193d 1e80 f83d 287a c83d
00000010: eb51 683d 7330 5b3e 5484 1e3e 7c09 f93e
00000020: c3c8 7f3e ff83 2b3e 1ba5 68bd 41f0 9a3d
00000030: 2b37 2f3d 31e7 01bb 8deb 9a3e 62ff 173f
00000040: d542 513d 921f d13d 6d13 a33e 3b3c b03d
00000050: 7a49 683e abf0 a83a a177 183e 7360 3d3f
00000060: 25f7 483d fccd e93d 7324 2b3f 0e54 e239
00000070: 9c67 a13d 75fa 743f 20c8 283e 098f db3d
00000080: 6f26 803e a8dd f93d f955 093e 7ef7 a73e
00000090: 5cf5 1b3f 616b 4a3e 53cd 8e3d cf4f 1f3e
000000a0: a9a4 a53d da9d 513b 4687 a93f c7e0 413d
000000b0: eb3a f63c e33f 4e3e c1d6 3c3d 45b1 103e
000000c0: bb45 0b3e f0b7 ea3d 557f e53c b0c4 c83d
000000d0: 8351 8c3e 5d8a ec3e 4a0e b23d f982 a83f
000000e0: 8da2 fe3d e1f7 2b3d 4a1e 323e 8af7 5c3e
000000f0: 7fc1 033e 9c03 123e e5cd 183d 8cff cc3d
00000100: 5e67 5e3d 769a 8c3f 442a 0dbb 0136 943d
00000110: 478a 683d 167a 8c3d 6299 073e 0c15 043e
00000120: 30fd 363e d7ab c7bd 0351 dd3d 95e7 f63e
00000130: 1835 3c3d 268a d43e 5769 a23e b56f 2b3f
00000140: 95ba 453e 714f af3d 4d4d ab3d c6ed 0c3e
00000150: 6f62 c73c 5100 b9b8 7933 0c3e 38e9 993e
00000160: 56a9 3a3d 7967 943d 0294 713f 673e d53d
00000170: b33a 0f3b b187 ab3f ed81 d23e 6119 c23e
00000180: 6b27 813d 60f5 943d c30d 543d b102 a43e
00000190: d135 103f 7033 bc3d b774 2a3e 79ae 023d
000001a0: 7648 bc3d 7999 933b b5ac af3d 4797 1d3f
000001b0: 6cc1 12ba 3d0b 6d3e 1ce9 443c 8cf8 b73d
000001c0: e287 053e a2c5 743e cb02 893e c1ef c93d
000001d0: 2ed4 633d 4e9a 013e eca3 0e3f 2ec6 913e
000001e0: 007c 7c3d 5319 4d3e ce69 c63e c2dc 5d3f
000001f0: ccb1 f03d 3558 db3d 06c1 f53e 3844 b03c
0.16949767 0.037367016 0.121338114 0.097889245 0.056718748 0.214052 0.15480167 0.48640049
0.24978928 0.16749571 -0.05679808 0.07565356 0.04277722 -0.0019821639 0.30257836 0.5937406
0.051089127 0.102111 0.31850758 0.08605238 0.22684279 0.0012889107 0.14889385 0.73975295
0.04906382 0.114162415 0.6685249 0.00043168705 0.0788109 0.9569467 0.16482592 0.10720641
0.25029323 0.12200481 0.13411702 0.3280601 0.60921264 0.19767524 0.06972756 0.15557788
0.08088047 0.0031984956 1.3244407 0.047333505 0.030057391 0.20141558 0.046103243 0.14130123
0.13600819 0.114608645 0.028014818 0.0980314 0.27405939 0.46199313 0.08694132 1.316497
0.12433348 0.041984443 0.17394367 0.21578804 0.12866782 0.1425919 0.03730573 0.10009679
0.054297797 1.0984638 -0.0021540085 0.07236863 0.056772497 0.068592235 0.13242105 0.12898654
0.17870021 -0.09749573 0.108064674 0.48223558 0.04594907 0.4151165 0.31720993 0.66967326
0.19309457 0.08560074 0.08364353 0.13762578 0.024338929 -8.821546e-05 0.1369151 0.30060744
0.045571648 0.07246298 0.94366467 0.10412293 0.0021855056 1.3400785 0.4111475 0.37909988
0.063063465 0.07273364 0.051770937 0.32033303 0.5633212 0.091894984 0.16646086 0.03190467
0.09193508 0.0045043794 0.08577863 0.61558956 -0.000559828 0.23148818 0.012018468 0.089829534
0.13040116 0.23903516 0.26759943 0.098601826 0.055622272 0.12656519 0.55718875 0.28471512
0.061641693 0.20029192 0.38752598 0.86664975 0.11752662 0.107101835 0.47998828 0.021516904

bn1.bias f4 [128]
00000000: 41dd 003c 6e69 253c c24d 8dbc e449 163d
00000010: d7d5 9d3b b132 353d 704d 6a3d 73d7 bb3e
00000020: 9fe2 593e 8737 f13d 10f3 43bb 43c7 a73c
00000030: 2807 963b dca0 94b9 8949 0a3e f2a0 253e
00000040: 3850 3a3b ff95 8a3d 9696 583d fb19 303c
00000050: 27be 903d e736 37b9 0e43 003e fc9c 693e
00000060: aabc 113c e261 743d 0c31 f03e 9e61 c0ba
00000070: 80ee c03c 5e48 043f 1466 543d 062a d3bc
00000080: 98ee a13e 417d 0f3d 327a 0ebc ff47 553e
00000090: 2f88 da3e 1d55 a43d c1a4 ae3c 16b2 cd3c
000000a0: 0bc7 3d3c 3167 883a 154b 173f a31d 40bc
000000b0: c3d9 f33c 3985 eebb 78c8 fbbb 2008 7b3d
000000c0: 71e5 193d 1400 0a3d 420e 873c fc15 a73c
000000d0: 79ee 493e 406c 853e 2fde 493b 2436 123f
000000e0: fb54 233d 94a3 dd3b 7d7f 933d 8ade f43d
000000f0: ad02 473d 9fcd 663d 4389 743c f8a6 523d
00000100: 39a6 473c 3914 253e cb3e 0539 ce87 a93c
00000110: daef b93c 19ef b43c 8de0 9b3d afad 2a3d
00000120: 3ad3 bc3d 2e88 19bd f9b3 193d 7880 a0bd
00000130: 2dd6 2a3b 3ea1 7f3e bf18 723d 2ccd 033e
00000140: 336f 4f3d d187 8a3c a0b3 82bb 7ec8 703d
00000150: b084 b53b 3b69 3e37 f846 ab3d a542 2c3e
00000160: ecf5 473c 47fe 823c 0261 e03e d5a3 203d
00000170: 0a65 e13a 9c1d 163f b701 963e 694a 973e
00000180: db17 2b3c 1b21 66b9 8821 143c 51ca 933d
00000190: a499 c73e 5384 833c bf4e bc3d 32f3 993b
000001a0: 1c6b 293d 36b9 6e3b 5106 1c3d e474 0e3f
000001b0: e26f 143a 3a21 8a3d ebbf 11bb 5c17 143d
000001c0: 8ccc 743d 7661 823d f461 6e3d 38e3 123d
000001d0: ed03 973c 86e5 acbd c4e5 e93d 391a 313e
000001e0: 012a c93c d723 f23d 3328 b53d 9d74 203f
000001f0: 9888 5b3d 5e5a 443b c4e3 25be b0db b73b
0.007865251 0.010095937 -0.017248992 0.03669156 0.0048167515 0.044237796 0.057202756 0.36687812
0.21277855 0.11778169 -0.0029899515 0.020480758 0.00457849 -0.0002834861 0.13504614 0.16174677
0.0028429162 0.06766891 0.052877985 0.010748382 0.07067519 -0.00017472693 0.1252558 0.22813791
0.008895079 0.05966366 0.4691242 -0.001467753 0.023551226 0.51672924 0.05185516 -0.025776874
0.31627345 0.03503156 -0.008696126 0.20828246 0.42682025 0.080240466 0.021318795 0.025109332
0.0115831 0.001040673 0.5909894 -0.011725816 0.029766923 -0.007279065 -0.00768381 0.061287045
0.037572328 0.03369148 0.01648629 0.020396225 0.19719876 0.2605915 0.0030802598 0.5711386
0.039875966 0.006763885 0.07202051 0.119565085 0.048586536 0.05634844 0.014925304 0.051428765
0.012185627 0.16120996 0.0001270726 0.02069464 0.022697378 0.022086667 0.07611189 0.041669544
0.09219976 -0.037483387 0.03752515 -0.078370035 0.00260676 0.24963853 0.05910563 0.12871236
0.050643157 0.016910465 -0.003988698 0.058784954 0.005539499 1.1349383e-05 0.083631456 0.16822298
0.012204628 0.01599039 0.4382401 0.039218742 0.001719625 0.5863893 0.29298183 0.29548958
0.010442699 -0.00021946842 0.009041198 0.07216323 0.38984406 0.016054308 0.09194707 0.0046981806
0.041361913 0.0036426312 0.03809196 0.5564711 0.0005662424 0.06744619 -0.0022239636 0.03615509
0.059765384 0.063662454 0.058198884 0.035861224 0.01843449 -0.084422156 0.114207774 0.1729516
0.024556162 0.11823242 0.08845558 0.6267794 0.053597063 0.002996109 -0.16200167 0.0056109056

bn1.running_mean f4 [128]
00000000: b363 343f 2437 4e3f b994 303f 81b2 3441
00000010: d22b b841 2468 a63f 8585 0040 9bff d93f
00000020: ac95 2941 2c45 3641 92d9 b53b 2d24 4e3f
00000030: 19aa 023f f409 d840 973e 0340 aedc 9f41
00000040: b9a0 4a3f 5f50 7741 13cd aa3d 873f 0b3f
00000050: 798e 7040 02fc be40 ff96 db40 5932 9b3f
00000060: 368c 7f3f 7d70 e740 6f8b 4941 6108 2040
00000070: a9dc 7840 6774 9541 7af6 ef3f 5265 7741
00000080: 9803 b141 ca6d d23f ff6f c53f e951 9840
00000090: 87b7 e140 6581 d640 c0aa 523f 1a69 0440
000000a0: 1601 8641 701d 583e 4497 f041 0823 da3f
000000b0: f159 9e41 5509 1a40 978d 543f 6473 6940
000000c0: 84a4 a741 ecca b63f 345a 8140 9ef3 0a40
000000d0: 8dae d740 47d3 5540 a3a3 ad40 b1e6 db41
000000e0: bf95 ab3f fb52 df3f 40cf 2740 1b8c 6d40
000000f0: dc46 a43f 47b3 1940 c0fc 7d41 82fb 0941
00000100: f7f9 3f40 d8f4 5541 a28a a740 638b 963f
00000110: 0bd3 ac40 3497 353f 4c5a 0e41 18f5 a83f
00000120: de29 0f41 ee3e a63f e162 e43f 5a86 3640
00000130: 5ac0 fe40 b66f 6540 c4bc 443f e734 c63e
00000140: 5499 6a3f e9e9 683f 07a4 1240 6a42 2940
00000150: c2c8 8740 d5f3 7941 ef1a f940 f4ff 9d40
00000160: 867d a740 be15 c93f 7558 7041 3e41 2240
00000170: 0f26 3a41 a48f f841 aecd 5441 de44 9f40
00000180: 407e 0540 b7b8 343b 9f48 ed40 8e32 783f
00000190: 8961 8640 856b 2d3f ae25 ac40 3111 fe3e
000001a0: 7388 dd40 3cc6 b941 4ca1 5a40 683d 2f40
000001b0: 4cb7 9f41 0c99 713f f930 d340 5601 9940
000001c0: 1d87 8640 97f0 433f 0404 a43e c50f 3840
000001d0: c173 1f40 784e e941 cf98 813e 4438 1040
000001e0: 94a8 9440 6b11 aa40 851d f43e 698d b741
000001f0: 30ca ed40 c179 7640 af72 8c41 b7a7 883f
0.7046463 0.8055289 0.6897693 11.29358 23.021397 1.3000531 2.0081494 1.703113
10.599041 11.391888 0.005549618 0.8052395 0.510408 6.751215 2.0506952 19.982754
0.79151493 15.457122 0.08339896 0.5439381 3.7586958 5.9682627 6.862182 1.212474
0.9982332 7.2324815 12.596541 2.5005114 3.888468 18.681837 1.8747094 15.462236
22.126755 1.6439755 1.5424803 4.759999 7.0536532 6.703295 0.82291794 2.068915
16.75053 0.2110498 30.07386 1.7041941 19.793917 2.4068196 0.8302855 3.647668
20.95533 1.4280677 4.042261 2.1711192 6.7400575 3.3410203 5.426225 27.487642
1.3405074 1.7447199 2.6220245 3.7116764 1.2834125 2.4015672 15.874207 8.623903
2.9996316 13.372276 5.235673 1.1761287 5.400762 0.7093384 8.897045 1.3199797
8.9477215 1.2987955 1.7842675 2.8519502 7.9609804 3.5849433 0.76850533 0.38712236
0.9164021 0.9098192 2.2912614 2.6446786 4.2432566 15.622029 7.784538 4.9374943
5.2340727 1.570976 15.021596 2.535232 11.634292 31.070137 13.300215 4.9771566
2.0858307 0.002757592 7.415115 0.9695214 4.199406 0.67742187 5.3795996 0.4962249
6.9229064 23.221794 3.4160948 2.738123 19.9645 0.94374156 6.599728 4.781413
4.2039933 0.76538986 0.32034314 2.8759625 2.49144 29.163315 0.25311896 2.2534342
4.6455784 5.314626 0.47678772 22.944048 7.430931 3.8511813 17.555998 1.0676183

bn1.running_var f4 [128]
00000000: 9361 cc40 20af 2141 28f9 cd3f c235 1f43
00000010: da15 ea42 5e46 6841 8012 d941 26c1 9540
00000020: 2f74 4742 a8cf 5743 75ba 833c e8c5 c040
00000030: ec4b 8d40 2e47 1143 5cb2 9741 ee0c 2444
00000040: 42db c240 19c0 cf43 c2bb f93e 1ae5 d440
00000050: ed39 c941 7156 cd42 cf91 2e42 5110 5f41
00000060: 0444 6341 943e 0f43 236d 7843 b00e 2142
00000070: 2234 9142 e837 0444 736b e041 aa90 3343
00000080: 77fb 2f43 d068 2541 db3c 2341 dd65 c441
00000090: 69d9 c642 7c87 cc42 0b6b 9440 a59b aa41
000000a0: 9674 a243 c8b8 d33f 533a a744 9559 1e41
000000b0: 43b2 2444 fe05 9741 ca2b 0841 e3e6 3742
000000c0: 0e3f 0443 fc72 ad41 3221 9b42 d04e 1742
000000d0: 7c16 8a42 82f7 0842 ff81 3542 7389 8f44
000000e0: 4c86 3841 56cb 0242 c780 2342 4c45 1742
000000f0: c1a3 1841 307d e241 67bc c743 124d 2743
00000100: dd9f 6b42 16d7 8b43 1ee1 8242 9e07 2841
00000110: 436a 6342 9dd5 b740 0d62 5143 6046 7d41
00000120: dee5 4343 7953 1d41 f4d0 d841 0603 9140
00000130: 2fe4 3e43 911c 0342 0647 3f41 749f 9d40
00000140: 51ee 2b41 de85 1341 623e b141 4d1b 0d42
00000150: e9f6 9b42 bb75 6642 ad29 0e43 4a3a ae42
00000160: 318a be42 3f59 9a41 6f87 9343 bedc d041
00000170: d380 9a43 ba00 ad44 5600 4843 8dd5 1a42
00000180: c698 0342 9754 9a3b d787 e142 5c99 5d41
00000190: 28ab 7241 5ff6 2f41 e553 ce42 718a 2041
000001a0: 394e 2143 2071 1844 4639 e841 e670 0041
000001b0: 09ab 1b43 a9f2 1941 363b 3143 2ed1 4042
000001c0: 8c05 8942 82f5 f240 d979 1a40 80a4 0542
000001d0: 8d1d d741 0659 9043 a7a3 0c40 dbca 7141
000001e0: f1a7 8c42 1f30 ad42 e721 e640 2b1d 4144
000001f0: 044b 4443 5a4f 2c42 f4fb 0644 fe12 6b41
6.386911 10.105255 1.6091661 159.20999 117.04268 14.5171795 27.134033 4.6798277
49.86346 215.81116 0.01608012 6.0241585 4.415518 145.27805 18.96209 656.202
6.089265 415.50076 0.4877606 6.6529665 25.153284 102.66883 43.64239 13.9414835
14.204105 143.24445 248.42632 40.264343 72.60182 528.87354 28.052465 179.5651
175.98228 10.338089 10.202357 24.549738 99.42463 102.26462 4.638067 21.325998
324.91083 1.6540766 1337.8226 9.896871 658.78534 18.877926 8.510691 45.975475
132.2463 21.681145 77.564835 37.826965 69.043915 34.241707 45.37695 1148.2953
11.532787 32.69857 40.87576 37.817673 9.539979 28.311127 399.4719 167.30106
58.906116 279.68036 65.43968 10.50186 56.85377 5.744826 209.38301 15.829681
195.89792 9.832879 27.102028 4.531619 190.89134 32.777897 11.95484 4.9257145
10.745683 9.220182 22.15546 35.27666 77.98225 57.61497 142.1628 87.113846
95.269905 19.293577 295.05807 26.107784 309.00644 1384.0227 200.00131 38.708546
32.899193 0.004709791 112.76531 13.849941 15.166786 10.997649 103.16386 10.033799
161.30556 609.7676 29.027966 8.027563 155.6681 9.621743 177.2313 48.204277
68.51083 7.592469 2.413687 33.410645 26.88943 288.6955 2.1974885 15.112025
70.32801 86.59399 7.1916385 772.45575 196.29303 43.07749 539.93677 14.692137

fc2.weight f4 [128, 130]
00000000: a714 ef3c 9f4c 06be 3026 fd3c 9114 8b3d
00000010: 89ca 3b3d 66db 80bd 8ea8 853c 9c64 d93c
00000020: 1288 40bd ae74 1fbe d42a 813d ce52 f6bc
00000030: f6af 113d ff1a a73d 99a1 7fbd 0b90 08be
00000040: 0b4f 953b d2ca b9bc 3ec6 b0bd 0845 89bd
00000050: d4da 44bd b05d a53d be0a 30bd bb91 d33c
00000060: 8ca6 6abd 4d9e 4dbc 9b1b b5bc 324b 503d
00000070: 2fe5 49bd 0596 9ebd 877c 313d 25bd 59bd
00000080: 436b 38be 6566 31bb b75a c3bb 2040 80bc
00000090: e3cf 9abd b2e4 313c 04cc 2c3b f034 9abc
000000a0: a5b3 4ebd 4fa2 da3d 80a8 ca3d 84c9 39bd
000000b0: 059e 0fbe eb14 843d 1cbb 55bd 2d78 2bbd
000000c0: c163 5fbd c135 c2bd c563 48bd d8ba 003e
000000d0: bdea 823d 10d9 55bd 147d 04bd 45de 953d
000000e0: 40a8 9ebd e817 0f3e e7de ccbd ddc2 1a3d
000000f0: ce72 23bd 4335 ea3c 37ce 78bc 6208 1cbd
00000100: 884f edbc 46d6 243d f021 84bd bdf2 33bd
00000110: e37a 783d 8093 c2bc 0b82 d83d 6150 273d
00000120: 576c b5bd 5a4c b1bc 62e7 d5bd 99c3 de3d
00000130: 6b51 523d 35ca ab3d 6da4 423d 27f0 9cbd
00000140: 83f9 48bc 54f2 3fbd 968b b53a 0da8 8439
00000150: 7f38 21bd a1d3 923d 8840 a43d a2b1 f3bd
00000160: b51d 743d 860f d3bd bdcf 3bbd bf7e a6bd
00000170: b902 963d 16f7 39bc 0c46 cbbc 7cce 8dbd
00000180: a198 1e3d 12fd 8fbc 0ab1 8e3d f7c3 c0bd
00000190: 1e3c 633d 5a26 453d 74c4 18be 5447 22bd
000001a0: 2fcb 9bbd 86ce dfbd 7cfa b83d be67 433c
000001b0: 5d85 b33d f937 b7bc 06d2 eb3b 31fe 1ebd
000001c0: 59f3 413d 25f1 b5bd 7b03 43bd 66f0 c8bc
000001d0: abe7 d33c 7798 96bc af5f 97bc b55d ce3d
000001e0: 26d1 883c 4686 a83c 1733 c7bd 6d4f e0bd
000001f0: 8f6d 91bd fac4 42bd 144a 41bd 6692 5cbd
00000200: 508e ebbc fb9c e43c c402 e8bd 569b ebbd
00000210: 80bb 603d e3d5 19be a10d aebd 78ed 383a
00000220: 181d 66bb 7aea ad3a 72b9 73bb 7a95 8bbe
00000230: 3f7b 1abd 3e07 e43c 27ad b7bd 4a7c c53d
00000240: a474 8dbe dfa6 fa3c 8d70 5c3d 9f5f 1cbe
00000250: 8ca5 11be 746d 84bd dde3 603d c917 99bd
00000260: 813d 07bd 394e 2d3d e7e9 31be 869a c3bd
00000270: ff0d 003a d712 ae3d d450 6dbd 1ae7 d7bd
00000280: 67da 673c f4b1 c3bd 0eb4 82bd 0522 683d
00000290: 6f12 fa3d 6868 0cbe 14cd 80be e40f 35be
000002a0: 85a1 1b3e 8692 d23a 257c 26bd ef6a 283e
000002b0: dadf 533d 9516 a6bd c2e5 45bc be94 873d
000002c0: 96ac fb3d 6b6c 59bd f7a9 52bd 0d65 1fbd
000002d0: 2441 723b 306d 2f3e ce45 dfbc 6849 b8bd
000002e0: 689d 01bd 3048 1cbd ac49 0dbe ebe6 e63d
000002f0: 3c93 adbd 9411 40bd 66ee 563d 4f4e 91bd
00000300: 79ca 00be d740 8bbe cab9 2c3b 15d8 253d
00000310: 33ab 973d e1a2 163e 410a d83c b444 b9bd
00000320: c402 a83b bfc1 0bbd cea1 d9bd e6a9 17bd
00000330: 257d bfbd 365f a83c 4f0c 453d da56 153e
00000340: 9d6e a5bd f358 94be 855e b6bd f3ba 8dbd
00000350: aced 123e a2eb 8e3d 4c10 293d 8756 853d
00000360: ee08 6f3e 73d2 08be bb29 5b3d 0450 45bd
00000370: 92d8 bd3d 6f2d 01be 319a 73bd 2eba b7bc
00000380: 8dcc 16bd 85c8 e0bc 5279 233e 2a56 a33c
00000390: 2c46 413e 78b8 03be 8e25 86bd 1b2c 98bd
000003a0: bda3 90bd 751f 3a3e f907 a8bd 51ad bfbd
000003b0: b817 9e3d a805 26be ad55 0bbd 974f 68bd
000003c0: 4e3b 7bbc 30af bb3d 47ac 14bd f2c9 d6bb
000003d0: 8b49 17bd 954a 823d 78e5 47be 6bf7 493c
000003e0: 029c b4bd 9d7d ae3d 542d b4bd bbac 9abe
000003f0: a58c 89be 32c8 10be 350d 91bd 85ba b0bd
0.029184652 -0.13115166 0.030901998 0.06791032 0.04584745 -0.06291847 0.016315725 0.026537232
-0.047004767 -0.15571854 0.06306997 -0.030068781 0.0355682 0.08159446 -0.06240997 -0.13336198
0.004556542 -0.02267972 -0.08631562 -0.0670262 -0.048060253 0.0807451 -0.042978995 0.025826326
-0.057287738 -0.012549949 -0.02210789 0.05085296 -0.049290832 -0.07743458 0.04333165 -0.053158898
-0.18009667 -0.0027069089 -0.005961742 -0.015655577 -0.075591825 0.010857748 0.002636672 -0.01882407
-0.05046429 0.10675489 0.0989542 -0.045358196 -0.14025123 0.06449302 -0.052180395 -0.041862655
-0.054538492 -0.09482909 -0.048923273 0.12571275 0.06392429 -0.05220896 -0.032345846 0.07317785
-0.07746935 0.13973963 -0.10003453 0.037783492 -0.03990441 0.02858985 -0.015185884 -0.038093932
-0.028968588 0.04024341 -0.064517856 -0.043932665 0.06066407 -0.023751974 0.10571679 0.04084814
-0.08858555 -0.021642853 -0.104445234 0.10877151 0.051347177 0.08388177 0.04752009 -0.07662993
-0.0122665195 -0.04686196 0.0013850804 0.0002530221 -0.03936052 0.07169271 0.08020121 -0.11899115
0.059598643 -0.10305695 -0.04585241 -0.08129644 0.07324738 -0.011350414 -0.024813674 -0.069241494
0.038719777 -0.017576728 0.06967361 -0.09412377 0.055477254 0.048132278 -0.14918691 -0.039618805
-0.076071136 -0.10928063 0.09032151 0.0119265895 0.087656714 -0.022365557 0.0071966676 -0.038816635
0.047351215 -0.08883885 -0.04761074 -0.024528693 0.025867304 -0.018383248 -0.018478243 0.10076467
0.016701292 0.020571839 -0.097265415 -0.10952649 -0.07100975 -0.047551133 -0.047189787 -0.053850554
-0.028754383 0.027906885 -0.113286525 -0.11504237 0.054866314 -0.15022998 -0.08498693 0.00070544286
-0.0035112556 0.0013268732 -0.0037189391 -0.2726248 -0.037715193 0.027835485 -0.08968573 0.09642847
-0.27628052 0.030597148 0.053818274 -0.15270852 -0.14223307 -0.06466189 0.054904807 -0.0747524
-0.03301764 0.042310927 -0.17374383 -0.095509574 0.0004884898 0.08499687 -0.05793841 -0.10542126
0.014151192 -0.09555426 -0.06381999 0.05667307 0.12210547 -0.13711703 -0.25156462 -0.17681843
0.15198334 0.0016065396 -0.040645737 0.16447042 0.051727153 -0.08109776 -0.012078704 0.06620167
0.122887775 -0.05308191 -0.051431622 -0.03891473 0.0036965096 0.17131495 -0.027254965 -0.08998376
-0.031644255 -0.03815478 -0.13797635 0.11274513 -0.08475348 -0.046891764 0.05247345 -0.07095014
-0.12577237 -0.27197906 0.0026355856 0.040489275 0.074057005 0.14710571 0.026372077 -0.09046307
0.005127283 -0.034120318 -0.10626565 -0.037027262 -0.09350041 0.020553213 0.04810744 0.14583912
-0.080777384 -0.28974113 -0.08904747 -0.06920423 0.14348477 0.06978537 0.041275308 0.065106444
0.2334325 -0.1336153 0.053506594 -0.048172012 0.09269823 -0.12614988 -0.05947322 -0.022427645
-0.03681617 -0.027439365 0.15964249 0.019938547 0.18874425 -0.12863338 -0.06550132 -0.074302875
-0.070624806 0.18176062 -0.08204646 -0.09359229 0.07719368 -0.16213095 -0.034017254 -0.056716528
-0.015333964 0.09164274 -0.03629711 -0.0065548355 -0.03693537 0.06361882 -0.19521129 0.012327055
-0.08818819 0.085200526 -0.08797708 -0.30209908 -0.26865116 -0.14138868 -0.07082597 -0.08629326

fc2.bias f4 [128]
00000000: e522 8bbe 6208 9cbe 8199 81be 59d4 4cbf
00000010: 8623 c2be c7cc 683e 1ec6 2ebf 879f 06be
00000020: eac6 07bf 8ff5 0abf f788 8cbe f879 c3be
00000030: d5ac 67be 90fc 8ebe c2a0 b4be c3fe dabe
00000040: 2ac5 73be bc21 aabe 83b2 90be a1b9 a4be
00000050: 4c8d 2ebf 9bc5 f6be b52a 8bbe ccf3 c7be
00000060: 15a5 a2be 9b37 95be 468e 54be 1432 c9be
00000070: ebf7 3dbf 864a 87be 89e8 e43c 27a2 d2be
00000080: 164b a6be f1de 5ebe 562b 42be 24c0 a4be
00000090: 309a a2be bbb3 72be a199 50bd 09c1 4ebe
000000a0: 0e93 7cbe 8010 43be c37b 9bbe 2529 0dbf
000000b0: 13a0 3cbe 4d18 85be 783c 5cbe e28f 80be
000000c0: e550 e8be 93d8 7dbe 5ef3 aabe 9f59 1dbf
000000d0: c1c5 98be 3bbd 7dbe 566e 0bbf 368e 9ebe
000000e0: 4baf c8be 863e 89be 1a52 19bf b9d6 6abe
000000f0: 65a2 7ebe 2169 d7be 6c72 d8be b54a b8be
00000100: f77c 9abe ff03 73be 321d 1cbf 8988 afbe
00000110: ca59 0fbf 6cfb f1be 1b97 9bbe 9270 85be
00000120: 6288 21bf 4c21 f9be 3fdf c5be 4619 d7be
00000130: 74a9 91be b698 c2be 3393 9bbe 722c e0be
00000140: d88e 95be 2aa4 adbe 1535 79be d6b1 4dbe
00000150: c001 a6be f9b3 9ebe a5f5 9abe b7ec 8bbe
00000160: 404e 96be 6e3b 86be c071 8fbe e64c b8be
00000170: db14 89be 09e1 9dbe d106 87be 2722 e8be
00000180: c7c4 a8be c65d 49be 8de8 04bf 5feb fdbe
00000190: 1c60 b4be 4b05 c4be 755a 6ebe c601 4fbe
000001a0: 62e1 96be fab9 9dbe d333 95be f75a 57be
000001b0: 27a1 b9be 9ff0 8bbe 23c1 7dbe ce52 b6be
000001c0: 4b3c 1ebf f8a3 a2be 0d46 8bbe 40ca 7dbe
000001d0: 116f abbe e5db 95be 0fd4 81be 5cdc 87be
000001e0: 7685 53bf 205c 80be 4e07 9fbe a1f6 39bf
000001f0: add8 8abe 3ee8 c5be d1e5 80be 40a4 4fbe
-0.2717506 -0.30475146 -0.25312427 -0.80011517 -0.37917727 0.22734366 -0.6827105 -0.13146792
-0.53037894 -0.5428094 -0.27448246 -0.38178992 -0.22624524 -0.27927065 -0.35278898 -0.42772493
-0.23805681 -0.33228862 -0.28261194 -0.32172874 -0.6818435 -0.48197636 -0.2718102 -0.3905319
-0.31766573 -0.29143986 -0.20757398 -0.3929602 -0.7420642 -0.26424044 0.027942913 -0.41139337
-0.3247916 -0.21764733 -0.18961844 -0.32177842 -0.3175826 -0.23701374 -0.050927762 -0.20190825
-0.24665472 -0.19049263 -0.3036786 -0.55140907 -0.18420438 -0.25995103 -0.21507442 -0.25109774
-0.45374218 -0.24789648 -0.333888 -0.61464876 -0.29838374 -0.24779217 -0.54465234 -0.30967873
-0.39196238 -0.26805514 -0.598909 -0.22933473 -0.24866636 -0.42072394 -0.42274797 -0.35994497
-0.30173466 -0.23731993 -0.6098205 -0.34283856 -0.5599638 -0.47262132 -0.30388722 -0.26062447
-0.6309873 -0.48658216 -0.38646886 -0.4201147 -0.28449595 -0.38007134 -0.30385742 -0.4378391
-0.29210544 -0.3391431 -0.24336655 -0.2008737 -0.3242321 -0.30996683 -0.30265537 -0.27329037
-0.29356575 -0.26217216 -0.28016472 -0.3599617 -0.26773724 -0.3083575 -0.26372388 -0.45338556
-0.3296263 -0.19664678 -0.51917344 -0.49593636 -0.35229576 -0.38285288 -0.23276694 -0.2021552
-0.29468828 -0.3080595 -0.291411 -0.21030794 -0.36255762 -0.27332017 -0.24780707 -0.3561005
-0.6181075 -0.31765723 -0.27201882 -0.24784184 -0.33483174 -0.2926933 -0.253571 -0.26535308
-0.8262552 -0.25070286 -0.3106026 -0.7264195 -0.27118436 -0.3865375 -0.25175336 -0.202775

fc3.weight f4 [1, 128]
00000000: ee57 d23b 7e4e 42bb d811 15bd 6a17 d33d
00000010: 4fb1 23bc 7d71 b5bc 3716 313d 384f 333d
00000020: b855 5cbd 4b19 783d 4963 703c fd0a 1cbb
00000030: 50ca 783c 6db2 723c 0e9b 47bd 564c 08bb
00000040: d373 25bc b891 cd3b d7c7 34bd 8777 0b3b
00000050: 1987 c73c dcb5 643d b008 03bc 23e2 c3bc
00000060: 1ee7 c0bc e2f8 d1bc 52ba 343c 9302 a0bc
00000070: 0f29 c23d d4d4 45bc cf90 0a3d faab ad3c
00000080: 8a91 61bd 4d57 1bbc 64be 5e3c 37cf 113c
00000090: b3db 54bd 68f3 7cbb 9f93 633c 1b40 ae3c
000000a0: ca85 103c f02e 5bbc 846e 183c 9561 0e3e
000000b0: 4786 68bc 9743 dc3c 694e 9e3c ad6d 07b9
000000c0: 79c9 a7bb 6e6f 8d3c 3f27 913b be37 b43c
000000d0: c6ed 1fbc f830 9f3a 4230 043d 1fe0 e83c
000000e0: 71c8 bc3b 7bbb b7bb 6c58 003e 0d73 0fbb
000000f0: caa6 163b bb04 903d 647c 923c 80ba 073a
00000100: 9dae e2bd c216 db3c 9326 9fbd e31d 25bc
00000110: 2c40 903c 1f87 d5bc 3fd9 c63b 6742 a03b
00000120: f31f 16bd 0e11 c1bd 3a7d a3bc a267 abbc
00000130: dbb0 dd3a 9980 f9bc fa28 2e3c f953 303d
00000140: 8f1d d53a a41e 123c 6fde ddb8 feb9 06bc
00000150: 8da4 783c ee6c 5a3c 49a4 a33c c8ca a73c
00000160: 52c7 ad3c c901 023d c241 c0bc bb0c b4bc
00000170: eac6 b93b ea63 e73c 811c 413c a8d2 623e
00000180: 483b 52b9 dbfa da3a 40d6 61bd 1fa4 d3bd
00000190: 3e56 873c 8503 953a fb05 76bb 96e8 c83b
000001a0: 5ca1 93bb 3540 94bc c740 5fbd 9934 e9bc
000001b0: 3a14 92ba 2309 89bb 7608 403c eb0d 2c3a
000001c0: 763e 643d 44c1 45bd 4c87 eabc 2d6b d4bb
000001d0: 1fe7 80bc c4b7 913d b9f8 88bc 8327 66bc
000001e0: a551 3e3d 434a 32bc b44c 2a3c 92c7 b0bc
000001f0: 03d5 76bc a0c4 743d 0fa6 52bc a14a ae3d
0.0064191734 -0.0029648836 -0.03639397 0.103072 -0.009991004 -0.022148842 0.043234076 0.04377672
-0.053792685 0.060570996 0.014672109 -0.002381026 0.015184954 0.014813048 -0.048731856 -0.0020797453
-0.010098415 0.0062734745 -0.044135895 0.002128096 0.024356412 0.055837497 -0.007997677 -0.023911541
-0.023547705 -0.025631372 0.01103075 -0.019532477 0.094804876 -0.012074668 0.033829506 0.021200169
-0.055070437 -0.009481263 0.013595197 0.0088995015 -0.051967334 -0.003859723 0.013890176 0.021270802
0.00882096 -0.01337789 0.009303693 0.13904412 -0.01419217 0.026887698 0.019324498 -0.0001291546
-0.005120453 0.017265048 0.0044297273 0.021999236 -0.009761279 0.0012145331 0.032272585 0.028427182
0.005761199 -0.005607066 0.1253373 -0.0021888644 0.0022987598 0.07032152 0.01788158 0.0005177632
-0.11068461 0.02674425 -0.07771029 -0.010077926 0.017608725 -0.026065407 0.006068378 0.0048907283
-0.036651563 -0.09427081 -0.019957174 -0.02092344 0.0016913669 -0.030456828 0.010629887 0.043048833
0.001625942 0.008918438 -0.00010579533 -0.008223055 0.015175951 0.013331635 0.019975798 0.020482436
0.021213207 0.031739984 -0.023468856 -0.021978727 0.0056694644 0.028245885 0.011786581 0.22150671
-0.00020049245 0.0016706841 -0.055135965 -0.10334038 0.016520616 0.0011368847 -0.0037540186 0.006131242
-0.0045053195 -0.018097023 -0.054505136 -0.028467463 -0.0011144944 -0.0041819974 0.011720767 0.0006563353
0.05572363 -0.048280016 -0.028628968 -0.006482503 -0.015735207 0.07115129 -0.016720163 -0.014047506
0.04646458 -0.010881963 0.010394264 -0.021579538 -0.015065434 0.05975783 -0.012856974 0.08510328
