training_output/best_agent/weights_actor.pth (torch_old, 83672 bytes, 10 tensors)

fc1.weight f4 [128, 24]
0	0x401e3ba1	2.4723895
1	0xbf7fe7d0	-0.9996309
2	0xbe6d58ac	-0.23178357
3	0x3ffe48d3	1.9865974
4	0x3fb7391f	1.4314307
5	0x3f528096	0.82227457
6	0xbe3e9a2f	-0.18613504
7	0x4000bf18	2.0116634
8	0x40425f56	3.0370688
9	0xbe9e918e	-0.30970424
10	0x3f375f3f	0.7162971
11	0x3ff94268	1.947339
12	0x3f5e055f	0.86726946
13	0x3fbdf8df	1.4841574
14	0x3f381ff1	0.7192374
15	0x3fff3ed3	1.9941047
16	0x403960ad	2.8965256
17	0xbc3aa288	-0.0113912895
18	0xbe31bf81	-0.17358209
19	0x3f11e433	0.5698883
20	0x3e776887	0.24160968
21	0x3ffc2951	1.9700109
22	0xbddb9cd8	-0.10723275
23	0x3f374457	0.71588653
24	0x3d2215d9	0.039571617
25	0xbfdb01cf	-1.7109927
26	0x3df22d04	0.11824992
27	0x3d0c13bd	0.03419851
28	0xbf53d7b6	-0.82751024
29	0xbfe91edf	-1.8212546
30	0x3db1cfb8	0.08682197
31	0xbdde67c8	-0.108596385
32	0x3e8ebb84	0.27877438
33	0xc003b038	-2.0576305
34	0x3f31deee	0.6948079
35	0xc03307be	-2.7973475
36	0xbfba78bb	-1.4568094
37	0xbf8cfef4	-1.1015306
38	0x3f2e3eb2	0.68064415
39	0xc035fbab	-2.8434856
40	0x3dce3644	0.10068944
41	0xc0458667	-3.0863283
42	0x3f365712	0.7122661
43	0xc0a9becf	-5.304542
44	0xbfcb1453	-1.5865577
45	0x3f5559dd	0.83340245
46	0x3f45e276	0.77298677
47	0xc0aa8761	-5.3290257
48	0x3fc5a1a2	1.5439951
49	0xbfefcd0a	-1.8734448
50	0xbe62b3fa	-0.22138968
51	0xbf11fd12	-0.5702678
52	0x3f7306e9	0.9493242
53	0xbfcb46f8	-1.5881033
54	0xbe838c0e	-0.2569279
55	0xbed901f0	-0.4238429
56	0x3fafd742	1.3737566
57	0xc00c8c7f	-2.1960752
58	0xbf79eecc	-0.9763
59	0xbf3f051c	-0.7461717
60	0x3f9afd5b	1.2108568
61	0xbfb4759c	-1.4098392
62	0xbf675a0d	-0.9037178
63	0xbf4433a3	-0.7664129
64	0x4013e38b	2.3107631
65	0xbff6ecb6	-1.9290988
66	0x3f31e3ef	0.69488424
67	0x3c6390b3	0.013889479
68	0x3f8ad382	1.0845797
69	0xbf8347d9	-1.0256301
70	0x3f2c5cfe	0.67329395
71	0xbb41fe00	-0.0029600859
72	0xbf4f8559	-0.8106285
73	0xbfcf6d6d	-1.6205269
74	0xbf7d2e0e	-0.988984
75	0xc04be965	-3.1861203
76	0x3f150d98	0.5822387
77	0xbeff0a6d	-0.49812642
78	0xbf8a5096	-1.0805843
79	0xc04d4110	-3.207096
80	0xbe17db20	-0.14829683
81	0xc00cd7ef	-2.2006795
82	0xbf0671eb	-0.52517575
83	0xbf9c5b98	-1.2215452
84	0x3f92ed80	1.1478729
85	0x3e86e41c	0.2634591
86	0xbf15383e	-0.58288944
87	0xbfa5772a	-1.2926991
88	0x3ecbbdfe	0.3979339
89	0xc0252bd2	-2.5807996
90	0x3f100160	0.562521
91	0x3f6cd03f	0.9250526
92	0x401497a7	2.3217561
93	0x3f0d6feb	0.552489
94	0x3f158c1a	0.58416903
95	0x3f67f9ad	0.9061535
96	0x3fdfb178	1.7476034
97	0xbefecc0d	-0.49765053
98	0xbc6fd1af	-0.014637395
99	0xbfc513ae	-1.5396631
100	0x3e77dd9c	0.24205631
101	0xbfbea17e	-1.4893034
102	0x39a8a961	0.00032169654
103	0xbfbd370f	-1.4782428
104	0x3fe6c99b	1.8030275
105	0xbf91751b	-1.1363863
106	0xbf7bd9b4	-0.98379064
107	0xbfff6625	-1.9953047
108	0xbb9dc788	-0.0048150457
109	0xbf4b0fe5	-0.7932113
110	0xbf7676b4	-0.96274877
111	0xbff8454d	-1.9396149
112	0x3faf3cf6	1.3690479
113	0xbfe3be5e	-1.779247
114	0xbf529f45	-0.82274276
115	0xc004c338	-2.0744152
116	0x3ea79787	0.32732794
117	0x3ecd945b	0.4015225
118	0xbf483984	-0.7821276
119	0xc00731d9	-2.1124175
120	0x3ed1182a	0.40838748
121	0xbfddedd4	-1.7338204
122	0x3f161eb8	0.58640623
123	0xc06b4fa0	-3.676735
124	0xbf031e2a	-0.512179
125	0xc05d69f4	-3.4595919
126	0x3f0f2d28	0.5592828
127	0xc0682d82	-3.6277776
128	0x3dd79595	0.105265774
129	0xbfd7591c	-1.6824069
130	0xbfa114a6	-1.2584426
131	0xbec8c9cf	-0.39216468
132	0xbd6164d0	-0.055027783
133	0xc01f8494	-2.492467
134	0xbf9f00ec	-1.2422156
135	0xbedbb4ce	-0.4291138
136	0x3f4548e9	0.7706438
137	0xbf90b7ad	-1.1306053
138	0x3f192e55	0.5983632
139	0x3f62eb31	0.88640124
140	0x3edcc7f8	0.43121314
141	0xbf85fbf2	-1.0467513
142	0x3f248f1b	0.6428086
143	0x3f7d2a13	0.98892325
144	0xc0211a69	-2.517237
145	0x406db676	3.7142615
146	0xbc457242	-0.012051167
147	0xbdd33ba5	-0.10314111
148	0xbf671e00	-0.9028015
149	0x40700c79	3.7507613
150	0x3d0bdffe	0.034149162
151	0xbddb2bcd	-0.10701714
152	0xc01b36c0	-2.4252167
153	0x404dc2ad	3.215007
154	0xbe1dbc37	-0.1540383
155	0x3f1a567c	0.60288215
156	0xbf2ab975	-0.66689235
157	0x4090564e	4.5105352
158	0xbdad9d48	-0.08477265
159	0x3f07b245	0.5300639
160	0xc03b10fd	-2.922912
161	0x404eb5f5	3.2298558
162	0xbea4adcc	-0.32163846
163	0x3dfde2a5	0.12396745
164	0xbead7e03	-0.33885202
165	0x40a24ecd	5.072119
166	0xbe4d183c	-0.20028776
167	0x3e445d9a	0.19176331
168	0x3f189bb6	0.59612596
169	0xc00b6a77	-2.178373
170	0xbd267277	-0.040636506
171	0xbec6f81f	-0.38861176
172	0x3ef40455	0.47659555
173	0x402c040d	2.6877472
174	0xbe129a9d	-0.14316793
175	0xbef18688	-0.47172952
176	0x3f4c8898	0.79895926
177	0xc024e605	-2.5765393
178	0xbe53ceef	-0.20684408
179	0xbdd6c002	-0.10485841
180	0xc013a723	-2.3070762
181	0x405dee57	3.467672
182	0xbe2376d6	-0.15963301
183	0xbd192e45	-0.03739764
184	0x3f87b2bc	1.060142
185	0xc0281a6c	-2.6266127
186	0x3db5938d	0.08866034
187	0x3e944509	0.2895892
188	0xc093b55c	-4.6158886
189	0x40764a68	3.8482914
190	0x3d20c6ee	0.039252214
191	0x3e8f68f2	0.28009754
192	0x3e7379d4	0.23776942
193	0xbe8032fc	-0.25038898
194	0x3e924d04	0.28574383
195	0xbf0964cd	-0.53669435
196	0x406585d7	3.586294
197	0x3f54e5b7	0.8316302
198	0x3e890777	0.26763508
199	0xbf15f3a6	-0.58574903
200	0x3dfb179c	0.122603625
201	0xbf201c71	-0.625434
202	0xbd9b8225	-0.075931825
203	0x3e2d5e8e	0.16930601
204	0x40904c2b	4.509298
205	0x3f766768	0.96251535
206	0xbbc06dad	-0.0058724494
207	0x3de56ca0	0.11202359
208	0x3e840339	0.2578371
209	0xbf9a3cc1	-1.2049791
210	0x3e1e8b1d	0.15482755
211	0xbea5631d	-0.3230218
212	0x40b07883	5.514711
213	0x3fb474da	1.409816
214	0x3e25b3b2	0.1618183
215	0xbecac4cb	-0.39603266
216	0x4029d9d5	2.6539204
217	0xbfd55e76	-1.6669452
218	0xbd8cd4fd	-0.06876562
219	0x3f14c47d	0.5811232
220	0x3fdada16	1.7097805
221	0xbe90f1db	-0.2830952
222	0xbe4e713b	-0.20160381
223	0x3f0d6f37	0.55247825
224	0x400be978	2.1861248
225	0xbf867435	-1.0504214
226	0xbf299b7c	-0.66252875
227	0x3fdbcbea	1.7171605
228	0x3f748982	0.9552232
229	0xbecbeaef	-0.39827678
230	0xbf406664	-0.75156236
231	0x3fd182de	1.6368062
232	0x404873f9	3.1320784
233	0xbf39b48d	-0.72541124
234	0x3dcf05da	0.10108538
235	0x3fa6b2bf	1.3023299
236	0x3e4898af	0.19589494
237	0xbe0d5f3d	-0.13805862
238	0x3e5eb182	0.21747401
239	0x3fa75272	1.3072035
240	0xbc70d4c5	-0.014699166
241	0xbfcf691b	-1.6203951
242	0xbddedba3	-0.10881736
243	0xbf24724c	-0.64236903
244	0xbecc40b2	-0.3989311
245	0xbf8ccf4e	-1.1000764
246	0xbded9254	-0.116001755
247	0xbf07e7b1	-0.5308791
248	0x3f1c2283	0.6099016
249	0xbfceb906	-1.6150215
250	0x40293cdf	2.6443403
251	0xbed4b2b4	-0.4154259
252	0xbf8d3c57	-1.1034039
253	0xbf43be9f	-0.7646274
254	0x402a3d63	2.6599967
255	0xbecc1741	-0.3986149

fc1.bias f4 [128]
0	0xbf7d78d6	-0.99012506
1	0xbe409da2	-0.18810132
2	0xbefc9aa8	-0.49336743
3	0xbf6dd553	-0.9290363
4	0xbff01158	-1.8755293
5	0xbfcc90d1	-1.5981694
6	0x3f77c565	0.96785575
7	0xbfc1ede8	-1.5150728
8	0xbef1417c	-0.47120273
9	0xbfd83418	-1.6890898
10	0xbf36b653	-0.71371955
11	0xbee008d8	-0.43756747
12	0xbeddd35a	-0.4332531
13	0xbff085fc	-1.8790889
14	0xc00e233b	-2.2209003
15	0xbebd1608	-0.3693087
16	0xbf3f07fe	-0.7462157
17	0xbfd71f60	-1.680645
18	0x3e0aab93	0.13542013
19	0xbfca8e73	-1.5824722
20	0xbf3717f4	-0.71520925
21	0xc00735ff	-2.1126707
22	0xbe96c2a5	-0.29445377
23	0xbfece262	-1.8506587
24	0xbf8c1b91	-1.0945913
25	0xc0611497	-3.5168817
26	0xbf860950	-1.0471592
27	0x3d66ebf1	0.056377355
28	0xbf98cc69	-1.1937381
29	0xbfc0d865	-1.5066038
30	0x3e2851a6	0.16437396
31	0xbfb252aa	-1.3931477
32	0xbf8d236e	-1.1026437
33	0x3e3d6e85	0.18499191
34	0xc046f8f6	-3.1089454
35	0x3db04801	0.08607484
36	0xbfa704ac	-1.3048301
37	0xc01df01c	-2.46778
38	0xbfb9e1ad	-1.4521996
39	0xbf80c1f5	-1.0059191
40	0xbea5ca6e	-0.32381004
41	0xbfaefa3d	-1.3670117
42	0xbf08a9c0	-0.5338402
43	0xc0045f41	-2.0683138
44	0xbd175f0f	-0.03695589
45	0xc020955c	-2.5091162
46	0x3d01c9c1	0.03168655
47	0x3f8c8813	1.0979027
48	0xbe23b6ec	-0.15987748
49	0x3e037cc2	0.1284056
50	0xbfcc19ae	-1.5945337
51	0xc0264880	-2.598175
52	0xbfd49006	-1.6606452
53	0xbf99d1c5	-1.2017142
54	0xbf570af3	-0.8400108
55	0xbf63a67c	-0.8892591
56	0xbf86b8b6	-1.0525119
57	0xbff45e98	-1.9091368
58	0xbf8c84c4	-1.0978017
59	0xc009ecb0	-2.1550713
60	0xbe5520da	-0.20813313
61	0xbf361a44	-0.7113383
62	0xbfaedc98	-1.366107
63	0x3e972247	0.2951834
64	0xbfdfc9d0	-1.7483463
65	0xbfc3036e	-1.5235422
66	0xbfb08e79	-1.3793479
67	0xc03cd257	-2.9503381
68	0x3edfc942	0.43708235
69	0xc00805fa	-2.1253648
70	0xbfc06e48	-1.5033655
71	0xbfcb3808	-1.5876474
72	0xbf63d07d	-0.8899
73	0xbf3e9785	-0.7444995
74	0xbfa3db56	-1.2801311
75	0xbf03d8fa	-0.51502955
76	0xbfd463a8	-1.6592913
77	0x3f4d8524	0.8028128
78	0x40065650	2.099018
79	0x3f193c85	0.5985797
80	0x3eb02bb4	0.34408343
81	0xbed69a6a	-0.41914684
82	0xbf550582	-0.8321153
83	0xbf7474ad	-0.95490533
84	0x3eba13f4	0.36343348
85	0xbfd64317	-1.6739224
86	0xbfb17b9b	-1.3865846
87	0xbfdb4168	-1.7129335
88	0xbfe8d595	-1.819018
89	0xbfa0d732	-1.2565672
90	0xc0124837	-2.2856576
91	0xbeaf3d4d	-0.34226456
92	0xbf73370d	-0.95005876
93	0xc0049d94	-2.0721178
94	0xbf4dc990	-0.80385685
95	0xbf4489bf	-0.76772684
96	0xbf0ebbfc	-0.5575559
97	0xbd42621e	-0.047456853
98	0xbf3db210	-0.74099827
99	0xbfb6941a	-1.4263947
100	0x3f86a991	1.0520498
101	0xc051085c	-3.2661352
102	0x3d2d3970	0.042291105
103	0xbf8f7b2a	-1.1209462
104	0xbfdf9058	-1.7465925
105	0xbdc2aba9	-0.09505398
106	0xbff6d73f	-1.9284438
107	0x3f0ba69e	0.5455111
108	0xbd0d1d58	-0.034451813
109	0xbf5a9554	-0.85384107
110	0xbe288e56	-0.16460547
111	0x3f0e7f86	0.55663335
112	0xbf371de3	-0.7152998
113	0x3f1371b2	0.5759536
114	0xc0171a41	-2.3609774
115	0xbf8c207f	-1.0947417
116	0xc04ccc21	-3.199959
117	0xbf52620f	-0.82180876
118	0x3e1fa354	0.15589648
119	0xbe446d52	-0.19182327
120	0xbf374cdc	-0.71601653
121	0xbfdf322a	-1.7437184
122	0xbf1e1331	-0.61748034
123	0x3dafd3c1	0.08585311
124	0xbd8cdd46	-0.06878142
125	0xbf8e60a9	-1.1123248
126	0xbf7c90c8	-0.9865842
127	0x3f236064	0.63818955

bn1.weight f4 [128]
0	0x3f3f1902	0.74647534
1	0x3fbebba8	1.4901018
2	0x3f5d1f38	0.8637576
3	0xbdb7832d	-0.08960567
4	0xbe2fd6b8	-0.17171752
5	0x4035a9a7	2.8384798
6	0x402852c5	2.6300519
7	0x40a04d38	5.009426
8	0x3f88e625	1.0695235
9	0xbdbb5d76	-0.09148686
10	0x3fa8e67a	1.3195336
11	0x3e4d75b4	0.20064431
12	0x3f89002d	1.0703179
13	0x3dfe0197	0.12402647
14	0xbee41849	-0.44549778
15	0x405b2d94	3.4246569
16	0x3ff2c57d	1.8966519
17	0xbd84969d	-0.0647404
18	0x4022f755	2.546346
19	0x3f06fb5e	0.52727306
20	0x3f358057	0.70898956
21	0x3e401872	0.18759325
22	0x3fe7d75a	1.8112595
23	0x3f0016ea	0.50034964
24	0x3da2d952	0.07951607
25	0x3f60afb6	0.87768114
26	0x40474a2b	3.1139019
27	0x3f829a17	1.0203274
28	0x404b910d	3.1807282
29	0x402ccb22	2.6998982
30	0x3c745f2d	0.01491527
31	0x3f63a405	0.8892215
32	0x3fd521dc	1.6650958
33	0x3fe93f26	1.8222396
34	0x4044b489	3.073519
35	0x3fb799a9	1.4343768
36	0x3f14d964	0.5814421
37	0x406888f5	3.6333592
38	0x3f773c6a	0.9657656
39	0x3f516e16	0.818086
40	0x3fb6a618	1.4269438
41	0x3fd1b04f	1.638193
42	0x3f26cb65	0.65154105
43	0x4012f0ea	2.2959542
44	0x3ff77ff7	1.9335927
45	0x3e900c9b	0.28134617
46	0x3ed83c71	0.42233613
47	0x3dac6500	0.08417702
48	0x3f3c9fd4	0.7368138
49	0x40023e3e	2.035049
50	0x3fc949a2	1.5725596
51	0x4048e492	3.1389508
52	0x3ffcba1c	1.9744296
53	0x405dde4b	3.4666927
54	0x3fbed258	1.4907942
55	0x401efddb	2.484244
56	0x3db40341	0.08789683
57	0xbd9aa7bf	-0.07551526
58	0x3f7b3ab6	0.9813646
59	0x4086ac0a	4.208501
60	0x3faf8aee	1.3714273
61	0x3f4fc356	0.81157434
62	0x3ffdd971	1.9831983
63	0x40329c7b	2.7908008
64	0x3f496a59	0.786779
65	0x3eb9d94c	0.36298597
66	0x3f8becc8	1.0931635
67	0x3f68529d	0.9075106
68	0x3e0cde6d	0.13756724
69	0xbe538f45	-0.20660122
70	0x3f311813	0.6917736
71	0x3e447546	0.19185361
72	0x4012667d	2.2875054
73	0x3f11267d	0.56699353
74	0x3eb81f71	0.35961488
75	0xbe06a209	-0.13147749
76	0x3fb59fac	1.4189353
77	0x3f56f3c3	0.839657
78	0x3fd399ff	1.6531371
79	0x3f88db41	1.0691911
80	0x4016e6e9	2.3578436
81	0x3ffed410	1.9908466
82	0x3f6cd0c7	0.9250607
83	0x401aa89d	2.4165413
84	0x404870f8	3.131895
85	0x3f920839	1.1408759
86	0x3fd55199	1.6665527
87	0x3f813df9	1.0097038
88	0xbf42289b	-0.7584321
89	0x3f855399	1.0416137
90	0x3faeeaad	1.3665367
91	0x3fed2f49	1.8530055
92	0x3f4e9bd6	0.80706537
93	0x403593b0	2.8371391
94	0x401a127d	2.4073784
95	0x3fe08d98	1.7543211
96	0x3f91f56d	1.1403023
97	0x3ef93018	0.48669505
98	0x408eee88	4.4666176
99	0x40364f69	2.8485968
100	0x3efac58a	0.48978835
101	0x3fca925e	1.5825918
102	0x3ef32a9b	0.47493443
103	0x401dac87	2.4636552
104	0x4003d228	2.059702
105	0x3fe78b97	1.8089474
106	0xbd927975	-0.07152072
107	0x3f86ac17	1.0521268
108	0x401bcd30	2.4343987
109	0x40474ea4	3.1141748
110	0x3fcbd580	1.592453
111	0x3f7ca17b	0.986839
112	0x3db8abd9	0.09017152
113	0x3fe3ee7b	1.7807153
114	0x4007233e	2.111526
115	0x3f97d73f	1.1862563
116	0x3fa3f206	1.2808235
117	0x4000b40e	2.0109897
118	0x4038ae0d	2.8856232
119	0x3f9298f8	1.1452932
120	0x3d38e66c	0.045141622
121	0xbe02743e	-0.12739655
122	0x3f2e46cb	0.6807677
123	0x3ff41551	1.9069005
124	0x3fae975c	1.3639941
125	0xbe23ede0	-0.16008711
126	0x3ef8d79e	0.48602003
127	0x3f588e07	0.84591717

bn1.bias f4 [128]
0	0x3e9d8633	0.30766448
1	0x3f97f1eb	1.1870703
2	0x3ea06707	0.31328604
3	0x3e04b012	0.1295779
4	0xbe495efa	-0.19665137
5	0x3f4e430c	0.80571055
6	0xbf7869a0	-0.9703617
7	0x3f9f756b	1.2457708
8	0x3f948915	1.1604334
9	0xbd8ec5fb	-0.069713555
10	0x3f05c6ee	0.5225667
11	0x3ce92f19	0.02846484
12	0xbdc14b52	-0.09438194
13	0xbde8a819	-0.11360187
14	0x3d938319	0.07202739
15	0x3f4a8a2a	0.7911707
16	0x3ee16a5d	0.4402646
17	0x3d83c83f	0.06434678
18	0x3fa32b84	1.2747655
19	0x3efeeb33	0.49788818
20	0x3ecd863a	0.4014147
21	0xbe276617	-0.16347538
22	0x3f91fd4f	1.1405429
23	0x3e7be9b5	0.24600871
24	0xbc1212eb	-0.008915643
25	0x3c9331ec	0.01796814
26	0x3ec14297	0.37746117
27	0x3efc611e	0.49292845
28	0x3ed3a81d	0.41339198
29	0x3efefd76	0.4980275
30	0x3e9e6866	0.30939025
31	0x3f404637	0.7510714
32	0x3f883b58	1.064311
33	0x3fb842a4	1.4395337
34	0x3f1cc433	0.61236876
35	0x3f605b65	0.87639457
36	0xbd92d128	-0.071688
37	0xbf464333	-0.7744629
38	0x3f567ee1	0.8378735
39	0x3f08747a	0.5330273
40	0x3f508f02	0.8146821
41	0xbce35de4	-0.027754731
42	0xbf74e880	-0.95667267
43	0x3ea64e0e	0.32481426
44	0x3faa23c7	1.3292168
45	0x3cb9dd7b	0.022688618
46	0xbec55a1c	-0.3854531
47	0x3d9c4b83	0.0763159
48	0x3e4f1267	0.20221864
49	0x3faa6810	1.3313007
50	0x3edbd1b0	0.42933416
51	0xbf9644e5	-1.1739775
52	0xbf2281c4	-0.63479257
53	0x3c4b261e	0.012399225
54	0x3f4dd98c	0.80410075
55	0x3ef5393e	0.47895235
56	0x3e78a22f	0.24280618
57	0x3d98e896	0.07466237
58	0x3eaf5300	0.3424301
59	0x3fc4995c	1.5359302
60	0x3f909fa9	1.1298724
61	0x3eba8c7b	0.36435303
62	0xbc3673da	-0.01113602
63	0x3f537308	0.825974
64	0x3ea1fa5c	0.31636322
65	0xbe1715e5	-0.14754446
66	0x3ee344b4	0.44388354
67	0xbee5ae8e	-0.44859737
68	0xbcbe3e14	-0.02322296
69	0xbe3e3a11	-0.18576838
70	0x3dec9155	0.115511574
71	0xbd79bc7d	-0.060970772
72	0x3f884634	1.0646424
73	0x3e69e0cd	0.22839661
74	0x3c4018c0	0.011724651
75	0x3c08524a	0.0083204005
76	0x3f2b97d3	0.6702854
77	0x3f761b07	0.9613499
78	0x3f56abee	0.83856094
79	0x3f975507	1.1822823
80	0x3fc4fc8f	1.5389575
81	0x3ee6454d	0.44974747
82	0x3f2dbcfc	0.6786649
83	0x3f6cbf66	0.9247955
84	0xbe8ea17e	-0.27857584
85	0x3f9970f2	1.1987593
86	0x3e08fbce	0.13377306
87	0xbf63edd2	-0.8903476
88	0xbde78399	-0.11304397
89	0x3e696c10	0.22795129
90	0x3d7af378	0.061267346
91	0x3fa47cd8	1.2850599
92	0x3eb419c2	0.35175902
93	0x3f4f2711	0.80918986
94	0x3f49f870	0.7889471
95	0x3ea386e7	0.3193886
96	0x3f5c2c3a	0.86004984
97	0x3e14d6ef	0.14535116
98	0x3da2f301	0.079565056
99	0x3f8e2434	1.1104798
100	0x3f47e242	0.7807962
101	0xbfa24814	-1.2678246
102	0xbb2f70c6	-0.00267701
103	0x3eb07400	0.344635
104	0xbf7fc3ac	-0.99907947
105	0x3f88ab8d	1.0677353
106	0x3bdb3ebb	0.0066908277
107	0x3f023492	0.50861466
108	0x3f455477	0.7708201
109	0x3ea582c2	0.32326323
110	0xbfc88b0a	-1.5667431
111	0x3f463f92	0.7744075
112	0x3eab8bc0	0.33505058
113	0x3f904fad	1.1274315
114	0x3cb75fb2	0.022384498
115	0x3f3f8370	0.7480993
116	0xbc101c55	-0.008795817
117	0x3f3e391f	0.7430591
118	0x3e866b50	0.26253748
119	0x3f9e510f	1.2368487
120	0xbdcce2f2	-0.10004224
121	0x3d666c10	0.0562554
122	0x3f422a51	0.7584582
123	0x3fa4496d	1.2834908
124	0x3f15d346	0.585255
125	0xbd1bed39	-0.03806803
126	0x3e9bda22	0.3043986
127	0x3f6c9cb0	0.92426586

bn1.running_mean f4 [128]
0	0x41674a18	14.455589
1	0x42416300	48.34668
2	0x400c4dd9	2.1922514
3	0x417655c2	15.395937
4	0x40aead3e	5.4586477
5	0x4131640e	11.086927
6	0x42ac9593	86.29214
7	0x41f17cad	30.185877
8	0x423f1c90	47.777893
9	0x3f4a6646	0.79062307
10	0x42912278	72.56732
11	0x41528d34	13.159473
12	0x4130d912	11.052996
13	0x3fdd7050	1.72999
14	0x3e0afcb3	0.1357296
15	0x42b3118f	89.534294
16	0x4168d1cc	14.55122
17	0x4230ccd2	44.20002
18	0x426fed9d	59.982044
19	0x42803c0b	64.11727
20	0x41a5f64f	20.745268
21	0x425e1e38	55.52951
22	0x423afd8b	46.7476
23	0x4071d2c7	3.7784898
24	0x419eafa0	19.835754
25	0x400bcf36	2.1845222
26	0x421a06e4	38.50673
27	0x423844cc	46.067184
28	0x42c1b56b	96.85433
29	0x4293d549	73.91657
30	0x429680b0	75.25134
31	0x41ce671e	25.80035
32	0x41d3f48d	26.49441
33	0x41ebb90d	29.465357
34	0x4191f0b1	18.242525
35	0x423e6cc5	47.60622
36	0x00000004	6e-45
37	0x4229f19d	42.48595
38	0x423e29b7	47.540737
39	0x416945d4	14.579548
40	0x421ce294	39.221268
41	0x40dd5442	6.9165354
42	0x40e3c7fe	7.118163
43	0x4022ca69	2.5436041
44	0x423f6b9a	47.85508
45	0x3fbd7cb8	1.4803686
46	0x42245497	41.082607
47	0x4216bd84	37.685074
48	0x41fd124b	31.633932
49	0x424ba898	50.914642
50	0x41e59c88	28.701431
51	0x4255d752	53.460274
52	0x4213ae26	36.920067
53	0x429dbd14	78.86929
54	0x415bf945	13.748357
55	0x422659f9	41.587864
56	0x425e351d	55.55187
57	0x4113c7d3	9.236285
58	0x41a266e3	20.300238
59	0x41f80df1	31.006807
60	0x41afb245	21.962046
61	0x41271a11	10.443864
62	0x404172f8	3.0226421
63	0x42608509	56.129917
64	0x40ff2330	7.9730453
65	0x40c3f833	6.1240478
66	0x4105a33e	8.352354
67	0x3ffe8600	1.9884644
68	0x422cd7db	43.210796
69	0x419dd961	19.731142
70	0x407b23f8	3.9240704
71	0x428d9f67	70.81133
72	0x41f7a073	30.953344
73	0x41868239	16.813585
74	0x425ff5d4	55.990067
75	0x41418cb5	12.096852
76	0x41753d4c	15.327465
77	0x426187fc	56.382797
78	0x428d2b33	70.58437
79	0x41f03fb7	30.03111
80	0x426410b4	57.01631
81	0x4208a031	34.156437
82	0x40e20615	7.0632424
83	0x40a36680	5.106262
84	0x4292bb35	73.36564
85	0x425026a6	52.037743
86	0x404e2e2a	3.2215676
87	0x40f27391	7.576607
88	0x40857ec4	4.1717243
89	0x4099be5b	4.8044868
90	0x406d7fba	3.7109208
91	0x420adacf	34.71368
92	0x4216fd9a	37.747658
93	0x41be9153	23.82096
94	0x42cb6111	101.68958
95	0x40bbaf0d	5.8651185
96	0x420d04a3	35.254528
97	0x41eba6dc	29.456474
98	0x429e4c89	79.14948
99	0x42027b26	32.620262
100	0x42ac7406	86.22661
101	0x40ff8aa4	7.985674
102	0x429af00d	77.46885
103	0x422e0d92	43.513252
104	0x42a2c395	81.381996
105	0x4255071d	53.256947
106	0x4088b920	4.2725983
107	0x42189e0c	38.154343
108	0x411da89f	9.853667
109	0x4180613f	16.047483
110	0x41d0d786	26.105236
111	0x42bdf0af	94.970085
112	0x41101af6	9.006582
113	0x4254ad03	53.168957
114	0x421122f5	36.284138
115	0x416c8070	14.781357
116	0x3cdefdf4	0.027220704
117	0x41d2d1f1	26.35251
118	0x412cb3fe	10.793943
119	0x40509717	3.2592218
120	0x41a7c9f0	20.973602
121	0x410cee42	8.808168
122	0x425da86d	55.41448
123	0x4256e0a9	53.719395
124	0x42323cb9	44.5593
125	0x42536daf	52.857113
126	0x420faa53	35.916332
127	0x42a0e58e	80.44835

bn1.running_var f4 [128]
0	0x43f6d4c1	493.66214
1	0x454b7b6c	3255.7139
2	0x42aa41c3	85.12844
3	0x44657201	917.7813
4	0x43c373b7	390.90402
5	0x444fdeb0	831.4795
6	0x45503f32	3331.9497
7	0x443fec2a	767.69006
8	0x453bcb0f	3004.6912
9	0x41b0f3a6	22.118969
10	0x459b3bd1	4967.477
11	0x446cd944	947.3948
12	0x442819da	672.40393
13	0x4294808b	74.25106
14	0x4042a0f3	3.0410736
15	0x44c20637	1552.1942
16	0x43de69c8	444.82642
17	0x4556bf2a	3435.9478
18	0x45947014	4750.01
19	0x45abbf01	5495.8755
20	0x444c0a99	816.1656
21	0x458628f1	4293.1177
22	0x4554bbce	3403.7378
23	0x42cb4bc8	101.64801
24	0x44dc38ce	1761.7751
25	0x42c65c5b	99.18038
26	0x4494b07b	1189.515
27	0x453ce5ca	3022.3618
28	0x44cddbf3	1646.8734
29	0x4544e2ef	3150.1833
30	0x45cc0d14	6529.635
31	0x44a95689	1354.7042
32	0x446726af	924.60443
33	0x44965f7f	1202.9843
34	0x43e4a53c	457.2909
35	0x45340738	2880.4512
36	0x00000004	6e-45
37	0x4502758a	2087.3462
38	0x45300ae0	2816.6797
39	0x440549db	533.154
40	0x44e83159	1857.5421
41	0x43906e9b	288.8641
42	0x43ccd73c	409.68152
43	0x42e20b75	113.02238
44	0x4544b8c4	3147.5479
45	0x42821ba7	65.05401
46	0x44f3793f	1947.789
47	0x4568e7a4	3726.4775
48	0x44b89c20	1476.8789
49	0x454df2c5	3295.173
50	0x44ae6a7a	1395.3274
51	0x453e287e	3042.5308
52	0x450298fa	2089.561
53	0x44b96bb1	1483.3654
54	0x43ee3342	476.40045
55	0x4436299a	728.65
56	0x4589dbda	4411.4814
57	0x43d77f92	430.99664
58	0x44cc7ab7	1635.8348
59	0x4453b41e	846.81433
60	0x44f5e3b7	1967.1161
61	0x442e5a42	697.4103
62	0x430efd68	142.98987
63	0x45849c56	4243.542
64	0x4381896f	259.0737
65	0x43d12580	418.29297
66	0x44221210	648.2822
67	0x4267c506	57.942406
68	0x44fce398	2023.1123
69	0x4436dca8	731.44775
70	0x42e83971	116.11219
71	0x45d54a0c	6825.256
72	0x44fa29ea	2001.3098
73	0x440f6b2b	573.6745
74	0x458aa70d	4436.8813
75	0x446ae091	939.50885
76	0x443853ff	737.31244
77	0x455358ff	3381.5623
78	0x449786eb	1212.2162
79	0x44b4fb33	1447.85
80	0x45846359	4236.4185
81	0x44f3e63c	1951.1948
82	0x438f3776	286.4333
83	0x43517a65	209.4781
84	0x454fe0e7	3326.0564
85	0x4558cb9d	3468.7258
86	0x42c903de	100.50755
87	0x440794bc	542.324
88	0x432991ea	169.56998
89	0x4370278c	240.15448
90	0x4324b66d	164.7126
91	0x4500aa74	2058.6533
92	0x4509edb0	2206.8555
93	0x4444a9c6	786.6527
94	0x44ec02b5	1888.0846
95	0x43d15752	418.6822
96	0x44f6aeba	1973.4602
97	0x45206d74	2566.8408
98	0x44a53fe6	1321.9968
99	0x4439df67	743.49066
100	0x455f1a12	3569.6294
101	0x43a543bb	330.52914
102	0x45c62149	6340.1606
103	0x44add953	1390.7914
104	0x45cf9c1e	6643.5146
105	0x456fa8c0	3834.5469
106	0x437169fd	241.41402
107	0x44b399bd	1436.8043
108	0x44181ed9	608.482
109	0x43ee81d0	477.01416
110	0x4482782d	1043.7555
111	0x45772d01	3954.8127
112	0x439136e0	290.4287
113	0x456f46fb	3828.4363
114	0x44b6abd2	1461.3694
115	0x43f7dd61	495.72952
116	0x3ee24872	0.44195896
117	0x452b5cb6	2741.7944
118	0x43a9f434	339.90784
119	0x42d51a8b	106.55184
120	0x44da9588	1748.6729
121	0x4424f9d9	659.9039
122	0x455d534b	3541.2058
123	0x457e4ef7	4068.9353
124	0x451efde5	2543.8684
125	0x455d3412	3539.2544
126	0x44f20f2f	1936.4745
127	0x45cb7272	6510.3057

fc2.weight f4 [128, 128]
0	0xbcf09eed	-0.029372657
1	0xbf9e9b2d	-1.2391106
2	0x3f2a291a	0.66468966
3	0xbf459b75	-0.77190334
4	0x3ebea9f3	0.37239036
5	0xbc831c9c	-0.016004853
6	0x3f8c3a25	1.0955244
7	0xbf8ad0e3	-1.0844997
8	0x3ea1c174	0.31592906
9	0xbe12e8ba	-0.1434659
10	0xbebceaa5	-0.3689777
11	0x3f7f852f	0.998126
12	0xbf982c63	-1.1888546
13	0xbf5141d5	-0.81741077
14	0x3e95c482	0.29251486
15	0x3fcb2568	1.587079
16	0x3f47c73e	0.78038394
17	0x3e05fdb8	0.13085067
18	0x3fdde009	1.7333995
19	0x3ec0047d	0.37503424
20	0x3f5ec637	0.870212
21	0xbec1dbd8	-0.3786304
22	0x3d5b9bbf	0.053615328
23	0x3e53873e	0.2065706
24	0x3edd0d29	0.43174103
25	0x3f13bfbf	0.57714456
26	0x3f81c80d	1.0139176
27	0xbd6d9dbb	-0.05801175
28	0x3fdc20f2	1.7197554
29	0x3f9668dc	1.175075
30	0x3f0738bc	0.52820945
31	0x3dc64a18	0.09682101
32	0xbe924272	-0.2856632
33	0xbf501c0b	-0.8129279
34	0xbf4ce92f	-0.8004331
35	0x3f96296b	1.173139
36	0xbe113b34	-0.1418274
37	0x3f92ce40	1.1469193
38	0x3e2f25e8	0.17104304
39	0x3efd0b37	0.4942262
40	0xbf44b851	-0.76843745
41	0xbe29477b	-0.16531174
42	0xbe1a1989	-0.15048803
43	0xbeb2f7cc	-0.3495468
44	0x3ebe72d8	0.37196994
45	0xbee0ffa2	-0.43945032
46	0x3e01514f	0.12628673
47	0xbd68f0c0	-0.056870222
48	0xbe905e81	-0.281971
49	0x3fb1c620	1.3888588
50	0x3f10affa	0.5651852
51	0x3db8e4aa	0.09027989
52	0x3eb318c0	0.3497982
53	0x3fbffa5a	1.4998276
54	0x3e11b78f	0.14230178
55	0x3ee24a36	0.44197243
56	0x3d943df1	0.07238377
57	0xbfb7e914	-1.4368005
58	0xbe974c19	-0.29550245
59	0xbfa6926b	-1.3013433
60	0xbfa4a8c9	-1.2864009
61	0x3f808032	1.0039122
62	0x3f5b8d76	0.8576273
63	0x3f81abcd	1.0130554
64	0x3dfa9273	0.12234964
65	0xbe982179	-0.29713038
66	0xbf1c3d9f	-0.61031526
67	0x3cfbec6b	0.030752381
68	0xbf5eeeb4	-0.8708298
69	0xbea59b64	-0.32345116
70	0x3d6a8710	0.057257712
71	0xbf151951	-0.58241755
72	0xbfb0ebf2	-1.3822005
73	0xbeda6ab4	-0.42659533
74	0xbe7cc4ce	-0.2468445
75	0x3f0b77e1	0.54479796
76	0xbac3b9b6	-0.0014932666
77	0x3f634ce0	0.88789177
78	0x3f36eca9	0.71454865
79	0x3e3aab49	0.18229403
80	0x3fef9774	1.8718095
81	0xbca7ba03	-0.02047444
82	0x3ef94641	0.48686412
83	0xbf731573	-0.94954604
84	0x3efa020f	0.48829696
85	0xbf3007aa	-0.68761694
86	0xbd9520ea	-0.072816685
87	0xbe43cf00	-0.19121933
88	0xbed17110	-0.40906572
89	0x3f40c542	0.7530099
90	0xbe44d468	-0.19221652
91	0xbf8a5fb3	-1.0810455
92	0xbef0bfa4	-0.4702121
93	0xbf5079c9	-0.8143583
94	0x3f92f2e4	1.1480374
95	0xc0119190	-2.2745094
96	0x3ec7e0f5	0.39038816
97	0xbea4ff7e	-0.32226175
98	0x3fd10173	1.6328567
99	0xbf29cd6b	-0.6632907
100	0x3e710e9c	0.2354073
101	0xbf041c42	-0.5160562
102	0xbec63756	-0.38714093
103	0x3ef5a934	0.47980654
104	0x3e8f0517	0.2793357
105	0x40014cf2	2.0203214
106	0xbd4bc372	-0.049746938
107	0x3eeb96db	0.4601353
108	0xbf24b9cf	-0.6434602
109	0xbee2e32b	-0.4431394
110	0x3c874a63	0.016514963
111	0x3f31e56c	0.69490695
112	0x3ec7aabc	0.38997447
113	0x3fa348cb	1.275659
114	0x3fa84457	1.3145856
115	0xbf267678	-0.6502452
116	0xbe79c873	-0.24392872
117	0xbf0f7c27	-0.56048816
118	0x3ecc50c0	0.39905357
119	0x3e7bf03f	0.24603365
120	0xbf59ae3b	-0.8503148
121	0x3e7d08c0	0.24710369
122	0x3f8ce423	1.1007122
123	0x3f770791	0.9649592
124	0xbf03f2a7	-0.51542133
125	0xbe937ddc	-0.2880696
126	0xbe002606	-0.12514505
127	0x3eeb140c	0.45913732
128	0x3f1b32cc	0.60624385
129	0x3cd0768e	0.025447156
130	0xbdc8727f	-0.097874634
131	0xbf0579ec	-0.52139163
132	0x3e43ef90	0.19134355
133	0xbed0dd17	-0.40793678
134	0xbdadd665	-0.08488158
135	0xbf568edb	-0.8381173
136	0xbf78cb36	-0.97185075
137	0x3fc579e1	1.542782
138	0xbf2a03a6	-0.6641182
139	0x3f07e547	0.53084224
140	0x3fc6ded4	1.5536752
141	0x3a866fcc	0.0010256707
142	0x3e530d2a	0.2061049
143	0xbdadc141	-0.08484126
144	0x3f5fe30c	0.8745582
145	0xbe41c617	-0.18923222
146	0xbf6ca9c5	-0.9244655
147	0xbf0bae19	-0.54562527
148	0xbeedddb6	-0.46458215
149	0x3e467088	0.19378865
150	0xbea808b5	-0.32819143
151	0x3ec74c95	0.38925615
152	0xbe944fe4	-0.28967202
153	0xbf6b5a72	-0.91934884
154	0xbed41001	-0.4141846
155	0x3f3e94cd	0.744458
156	0xbd43d512	-0.04781062
157	0x3ca55d5f	0.020186124
158	0xbea83b25	-0.32857624
159	0x3e7df79e	0.2480149
160	0xbef90134	-0.4863373
161	0xbf6e9469	-0.93195206
162	0xbe0d8a93	-0.13822393
163	0x3f8ae795	1.0851923
164	0x3ec90755	0.39263406
165	0x3d3410f8	0.043961495
166	0x3e6e028e	0.23243162
167	0xbeb6563e	-0.35612673
168	0xbed967c2	-0.42461973
169	0x3fd3ec11	1.6556417
170	0x3feb8567	1.8400086
171	0x3ee73a8b	0.45161852
172	0xbee6621d	-0.4499673
173	0x3f683626	0.90707624
174	0x3f21fe84	0.63278985
175	0xbf370ebb	-0.7150685
176	0x3d43f782	0.047843464
177	0xbee9a3a8	-0.45632672
178	0x3f5fc634	0.8741181
179	0x3f490724	0.7852652
180	0x3d67bade	0.056574695
181	0x3f0e528d	0.5559471
182	0xbdd336dd	-0.10313199
183	0x3e88af90	0.26696444
184	0xbdf14a3b	-0.117817365
185	0xbeb3e3e2	-0.35134798
186	0x3e893bbe	0.26803392
187	0xbf19bd9b	-0.6005494
188	0xbe0faca0	-0.14030695
189	0x3df081e0	0.11743522
190	0x3f59f480	0.851387
191	0xbd2eb16e	-0.04264968
192	0xbf4dd040	-0.8039589
193	0xbe191ed7	-0.1495317
194	0x3d864a23	0.06557109
195	0xbc9f80c1	-0.019470574
196	0x3ea3e14c	0.32007825
197	0x3f02b151	0.51051813
198	0x3f0a009c	0.5390718
199	0x3f8749bb	1.0569376
200	0xbebcafcd	-0.36852875
201	0x3ee69e5a	0.45042688
202	0x3e1749ab	0.14774196
203	0xbe9eaa0c	-0.3098911
204	0x3e3d5c93	0.18492346
205	0xbef8a18d	-0.48560753
206	0xbfd23bf4	-1.6424546
207	0xbf22565b	-0.6341302
208	0xbd88f63b	-0.0668759
209	0xbfabdd30	-1.3426876
210	0x3ea724be	0.3264522
211	0xbf4af0ad	-0.7927349
212	0xbf1fcd0b	-0.62422246
213	0xbf2a704c	-0.665776
214	0x3fb02c86	1.3763587
215	0x3f5366a9	0.8257852
216	0xbf403bc8	-0.7509122
217	0xbdce0676	-0.10059826
218	0xbeef5474	-0.4674412
219	0xbf23fda9	-0.6405893
220	0x3f167f2e	0.5878781
221	0xbe8cc049	-0.27490452
222	0xbd9189f7	-0.07106393
223	0xbd362888	-0.044472247
224	0xbf9a3b9e	-1.2049444
225	0x3daa75e2	0.083232656
226	0xbe8b066f	-0.27153346
227	0xbdb21155	-0.08694712
228	0xbee3ce1e	-0.44493192
229	0x3ef7e969	0.48420265
230	0xbe76ad83	-0.24089627
231	0x3f3176d2	0.6932193
232	0xbc6ece2a	-0.0145755205
233	0x3faacc6d	1.3343636
234	0x3ed79a41	0.42109874
235	0x3d40e3ae	0.047092132
236	0x3eeb4106	0.45948046
237	0xbebdcd38	-0.37070632
238	0x3e96e3cd	0.29470673
239	0x3bb317ca	0.0054654824
240	0xbf2c75a0	-0.6736698
241	0x3ee69932	0.45038754
242	0x3eff7d03	0.49900064
243	0x3f4b59b7	0.7943377
244	0x3f3df112	0.7419597
245	0x3e49edf0	0.19719672
246	0xbf7d8d7d	-0.9904402
247	0xbf4dbf59	-0.803701
248	0x3f459cfd	0.7719267
249	0xbc6e7a8c	-0.014555585
250	0xbf2e01db	-0.6797158
251	0xbe7ec594	-0.24880058
252	0xbf020878	-0.5079417
253	0xbe432ce5	-0.19060095
254	0xbe867464	-0.26260674
255	0xbf6c6fef	-0.923583

fc2.bias f4 [128]
0	0xbe80a154	-0.25123084
1	0xbf3d1456	-0.73859155
2	0x3ccd175b	0.02503555
3	0xbfaf8c89	-1.3714763
4	0xbec15efe	-0.37767786
5	0x3f28808c	0.65821147
6	0xbf3b48d0	-0.7315798
7	0xbed3f655	-0.41398874
8	0xbf95d817	-1.170657
9	0xbf5a4bc2	-0.8527185
10	0xbf50515d	-0.8137415
11	0xbeb34d21	-0.35019782
12	0xbf1abd7f	-0.604454
13	0x3f0d381b	0.55163735
14	0xbf0bed5a	-0.54659045
15	0x3e84f15a	0.25965387
16	0x3ecf550d	0.40494576
17	0x3f84fb61	1.0389215
18	0xbe9f85b5	-0.31156698
19	0xbedb13df	-0.42788598
20	0xbf383595	-0.7195676
21	0x3dc33cfb	0.095331155
22	0xbfb0f190	-1.3823719
23	0x3e394ece	0.18096468
24	0xbf388147	-0.7207226
25	0xbf3989fe	-0.72476184
26	0xbfe30e94	-1.7738824
27	0xbf63e87c	-0.8902662
28	0xc006bcf9	-2.105284
29	0xbfca1961	-1.5788995
30	0xbe8ac594	-0.27103865
31	0xbe4ca2ec	-0.19984025
32	0xbf6fb0d6	-0.93629205
33	0xbf3192b3	-0.6936447
34	0xbf2e14a9	-0.68000275
35	0xbea710b4	-0.3262993
36	0xbf921326	-1.1412094
37	0xbfdd5625	-1.7291914
38	0xbec96377	-0.39333698
39	0xbeb7236f	-0.3576922
40	0xbf485704	-0.78257775
41	0x3f4aeac0	0.7926445
42	0xbf89a03e	-1.0752027
43	0xbf67ee55	-0.9059804
44	0xbf2ead80	-0.6823349
45	0xbe92d5c0	-0.28678703
46	0xbf83a306	-1.0284126
47	0xbf7ab078	-0.9792552
48	0xbf28ee19	-0.6598831
49	0xbf6e8577	-0.931724
50	0xc000324c	-2.0030699
51	0xbf82d124	-1.0220075
52	0xbf632a94	-0.88736844
53	0xbfeeb8c0	-1.8650131
54	0xbfd95986	-1.6980445
55	0x3dfeef24	0.12447956
56	0xbef90455	-0.48636118
57	0xbfaedf52	-1.3661902
58	0xbd65c7d0	-0.05609876
59	0x3eafec19	0.34359816
60	0xbf0cfb7e	-0.55071247
61	0xbe5d2c66	-0.21598968
62	0xbe528586	-0.20558748
63	0xbdf05d7a	-0.11736579
64	0xbf64b70f	-0.89341825
65	0xbe26b25c	-0.16278976
66	0xbfa64877	-1.2990865
67	0x3de8c2c7	0.11365276
68	0xbf4d35bf	-0.80160135
69	0xbee8dcfb	-0.45481095
70	0xbf3a3c0f	-0.7274789
71	0xbebd447d	-0.36966315
72	0xc003606b	-2.05276
73	0x3f196742	0.59923184
74	0x3ef008a0	0.4688158
75	0xbf7d5158	-0.98952246
76	0xbf910e9a	-1.1332581
77	0xbf66d2ab	-0.90165204
78	0xbebd4a60	-0.36970806
79	0xbf1c1e7f	-0.60984033
80	0xbf56ec54	-0.8395436
81	0xbf202d55	-0.6256917
82	0xbf10f06d	-0.5661686
83	0x3f482290	0.7817774
84	0x3f61f2af	0.8826093
85	0xbef2f537	-0.4745271
86	0xbff0c849	-1.8811122
87	0xbef0d2f6	-0.4703595
88	0xbf4e0cc5	-0.80488235
89	0xbe079fc8	-0.13244545
90	0xbf891107	-1.0708321
91	0x3f51b5db	0.81918114
92	0xbf1dc8c5	-0.61634475
93	0xbf7b300f	-0.98120207
94	0xc00e7c85	-2.22635
95	0xbd1512de	-0.036394946
96	0x3f385608	0.72006273
97	0xbf043a5f	-0.5165157
98	0xbf5904d3	-0.84772986
99	0xbfcf659d	-1.6202885
100	0xbfc51874	-1.5398088
101	0xbf9b3e0e	-1.2128313
102	0xbeed7e39	-0.46385363
103	0xbf669bad	-0.9008129
104	0xbedec582	-0.43510062
105	0xbc2115a7	-0.0098318225
106	0xbfafd9c0	-1.3738327
107	0xbf63417f	-0.88771814
108	0xbf2f8cc8	-0.6857419
109	0x3eaa7d4b	0.33298716
110	0xbedac4f2	-0.42728382
111	0x3dffacb3	0.12484112
112	0xbf5c0c7d	-0.85956556
113	0xbf53103d	-0.8244665
114	0xbeaf81aa	-0.34278613
115	0x3cd491c3	0.02594841
116	0xbe840818	-0.25787425
117	0xbf472b75	-0.77800685
118	0xbf30fdd5	-0.69137317
119	0x3e148024	0.14502007
120	0xbf92e38d	-1.1475693
121	0xbf91e41b	-1.1397737
122	0xbf234e7f	-0.6379165
123	0x3f45d5c9	0.77279335
124	0xbf388f83	-0.7209398
125	0x3e3ed0b4	0.18634301
126	0xbfe8c819	-1.8186065
127	0xbeecd0a1	-0.4625292

fc3.weight f4 [2, 128]
0	0x3fe343f5	1.7755114
1	0x3eac1165	0.3360702
2	0x4035b938	2.8394299
3	0x3e07a710	0.13247323
4	0x40270af4	2.6100435
5	0xbfc532f4	-1.5406175
6	0x3f9d28f1	1.2278119
7	0xbf734078	-0.95020247
8	0x3f834308	1.0254831
9	0xbec6f3b5	-0.3885781
10	0x40227027	2.5380952
11	0x3dacd823	0.08439662
12	0x3e8daeac	0.27672327
13	0x3e9bfab8	0.3046472
14	0xbd4b39fc	-0.049615845
15	0x40235fa5	2.5527127
16	0xbfec9c18	-1.8485136
17	0xbff4d229	-1.9126636
18	0x3fa5b31b	1.2945284
19	0x40128af8	2.289732
20	0x3d78e782	0.060767658
21	0xbf7ee153	-0.9956257
22	0xbfb43c0f	-1.4080828
23	0xbff7412c	-1.9316764
24	0xbf507d13	-0.8144085
25	0x3fcb7664	1.5895505
26	0xbf964a7e	-1.1741483
27	0xbc3f4504	-0.011674169
28	0xbf7df1ef	-0.99197286
29	0x3d73118f	0.059342917
30	0x3fb33f44	1.4003682
31	0xbe3adf25	-0.18249185
32	0x3fb4b7d5	1.4118601
33	0xbf0b9d7e	-0.5453719
34	0x3e335bb1	0.17515446
35	0xbf31e13d	-0.6948431
36	0x3ceeed11	0.029165776
37	0xbe9c5ac1	-0.3053799
38	0x3d963b59	0.073355384
39	0xbebd9b6f	-0.3703265
40	0x3cc74ad8	0.02432768
41	0xc00c1ecc	-2.1893797
42	0x3ebd1227	0.36927912
43	0x3f62a32c	0.8853023
44	0xbc8f64d3	-0.017504131
45	0x3ff5151e	1.914707
46	0x3fc48e8c	1.5356002
47	0x3e68f9ce	0.22751543
48	0x3fbb1b42	1.4617693
49	0xbf8c47db	-1.0959429
50	0x3f920b63	1.1409725
51	0x3e01020b	0.12598436
52	0x402e0083	2.7187812
53	0xbe813635	-0.2523667
54	0x3f832a05	1.0247198
55	0xbf2675a4	-0.65023255
56	0xbf7de090	-0.9917078
57	0x3f91f581	1.1403047
58	0x4034f203	2.8272712
59	0xbf71ce00	-0.94454956
60	0xbf3f6aca	-0.7477232
61	0xbffa16c7	-1.9538201
62	0xbf60b6d0	-0.8777895
63	0x3fae7c2c	1.3631644
64	0x3c72854d	0.014802289
65	0xbec0e16d	-0.37671986
66	0x3fcb8f97	1.5903195
67	0x3efa9dc0	0.4894848
68	0xbe5251fb	-0.20539086
69	0xbf227b32	-0.6346923
70	0xbe72d558	-0.23714197
71	0xbd01efc2	-0.03172279
72	0x3fb734f5	1.4313036
73	0xbf410318	-0.75395346
74	0xbd77ae1e	-0.060468785
75	0x3f31058c	0.6914909
76	0x3e2a07f5	0.16604598
77	0x3ef9a3ea	0.4875787
78	0x3dbd30a7	0.09237795
79	0x3ffdd605	1.9830939
80	0xbc5c1b47	-0.013434238
81	0xbe5bfd1b	-0.21483271
82	0xbc9a2076	-0.018814307
83	0xbfcd9b88	-1.6063089
84	0xbfae2eed	-1.3608071
85	0xbf2ab441	-0.66681296
86	0x3f60d721	0.8782826
87	0x3d00e5e0	0.031469226
88	0x3f9b27dc	1.2121539
89	0x3f8d34f1	1.1031781
90	0x3cb3f1c6	0.021965872
91	0xc00debf7	-2.2175272
92	0x3f538b49	0.8263441
93	0x3d119c35	0.03554936
94	0x3fcce991	1.6008779
95	0x3f1ca4b3	0.6118881
96	0xbf5f1a49	-0.8714948
97	0x3fde14e2	1.7350123
98	0x3fbab7a0	1.4587288
99	0x401b131a	2.4230409
100	0x3ec90d50	0.3926797
101	0x3ea0796a	0.31342632
102	0xbcc099c6	-0.023510825
103	0x3dc844dc	0.09778759
104	0x3fc02f76	1.5014484
105	0x3dca9ddd	0.09893391
106	0x3e064d1d	0.13115354
107	0x3f6f038e	0.933648
108	0x3eed66b8	0.4636743
109	0xbf251ec3	-0.64500064
110	0xbe17904a	-0.14801136
111	0x3fbd29ec	1.4778419
112	0x3f7494b8	0.95539427
113	0x402e22fa	2.7208848
114	0x3d8f4123	0.06994846
115	0x403fecad	2.9988205
116	0xbd8c2a9c	-0.068440646
117	0x3e3c9a77	0.18418299
118	0xc0097f58	-2.1483974
119	0xbf94614b	-1.1592191
120	0xbfcd0848	-1.6018152
121	0x3facad92	1.349047
122	0xbee50fc3	-0.44738588
123	0xc01bbeab	-2.4335124
124	0x4025fe0f	2.5936315
125	0xbfba02d7	-1.4532117
126	0x4008415f	2.12899
127	0xbd289594	-0.041158274
128	0x3e4429d5	0.19156583
129	0x3f966dfe	1.1752317
130	0x3f1de597	0.6167845
131	0xbf97f4ae	-1.1871545
132	0x3f849f58	1.0361128
133	0xbd84f031	-0.064911254
134	0x3ea5bd38	0.32370925
135	0xbe804825	-0.25055042
136	0xc00efbe0	-2.2341232
137	0xbe010a0a	-0.12601486
138	0x3f4ac1fa	0.79202235
139	0x3e2a2976	0.16617379
140	0xbecb386f	-0.39691493
141	0x402044ab	2.5041912
142	0xbdb06194	-0.086123616
143	0x3fc4db3d	1.5379406
144	0x3efb585a	0.49090844
145	0x3f262da6	0.64913404
146	0x3e0f9858	0.14022958
147	0x3f628b7a	0.88494074
148	0x3ea51014	0.3223883
149	0x3ebf250d	0.37332955
150	0x3df53356	0.11972682
151	0xbe986e75	-0.29771772
152	0xbff82756	-1.9387004
153	0x3ee228f2	0.44171864
154	0xbfd5258c	-1.6652083
155	0xbf197f6b	-0.5996005
156	0xbfbe4196	-1.4863765
157	0x3fe4937f	1.7857512
158	0x3f6ca5c3	0.9244043
159	0x3eab2b5b	0.33431515
160	0x3e556664	0.2083984
161	0x3ebdb860	0.3705473
162	0x3d136cdd	0.035992492
163	0x3f0f5530	0.5598936
164	0xbf4a4272	-0.7900764
165	0x3fa1f8d6	1.2654064
166	0xbc034158	-0.008011185
167	0x3fd6916d	1.676313
168	0xbd283d81	-0.04107428
169	0x3fb3531f	1.4009742
170	0xbd4eb84f	-0.05046874
171	0x3e4b77a9	0.19869865
172	0xbf497542	-0.78694546
173	0x3daa92c6	0.08328776
174	0x3f1866c9	0.5953184
175	0x3e673f06	0.22582635
176	0x3e096e8e	0.1342108
177	0xbf40032e	-0.7500485
178	0xc03aaac1	-2.916672
179	0xbfb3f07c	-1.4057765
180	0x3e814c93	0.25253734
181	0x3f862ca9	1.0482379
182	0x3da2b5ea	0.079448536
183	0x3dfc14a2	0.12308623
184	0xbda4c2a0	-0.08044934
185	0xc04221c4	-3.033311
186	0x3f83a092	1.0283377
187	0x3ef24e1d	0.4732522
188	0x3e88efb5	0.26745382
189	0x3eb58e4c	0.35460126
190	0x3f65e887	0.89807934
191	0x3fe7d347	1.8111352
192	0x3dece672	0.115673915
193	0x407970c1	3.897507
194	0xbf3bdfb3	-0.7338821
195	0x3f2eb1eb	0.6824023
196	0x403239b1	2.7847712
197	0xbde69a4c	-0.112598985
198	0xc00390e6	-2.055719
199	0x3c9cfb7e	0.01916289
200	0xc00d0bf1	-2.2038538
201	0xbf54d867	-0.83142704
202	0x4009796c	2.148036
203	0xbdb8b336	-0.09018557
204	0xbfc83ac7	-1.5642937
205	0xbeb49766	-0.35271758
206	0x3ee50cab	0.44736227
207	0x3eb96f4d	0.36217728
208	0x3c7c0f9b	0.01538458
209	0x3ead49c1	0.33845332
210	0x3d752ca5	0.05985703
211	0x3fe2059e	1.7657964
212	0xbf03e794	-0.51525235
213	0xbf6beb57	-0.92155975
214	0xc0527f3a	-3.2890153
215	0x3d8f98d2	0.0701157
216	0x3f64f4d4	0.8943608
217	0x3f886465	1.0655638
218	0xbd33d2c3	-0.04390217
219	0x3f0dd1f7	0.55398506
220	0xbf538541	-0.82625204
221	0xbf912cf5	-1.1341845
222	0xbfc0139d	-1.5005985
223	0x400fac03	2.2448738
224	0x402db85b	2.7143772
225	0x3f1889a3	0.59585017
226	0xbe7594eb	-0.23982589
227	0xbfbfaca3	-1.497456
228	0xbf9bb99a	-1.2166016
229	0xbed6723d	-0.41884032
230	0xbe26c16e	-0.16284725
231	0xbd86cea4	-0.06582382
232	0x3f2a497e	0.6651839
233	0x3faea321	1.3643533
234	0x3edf2173	0.43580207
235	0xbff248dc	-1.8928485
236	0x3f5297a0	0.8226261
237	0x3f7222c4	0.945843
238	0x403f3d19	2.988104
239	0x3d7968c0	0.060890913
240	0xbf00b8ef	-0.50282186
241	0xbf755e2f	-0.9584684
242	0xbd224486	-0.03961613
243	0x3fb62256	1.4229228
244	0x3de71970	0.11284149
245	0xbdb4445f	-0.08802103
246	0x401806e0	2.3754196
247	0x401218ff	2.2827756
248	0x3d01bf74	0.031676725
249	0xbfe135ff	-1.7594603
250	0xbfdc2ea1	-1.720173
251	0x3fea2c4c	1.8294768
252	0xbea948b7	-0.3306329
253	0xbe873ed4	-0.26415122
254	0xbe56105a	-0.20904675
255	0x3d29106c	0.041275427

fc3.bias f4 [2]
0	0xbbc99dd1	-0.0061528464
1	0x3dafe90a	0.085893705
