training_output/best_agent/weights_critic.pth (torch_old, 84182 bytes, 9 tensors)

fcs1.weight f4 [128, 24]
0	0x3f082a91	0.5318995
1	0x3ece2aa2	0.402669
2	0xbb871626	-0.0041225133
3	0xbd80e0b8	-0.06292862
4	0x3e090904	0.13382345
5	0xbefc3014	-0.4925543
6	0xbdc8f96c	-0.098131984
7	0xbd3f492e	-0.04670065
8	0x3e72710d	0.23675938
9	0x3ef43cdd	0.47702685
10	0xbc465ebc	-0.012107547
11	0x3de44850	0.11146605
12	0x3dcf595b	0.10124465
13	0xbf0ed1a1	-0.5578862
14	0x3d2c89e9	0.04212371
15	0x3e1fa86c	0.15591592
16	0x3e9b32ea	0.30312282
17	0x3edf3bc7	0.43600294
18	0xbd89ce23	-0.067287706
19	0xbeadaf77	-0.33922932
20	0x3e998d3b	0.29990563
21	0xbf7cc717	-0.98741287
22	0xbe048058	-0.12939584
23	0xbe9608bf	-0.29303548
24	0x3f4f55b5	0.80990154
25	0x3edaa255	0.42701975
26	0xbd465230	-0.048418224
27	0xbedd1a4a	-0.4318412
28	0x3de831ce	0.113376245
29	0x3f0130e6	0.5046524
30	0xbd25f85a	-0.04052005
31	0xbeb9a3a1	-0.3625765
32	0x3e9716e3	0.2950965
33	0xbea25b61	-0.31710342
34	0x3c0020eb	0.007820348
35	0x3c36bf2c	0.011153977
36	0xbe397db3	-0.18114357
37	0x3ff381e1	1.9024011
38	0x3d3761a2	0.044770844
39	0x3e07af70	0.13250518
40	0x3e3af8b1	0.1825893
41	0xbf8365d7	-1.0265454
42	0x3ce09d7f	0.02741885
43	0x3e51cd91	0.20488574
44	0x3dc02afd	0.09383199
45	0x3ff4d905	1.9128729
46	0xbce6fcfa	-0.0281968
47	0x3dd19e82	0.10235311
48	0xbf13a875	-0.5767892
49	0x3fb0ae6f	1.3803233
50	0xbdb80726	-0.089857385
51	0x3f2a793d	0.66591245
52	0x3c7a9f72	0.015296804
53	0xbf231548	-0.6370435
54	0xbdd6610a	-0.104677275
55	0x3f368f2c	0.7131221
56	0xbc227fda	-0.0099181775
57	0x3fbee67c	1.4914088
58	0xbcf876f7	-0.030330164
59	0xbf1b8ca8	-0.607615
60	0x3e920bb6	0.2852456
61	0xbf66a0ea	-0.90089285
62	0xbcd3a0f6	-0.025833588
63	0xbf28328b	-0.6570212
64	0x3e3d675c	0.1849646
65	0x3f9469ef	1.1594828
66	0x3d9dfb82	0.07713987
67	0xbf16631e	-0.5874499
68	0x3f3820c9	0.71925026
69	0xbfcfba04	-1.6228642
70	0xbcc52487	-0.02406527
71	0xbf1b056b	-0.6055514
72	0xbec0aad0	-0.3763032
73	0xbef39588	-0.4757502
74	0xbdb9805f	-0.09057688
75	0xbdcf9f8e	-0.101378545
76	0x3f078704	0.5294039
77	0xbe48af71	-0.19598176
78	0x3bae1d30	0.005313538
79	0xbd004c09	-0.031322513
80	0xbed23ed3	-0.41063556
81	0xbe8fc2ef	-0.2807841
82	0x3c72b2a2	0.014813097
83	0xbd4790c1	-0.048722032
84	0x3f20e8df	0.62855333
85	0xbf6b2d52	-0.9186603
86	0xbde04016	-0.109497234
87	0xbd2aed49	-0.0417302
88	0xbeb21348	-0.34780335
89	0xbe6a5e1e	-0.22887465
90	0x3cd7353b	0.0262705
91	0xbdab923c	-0.08377501
92	0x3f71b23d	0.94412595
93	0xc006230d	-2.0958893
94	0x3d9e46a1	0.07728315
95	0xbe5dd010	-0.21661401
96	0x3e088ffd	0.13336177
97	0x3e51422c	0.20435399
98	0x3d7556be	0.059897177
99	0x3d767fe4	0.06018056
100	0x3f398679	0.72470814
101	0xbfc3f499	-1.530902
102	0xbd66c907	-0.05634406
103	0xbcec5123	-0.028847283
104	0xbdbf8a62	-0.09352566
105	0xbd0c2161	-0.03421152
106	0xbc469509	-0.012120494
107	0xbd644947	-0.055733945
108	0x3e85bd86	0.26121157
109	0xbf0d7c7f	-0.5526809
110	0x3d0d3d73	0.03448243
111	0x3d78732a	0.060656704
112	0xbe093e29	-0.13402618
113	0x3e711d55	0.23546346
114	0xbd3d07f5	-0.046150167
115	0x3bbabd14	0.0056988094
116	0xbf1e095f	-0.6173305
117	0x401c4973	2.441983
118	0x3d7c87b7	0.061652865
119	0xbac2a095	-0.0014848883
120	0xbd072539	-0.032994483
121	0xbf920e2c	-1.1410575
122	0xbe8eb102	-0.2786942
123	0xbf1081c3	-0.56448
124	0xbdf2863b	-0.11842009
125	0xbdcedd76	-0.10100834
126	0xbe8cf9c0	-0.27534294
127	0xbf0c7f8b	-0.54882115
128	0xbea45e27	-0.32103083
129	0xbfcec4e4	-1.6153836
130	0xbe65594b	-0.22397344
131	0xbf5fac04	-0.8737185
132	0x3e912688	0.2834971
133	0xbdeb570f	-0.114912145
134	0xbd9f5e86	-0.07781701
135	0xbf5edd03	-0.8705599
136	0xbf254f88	-0.6457448
137	0xbfb76259	-1.4326888
138	0xbea5ace3	-0.32358465
139	0xbefe9276	-0.49721116
140	0x3dbed9fa	0.093189195
141	0xbfaad4e8	-1.3346224
142	0xbe475ed6	-0.19469771
143	0xbee9ab58	-0.45638537
144	0xbea4493b	-0.3208712
145	0xbfb4eee9	-1.413541
146	0x3d09443d	0.033512343
147	0x3f98664f	1.1906222
148	0xbd9d1f19	-0.07671947
149	0xbf6768d4	-0.9039433
150	0xbd298928	-0.041390568
151	0x3f9af725	1.2106673
152	0xbd403fa6	-0.0469357
153	0xbfa3007c	-1.2734523
154	0xbb8a280d	-0.0042162
155	0xbf0f72ed	-0.5603474
156	0x3ecc7d1e	0.39939207
157	0xbf4ca197	-0.79934067
158	0x3d5ad348	0.05342415
159	0xbef59f65	-0.4797317
160	0x3ce9009a	0.02844267
161	0xbfb10828	-1.3830614
162	0x3d530b2d	0.05152433
163	0xbeb2b3e3	-0.34902868
164	0x3f0c5a53	0.54825324
165	0xbf4a2a2b	-0.78970593
166	0x3cf4084e	0.029789116
167	0xbed304b4	-0.41214526
168	0xbe0707c6	-0.13186559
169	0xbec560f9	-0.38550547
170	0xbcf0968c	-0.029368661
171	0xbaf15bde	-0.0018414219
172	0x3f8dd350	1.1080112
173	0x3ec34d8e	0.38145107
174	0x3cecc29a	0.028901387
175	0xbd351ec6	-0.0442188
176	0xbd1ae882	-0.037819393
177	0x3add4a86	0.0016883172
178	0x3c8268e7	0.015919162
179	0xbc33d3f4	-0.0109758265
180	0x3f2b8797	0.6700377
181	0x3eba48f8	0.36383796
182	0xbd082661	-0.033239726
183	0xbca071be	-0.019585487
184	0x3e90bd07	0.28269216
185	0x3ea046d0	0.31304026
186	0xbcd6a860	-0.026203334
187	0x3ce67fb9	0.028137075
188	0xc0014402	-2.0197759
189	0xbe07efbb	-0.13275044
190	0x3b9b14ac	0.004732689
191	0xbd628c9b	-0.055309873
192	0x3d2862d3	0.04110987
193	0x3df6122c	0.12015185
194	0x3c6a0261	0.014282794
195	0xbda6dc9f	-0.08147549
196	0xbf5b04e9	-0.8555437
197	0xbee84c3e	-0.45370668
198	0xbd4f1975	-0.050561387
199	0x39fb72a3	0.00047959862
200	0xbd495811	-0.049156252
201	0x3f08476b	0.53233975
202	0x3ca40ef4	0.020026661
203	0xbaeb0fd8	-0.0017933799
204	0xbdcc956d	-0.09989438
205	0x3f3116f0	0.69175625
206	0xbd3906b8	-0.045172423
207	0xbd1daf99	-0.03849754
208	0x3c924eb4	0.017859794
209	0x3f8c9085	1.0981604
210	0x3d281ce8	0.041043192
211	0x3f1aec06	0.60516393
212	0x3fb3db28	1.4051256
213	0x3fbf1c05	1.4930426
214	0xbd92f239	-0.071751066
215	0x3f110e91	0.5666285
216	0xbf11de9e	-0.5698031
217	0xbe3be4cd	-0.18349
218	0x3c079acb	0.008276652
219	0x3dce2b50	0.10066855
220	0x3ec3721d	0.38173
221	0xbf10d770	-0.5657873
222	0x3c481995	0.0122131305
223	0x3d3eedeb	0.046613615
224	0xbf0e2f5a	-0.55541
225	0xbfd0e720	-1.6320534
226	0x3c6fb2b5	0.014630009
227	0xbe6b0746	-0.22951993
228	0x3ea6b290	0.32558107
229	0x3fc3dab5	1.5301119
230	0xbd9fd499	-0.07804222
231	0xbdcf3e2b	-0.101192795
232	0xbf4a94c3	-0.7913324
233	0xc02e9b14	-2.7282152
234	0x3c795d90	0.015220061
235	0xbeb91425	-0.36148182
236	0x3f190722	0.5977651
237	0x3faeadac	1.364675
238	0xbe09d0b7	-0.13458525
239	0xbe9bef2d	-0.30455914
240	0x3f3c15e3	0.73470896
241	0x3f8f95c3	1.1217579
242	0xbd9e7290	-0.07736695
243	0xbebab9df	-0.36469933
244	0xbf8ebc43	-1.1151203
245	0x3f1b751e	0.6072558
246	0x3d7ff61b	0.062490564
247	0xbed8c8ff	-0.42340848
248	0x3f182407	0.59429973
249	0x3f6c12e6	0.92216337
250	0x3cf5a9ca	0.029988188
251	0x3db56716	0.08857553
252	0xbf69a116	-0.9126142
253	0x3f4a2c8c	0.78974223
254	0x3d3151b9	0.043290827
255	0x3d3dc276	0.04632803

fcs1.bias f4 [128]
0	0xbeb4ca77	-0.35310718
1	0x3eb146cf	0.34624335
2	0xbf3f92a0	-0.74833107
3	0xbeabc243	-0.33546647
4	0x3f2bfce2	0.67182744
5	0x3ebcced3	0.36876544
6	0xbe5ab445	-0.2135783
7	0x3c902e68	0.017600253
8	0xc02a6467	-2.662378
9	0xc033bfab	-2.8085735
10	0xbef941a1	-0.48682883
11	0xbf4a1491	-0.7893763
12	0x3f03928f	0.51395506
13	0x3ad87b04	0.0016516154
14	0x3fab07a1	1.3361703
15	0x3e16621f	0.14685868
16	0xbe90c166	-0.2827255
17	0x3eeea12c	0.4660734
18	0xbe4d7d48	-0.20067322
19	0x3e95cff3	0.29260215
20	0xbf2bccb7	-0.67109245
21	0x3e19aaa9	0.15006508
22	0xbe049733	-0.12948303
23	0xbf59a543	-0.85017794
24	0xbeb6c27a	-0.3569525
25	0xbdadad14	-0.08480278
26	0xbeef245f	-0.46707436
27	0xbf698dab	-0.91231793
28	0xbec86ea2	-0.39146906
29	0x3ea72e1b	0.32652363
30	0xbebab950	-0.36469507
31	0xbef12744	-0.4710027
32	0xbd748427	-0.059696343
33	0x3da99986	0.082812354
34	0x3dacd274	0.08438578
35	0xbec17c9c	-0.37790382
36	0x3e7bc2fa	0.24586096
37	0xbe03424a	-0.12818256
38	0xbf60e815	-0.8785413
39	0xbfbc0fb4	-1.4692292
40	0xbf91ffd3	-1.1406196
41	0xbf14a7a9	-0.5806833
42	0x3dcaaf26	0.09896688
43	0xbf3633a5	-0.71172553
44	0x3d75be97	0.059996214
45	0xbef8b5cc	-0.485762
46	0xbdc33158	-0.09530896
47	0x3eb9c04f	0.36279532
48	0xc01249bc	-2.2857504
49	0xbecf52a1	-0.40492728
50	0xbf4c1546	-0.7971996
51	0x3e734780	0.23757744
52	0xbfea1d81	-1.8290254
53	0xbf25f412	-0.64825547
54	0xbd6f179a	-0.058372118
55	0xbf1855d6	-0.59505975
56	0x3da411d6	0.080112144
57	0xbefcdc6c	-0.4938692
58	0xbfb9a7be	-1.4504316
59	0xbe8a778e	-0.27044338
60	0x3f8e8165	1.1133238
61	0xbf4ad245	-0.79227096
62	0xbf19419c	-0.59865737
63	0xbe15b808	-0.14620984
64	0xbf415b86	-0.7553028
65	0xbf2f1196	-0.6838621
66	0x3ef6b1f2	0.48182636
67	0x3e0d493b	0.13797466
68	0xbf23d58b	-0.63997716
69	0x3f8cb328	1.0992174
70	0xbdaa8434	-0.08325997
71	0xbe8ebbee	-0.27877754
72	0x3dfcd619	0.123455234
73	0xbe9c2212	-0.30494744
74	0xbf22f0de	-0.63648784
75	0xbe56504e	-0.20929071
76	0xbf762817	-0.9615492
77	0xbd1d7511	-0.03844172
78	0x3dad8f20	0.084745646
79	0xbe608e56	-0.21929297
80	0xbd86601c	-0.065613
81	0xbf2ed8da	-0.6829964
82	0xbeca66c7	-0.39531538
83	0x3f05dd91	0.5229121
84	0xbef78ebb	-0.48351082
85	0xbeeb60cf	-0.45972297
86	0x3db85fbe	0.090026364
87	0xbe84ec18	-0.25961375
88	0xbe06b39b	-0.13154452
89	0x3dedebdc	0.11617252
90	0x3e2ec03a	0.17065516
91	0xbf76d691	-0.9642115
92	0xbe06d79b	-0.13168184
93	0x3d8cd969	0.06877405
94	0x3ef5837a	0.4795187
95	0xbd41a7e5	-0.047279257
96	0xbea3f53c	-0.32023036
97	0xbd5bfa05	-0.053705234
98	0xbdffeb4d	-0.12496052
99	0xbe0d782e	-0.13815376
100	0xc010b5dd	-2.2611
101	0xbfa0e834	-1.2570863
102	0xbf3cfdf9	-0.7382503
103	0xbf121ddf	-0.5707683
104	0xbe092d77	-0.1339625
105	0xbe65c08b	-0.2243673
106	0xbf215be4	-0.6303084
107	0x3e63026d	0.22168894
108	0xbeeb0b90	-0.4590726
109	0x3bb4e5e4	0.005520569
110	0xbc0d3ed1	-0.008620934
111	0xbe9a4225	-0.3012859
112	0xbfcac219	-1.5840484
113	0xbeaba4d2	-0.33524185
114	0xbea98a27	-0.33113214
115	0xbed4db5a	-0.41573602
116	0x3e2d5ca8	0.16929877
117	0xbe9a92b9	-0.30190066
118	0x3f31eba4	0.69500184
119	0xbead7239	-0.33876207
120	0xbf434e83	-0.76291674
121	0xbed818de	-0.42206472
122	0x3f2e8f90	0.6818781
123	0x3e4ca38a	0.1998426
124	0xbccd22a0	-0.025040925
125	0xbe28a763	-0.16470103
126	0xbfc386cd	-1.5275513
127	0x3f035da5	0.51314765

bn1.weight f4 [128]
0	0x3d12d5ad	0.03584831
1	0x3e464c73	0.193651
2	0x3e00036e	0.12501308
3	0x3e578b3b	0.21049206
4	0x3ee981fb	0.4560698
5	0x3da3d127	0.07998877
6	0x3db906a4	0.0903447
7	0x3f15fc51	0.5858813
8	0x3e27148d	0.16316433
9	0x3e386239	0.18006219
10	0x3da34f4d	0.0797411
11	0x3d0227d8	0.03177628
12	0x3ce879b3	0.028378343
13	0x3d2bc406	0.04193499
14	0x3e117244	0.14203745
15	0xbad42498	-0.0016185222
16	0xbe7f04eb	-0.2490422
17	0x3e348994	0.17630607
18	0x3f76a610	0.9634714
19	0x3e9431d7	0.28944275
20	0x3e07ec1e	0.13273665
21	0x3d180226	0.037111424
22	0x3dc0946f	0.094033115
23	0x3c410c02	0.011782648
24	0x3eb5cea8	0.3550923
25	0x3f0b0c23	0.54315394
26	0x3f47ce9c	0.78049636
27	0x3e50e74d	0.20400734
28	0x3fba3f8f	1.4550647
29	0x3e74ad98	0.23894346
30	0x3d8d0d93	0.06887355
31	0x3e0f90f7	0.14020143
32	0x3d29f88c	0.0414968
33	0xb98ace2b	-0.00026475018
34	0x3b9a4fd5	0.0047092238
35	0x3e7c7da2	0.246573
36	0x3e78345f	0.24238728
37	0x3df07464	0.1174095
38	0x3db967ba	0.090529874
39	0x3df655a9	0.12028057
40	0x3e2c01d6	0.16797575
41	0xbe175365	-0.14777906
42	0x3e911083	0.2833291
43	0x3d92ce56	0.07168262
44	0x3f3189e4	0.6935103
45	0x3d5bf1e1	0.05369747
46	0x3f45d950	0.7728472
47	0x3df2cef7	0.11855882
48	0x3efe5856	0.4967677
49	0x3e588d6b	0.21147697
50	0x3d9ef94e	0.07762395
51	0x3d2f8f23	0.042861115
52	0x3ea3ab4e	0.31966633
53	0x3f3c3068	0.7351136
54	0x3e82b5f0	0.25529432
55	0x3ea69396	0.32534474
56	0xbb298b36	-0.002587033
57	0x3d436bda	0.047710277
58	0x3f5df807	0.86706585
59	0x3de932da	0.11386652
60	0x3d713daf	0.058896717
61	0x3b676df3	0.0035313338
62	0x3ee71cc4	0.45139134
63	0x3dc1d93e	0.09465264
64	0x3d5ad76a	0.05342809
65	0x3eb13c31	0.34616235
66	0x3e068d87	0.13139926
67	0x3c9589de	0.018254217
68	0x3e6d3932	0.2316635
69	0x3f86c105	1.0527655
70	0x3dd56e34	0.1042141
71	0x3d9702a2	0.07373549
72	0x3dcfe014	0.101501614
73	0x3e2426ae	0.1603038
74	0x3d862899	0.06550712
75	0x3d5c799e	0.05382692
76	0x3d8b9cb6	0.068169996
77	0x3db4944b	0.08817347
78	0x3e023825	0.1271673
79	0x3f29aba0	0.66277504
80	0x3eb6d0b6	0.3570611
81	0x3db8bd8c	0.09020528
82	0x3a9164c3	0.0011092651
83	0x3de41dfc	0.111385316
84	0x3dde9448	0.10868126
85	0xbdc9fb9b	-0.09862443
86	0x3d709c99	0.058743093
87	0x3e32e4a9	0.1747004
88	0xbdbe9877	-0.09306424
89	0x3dba044d	0.090828516
90	0x3edfbcf3	0.43698844
91	0x3e350167	0.17676316
92	0x3d7a6ead	0.061140705
93	0x3fc18da5	1.5121351
94	0x3dc0298a	0.09382923
95	0x3df4d2ea	0.11954291
96	0x3daa7576	0.08323185
97	0x3e2bfa5d	0.16794725
98	0x3cbb996a	0.022900302
99	0x3d5593fb	0.05214308
100	0x3e8617a3	0.26189908
101	0x3fa46b6c	1.2845283
102	0x3e0d769b	0.13814776
103	0x3dd8bf5b	0.10583373
104	0x3db02adf	0.08601927
105	0x3e7375d8	0.23775423
106	0x3d72bdfc	0.059263214
107	0x3d3d9c1f	0.046291467
108	0x3db32f33	0.08749237
109	0x3da1a674	0.078930765
110	0xbac93e1d	-0.0015353594
111	0x3db7082c	0.089371055
112	0x3f26c83f	0.651493
113	0x3d924c21	0.07143427
114	0x3d23df13	0.040007662
115	0x3db5f87e	0.08885287
116	0x3ba273c2	0.004957647
117	0x3df8d478	0.121499
118	0x3e84d5d7	0.25944397
119	0x3eebef92	0.46081215
120	0x3e134280	0.14380836
121	0xbb1b2aab	-0.0023676555
122	0x3e3dbcd6	0.18529066
123	0x3ee28aee	0.4424662
124	0x3dc5aa44	0.09651616
125	0x3ef6fa4b	0.48237833
126	0x3f14ca1c	0.58120894
127	0x3dad2e9c	0.08456156

bn1.bias f4 [128]
0	0x3ba97e90	0.005172558
1	0x3e2d91e4	0.16950184
2	0x3cc7cc2a	0.024389345
3	0x3db65a83	0.089039825
4	0x3ea95cd3	0.33078632
5	0x3c0b193d	0.008489904
6	0x3d0a6cf4	0.033795312
7	0x3ee26a99	0.44221953
8	0x3da75d05	0.08172039
9	0x3e2afe5a	0.1669859
10	0xbc0d9298	-0.008640908
11	0x3b32719d	0.0027228363
12	0xbcb65123	-0.022255486
13	0xbaa82065	-0.0012827037
14	0x3d10cc19	0.035350893
15	0x3b1f4a08	0.00243056
16	0xbd8db527	-0.06919318
17	0x3b4173f5	0.0029518579
18	0x3ec4150b	0.38297305
19	0x3db5b0a5	0.08871583
20	0x3c307720	0.010770589
21	0x3bd972e2	0.0066360096
22	0x3c924d17	0.017859025
23	0xba5e53f7	-0.00084811397
24	0x3e8048ee	0.2505564
25	0x3ebc9b1e	0.36837095
26	0x3f1870a4	0.59546876
27	0xbe45e76f	-0.19326566
28	0x3ef46dd3	0.4774004
29	0x3db8fd39	0.090326734
30	0x3cbe9225	0.023263047
31	0x3d38f5b4	0.045156196
32	0xbb5bb57d	-0.0033524923
33	0xb988d042	-0.00026095106
34	0x39d9044f	0.00041392675
35	0x3e592cf0	0.21208549
36	0x3e0e4ec0	0.13897228
37	0x3d835c06	0.064140365
38	0x3d101e07	0.035184886
39	0x3d143d72	0.03619141
40	0x3df0edeb	0.11764129
41	0xbd397425	-0.04527678
42	0x3e42f746	0.1903964
43	0x3bc36687	0.00596315
44	0x3dcce393	0.10004344
45	0xbb411923	-0.0029464446
46	0x3e36336e	0.17793056
47	0x3d90ac9e	0.07064174
48	0x3ec3d04f	0.38244864
49	0x3d8aa912	0.06770529
50	0x3cd9be4f	0.026580004
51	0xbbb28ef5	-0.0054491707
52	0x3db86714	0.090040356
53	0x3f0746a3	0.5284216
54	0x3e1b300a	0.15155044
55	0x3e992b48	0.29915833
56	0x3a2df1b5	0.00066354434
57	0x3afa6c94	0.0019105845
58	0x3ebb6060	0.36596966
59	0x3d44065c	0.047857627
60	0x3c52c9d9	0.012865507
61	0xbaed8524	-0.0018121344
62	0x3e5b75fa	0.21431723
63	0x3cb65a28	0.022259787
64	0x3b2435c8	0.002505647
65	0x3dc3f82d	0.0956882
66	0x3d12c58f	0.035832938
67	0xbc5b4f51	-0.01338561
68	0x3e125926	0.1429182
69	0x3ef3b338	0.4759767
70	0x3d442d21	0.0478946
71	0x3c5c4277	0.013443581
72	0x3d378d28	0.04481235
73	0x3da9ae65	0.08285216
74	0x3c8bdec4	0.017073996
75	0x3c4c4760	0.012468189
76	0x3d03c878	0.032173604
77	0x3d376716	0.044776045
78	0x3de29e00	0.11065292
79	0x3e5abebc	0.21361822
80	0x3ec22cf8	0.37924933
81	0x3d505c49	0.05086926
82	0x3b2c86ff	0.002632558
83	0xbdc7757a	-0.09739204
84	0x3cc66ffb	0.024223318
85	0xbcc8d9e8	-0.024517968
86	0x3c8d6588	0.017260328
87	0x3df766e9	0.120801754
88	0xbcbe39f9	-0.023221003
89	0x3d4fae93	0.050703596
90	0x3e3e8ef5	0.18609221
91	0x3d3d5707	0.046225574
92	0x3beda636	0.00725248
93	0x3f02989a	0.510141
94	0x3c8bfc95	0.017088214
95	0x3d07d843	0.033165228
96	0xbc31f330	-0.010861203
97	0xbcafcdc5	-0.021460423
98	0x3bc26f58	0.0059336834
99	0x3c80acf6	0.015707474
100	0x3d9cebba	0.07662149
101	0x3dca51a4	0.09878853
102	0x3d7cca00	0.06171608
103	0x3d27b138	0.040940493
104	0x3bee4a4f	0.007272042
105	0x3e2ee247	0.17078505
106	0xbb59f7b7	-0.0033259222
107	0xbb5bc90a	-0.0033536577
108	0x3cd8b335	0.02645264
109	0x39c5a25b	0.00037695732
110	0xbb14f47a	-0.0022728727
111	0x3d1f3b1e	0.038874738
112	0x3e88b342	0.26699263
113	0x3d1985ba	0.037481047
114	0x3c330944	0.010927502
115	0x3ceed28a	0.029153127
116	0x3a6cc8d2	0.000903261
117	0xbd2479fe	-0.040155403
118	0x3da83ba8	0.082145035
119	0x3db53f59	0.08849973
120	0x3d585938	0.05281946
121	0xbb8310c0	-0.0039997995
122	0x3d3f35bf	0.046682116
123	0x3eabc338	0.33547378
124	0x3d095b3d	0.033534277
125	0x3e64e8a1	0.22354366
126	0x3eaf7b2e	0.34273666
127	0x3c944f0a	0.018104095

bn1.running_mean f4 [128]
0	0x3d26d0ee	0.040726595
1	0x412b6df7	10.714347
2	0x3f40a405	0.75250274
3	0x40169e84	2.353425
4	0x404336d8	3.0502224
5	0x40b42d98	5.6305656
6	0x4006372c	2.0971174
7	0x40017473	2.0227325
8	0x4074817c	3.820403
9	0x418fc777	17.972395
10	0x3ff58c90	1.9183521
11	0x402e1f9b	2.720679
12	0x41ce886e	25.816616
13	0x3f6d3b90	0.9266901
14	0x40911c07	4.5346713
15	0x418c67ae	17.550625
16	0x3f00a837	0.50256675
17	0x3fc0bd55	1.505778
18	0x41ee9db2	29.827
19	0x3f8b7c88	1.0897379
20	0x3f884f07	1.0649117
21	0x3e4f7f3b	0.20263378
22	0x3ff1cc8e	1.889055
23	0x40ec2a59	7.3801694
24	0x412ef5e7	10.935035
25	0x40e1023e	7.0315237
26	0x40934cd8	4.6031303
27	0x41892515	17.143106
28	0x41fc9f2a	31.577717
29	0x3ff80691	1.9377004
30	0x3f8232cd	1.0171753
31	0x412069a6	10.025793
32	0x40c1ce72	6.056451
33	0x4167d290	14.488907
34	0x41745b60	15.272308
35	0x4118b421	9.543977
36	0x408ed8de	4.463973
37	0x4110694f	9.02571
38	0x3ff0b41a	1.8804963
39	0x3fdd5345	1.7291037
40	0x4168c2e6	14.547583
41	0x3f6aac16	0.9166883
42	0x40b508f0	5.657341
43	0x407cd03a	3.9502091
44	0x42048418	33.128998
45	0x40cd4cf5	6.415644
46	0x3f4f45f4	0.80966115
47	0x4074efeb	3.8271434
48	0x4140069a	12.001612
49	0x3f566a68	0.83756113
50	0x3f9634c0	1.1734848
51	0x4098e0f5	4.7774606
52	0x3f6067a9	0.8765817
53	0x41a1af4a	20.21059
54	0x409342df	4.601913
55	0x414054e7	12.020728
56	0x41aa5eb1	21.296236
57	0x408b6eed	4.3572907
58	0x414fccdf	12.987517
59	0x404c4822	3.1919026
60	0x3e93e8bb	0.28888497
61	0x40caa74e	6.332923
62	0x3fec2ae7	1.8450593
63	0x3f62bfbf	0.8857383
64	0x4046804b	3.1015804
65	0x3f140ad2	0.5782901
66	0x3f836d11	1.026766
67	0x407ddd6a	3.966639
68	0x413153e9	11.082986
69	0x419852d6	19.040447
70	0x40afe2af	5.4964213
71	0x3ed460bb	0.4148005
72	0x402d8d5a	2.7117524
73	0x41204d1e	10.018827
74	0x3ecbf501	0.3983536
75	0x3f242a7f	0.64127344
76	0x3fdae097	1.7099789
77	0x40dd5914	6.917124
78	0x41b21508	22.26027
79	0x3f2e0c41	0.6798745
80	0x40f96044	7.793001
81	0x4060293f	3.5025175
82	0x412ae6a3	10.681308
83	0x41813bfb	16.154287
84	0x3f862b0c	1.0481887
85	0x3f8914d0	1.0709476
86	0x3e5f4c6a	0.21806493
87	0x4108d8dc	8.552944
88	0x3ee22d98	0.4417541
89	0x40e32b27	7.0990176
90	0x400a6742	2.1625524
91	0x3f41f5ce	0.75765693
92	0x40918cd4	4.548441
93	0x42047ac8	33.119904
94	0x3f1cd1cc	0.61257625
95	0x3facdd12	1.3504965
96	0x3fcd16e5	1.6022612
97	0x3fc20f36	1.5160892
98	0x4121853c	10.095028
99	0x415c0012	13.750017
100	0x406189b9	3.524031
101	0x417be96d	15.744489
102	0x410de98e	8.86952
103	0x3f9dd3e2	1.2330287
104	0x4069b95d	3.6519387
105	0x4152b5f1	13.169419
106	0x3f00a1c2	0.5024682
107	0x3f55dff5	0.83544856
108	0x403b0d44	2.9226847
109	0x41422f11	12.136491
110	0x41776900	15.463135
111	0x3fe3601a	1.7763703
112	0x40ed9dad	7.4254975
113	0x3fcc15a2	1.5944102
114	0x3fb89c02	1.442261
115	0x41010d93	8.065814
116	0x40f01430	7.5024643
117	0x40cb9772	6.362237
118	0x3fa398b0	1.2780972
119	0x3e17dc2e	0.14830086
120	0x3fa04df6	1.2523792
121	0x400f5adb	2.2399204
122	0x3f8f8275	1.1211687
123	0x407ca494	3.947545
124	0x40a90458	5.2817802
125	0x3ffe4ca1	1.9867135
126	0x409efbbe	4.9682302
127	0x3fb2a300	1.3955994

bn1.running_var f4 [128]
0	0x3e8587bf	0.2608013
1	0x426e2843	59.539318
2	0x40f8dbe5	7.7768426
3	0x41e4912e	28.570889
4	0x414e5eca	12.898142
5	0x4304ef1e	132.93405
6	0x417c3b75	15.764516
7	0x40cf466f	6.477348
8	0x41aca80b	21.582052
9	0x427e0828	63.507965
10	0x4179f44a	15.622141
11	0x4265e9c0	57.47827
12	0x441bd1aa	623.276
13	0x40fb6368	7.8558846
14	0x42a5ac7d	82.83689
15	0x4303f7fd	131.9687
16	0x406741ab	3.613383
17	0x412b316a	10.699564
18	0x449ca7ff	1253.2499
19	0x40b808da	5.7510805
20	0x411c833e	9.782042
21	0x3fb943de	1.4473836
22	0x41be7778	23.808334
23	0x42a6d759	83.4206
24	0x435a6b2a	218.41861
25	0x42d06318	104.19354
26	0x4207f772	33.991646
27	0x438338ee	262.44476
28	0x44c5ff2d	1583.9742
29	0x41945566	18.541698
30	0x410f0aee	8.940168
31	0x42c38372	97.75673
32	0x4306cc7e	134.7988
33	0x42e1c164	112.877716
34	0x42f434bd	122.103004
35	0x42f76345	123.693886
36	0x42544854	53.070633
37	0x430985ed	137.52315
38	0x41a6076c	20.753624
39	0x41651d45	14.319646
40	0x42d31abf	105.55224
41	0x41536a04	13.213383
42	0x428f5078	71.657166
43	0x42278af1	41.885685
44	0x44ca0e6e	1616.4509
45	0x4348baf1	200.73024
46	0x414e5ef1	12.898179
47	0x42262489	41.53568
48	0x424fc1c5	51.939228
49	0x410296a7	8.16178
50	0x41421c15	12.131856
51	0x42c3482e	97.640976
52	0x40ce41fd	6.445555
53	0x44217773	645.8664
54	0x426596c7	57.397243
55	0x43100dbe	144.05368
56	0x434ed20b	206.82048
57	0x42e2a2a8	113.31769
58	0x438a091a	276.0711
59	0x4237d4a8	45.957672
60	0x40389c1f	2.8845289
61	0x4345b3dc	197.70258
62	0x415d7ccb	13.842967
63	0x414f4f46	12.956854
64	0x429acb7e	77.397446
65	0x40b8c5d9	5.7741513
66	0x40df5a48	6.9797707
67	0x425879ab	54.118816
68	0x43105a02	144.3516
69	0x44023935	520.89386
70	0x42825c93	65.18081
71	0x40bcdca6	5.9019346
72	0x41e36584	28.424568
73	0x43263abe	166.22946
74	0x4089647a	4.293515
75	0x411908d0	9.5646515
76	0x418136fa	16.151844
77	0x42edb614	118.85562
78	0x43edd123	475.63388
79	0x4084c9a4	4.1496143
80	0x42425ee5	48.59267
81	0x41e0d2c0	28.102905
82	0x4230d027	44.203274
83	0x43078ebb	135.55754
84	0x4184ac53	16.584143
85	0x40d87755	6.764567
86	0x3fc8df7c	1.5693202
87	0x431389f8	147.53894
88	0x4079fb9e	3.9059825
89	0x42fcca4f	126.395134
90	0x41cb0512	25.377476
91	0x40c7b4d8	6.2408257
92	0x42e46da3	114.214134
93	0x44d44d07	1698.4071
94	0x410dec45	8.870183
95	0x413efe43	11.937076
96	0x41972fdf	18.898375
97	0x40cc9972	6.393731
98	0x430741df	135.25731
99	0x4348d160	200.81787
100	0x4193a8e0	18.457458
101	0x43c7e4fb	399.7889
102	0x43063c13	134.23466
103	0x4107637c	8.461788
104	0x420d50aa	35.328773
105	0x4359d922	217.84818
106	0x40a1ee40	5.0603333
107	0x413a6786	11.650274
108	0x41f30413	30.37699
109	0x4333b1c2	179.69437
110	0x42cd168f	102.54406
111	0x417c06cb	15.751658
112	0x42bb4354	93.6315
113	0x41820e5a	16.257008
114	0x411f2a5c	9.947842
115	0x42d05cca	104.18123
116	0x4317dce9	151.86293
117	0x42388019	46.125095
118	0x414c85e9	12.782693
119	0x3fabaf2a	1.3412831
120	0x4142f283	12.184207
121	0x4215565e	37.334343
122	0x41a22222	20.266666
123	0x41d58e60	26.694519
124	0x429eb9e2	79.36305
125	0x41158b1a	9.34646
126	0x41d785e3	26.940374
127	0x41c7db46	24.982067

fc2.weight f4 [128, 130]
0	0xbd5e00fe	-0.054200165
1	0xbdb52875	-0.08845607
2	0xbcbbb265	-0.022912214
3	0x3d99ea02	0.075153366
4	0x3c3eecfa	0.011653179
5	0xbd94402b	-0.072388016
6	0x3d8c549a	0.06852074
7	0xbce534a3	-0.0279792
8	0xbd452be9	-0.04813758
9	0xbd9d250f	-0.07673084
10	0x3d567f4c	0.052367494
11	0xbd319c07	-0.04336169
12	0x3db49002	0.0881653
13	0x3da0d29f	0.07852673
14	0xbd57fef5	-0.05273338
15	0xbda2e805	-0.079544105
16	0xbd7ab62b	-0.061208885
17	0x3ca5409c	0.02017241
18	0xbaee23de	-0.0018168648
19	0xbd902416	-0.07038133
20	0xbdae86ae	-0.08521782
21	0x3d8e8807	0.06959539
22	0xbc9eaeef	-0.019370524
23	0x3cb2f3c4	0.021844752
24	0xbd6dee17	-0.05808839
25	0xbdb581b0	-0.088626266
26	0xbd360f56	-0.04444822
27	0x3cb9b84d	0.02267089
28	0xbd64946f	-0.05580562
29	0xbdd9bb2f	-0.106314056
30	0x3d51ebdc	0.051250324
31	0xbdb81bd0	-0.0898968
32	0xbdd48ff8	-0.10379022
33	0xbd2bab81	-0.041911606
34	0x3d1af669	0.03783265
35	0xbd095838	-0.033531398
36	0xbdb48f4d	-0.08816395
37	0x3d1614b1	0.036640827
38	0x3c06e900	0.0082342625
39	0x3c283a9a	0.010267878
40	0xbd7cd7d2	-0.06172926
41	0x3dedce50	0.116116166
42	0x3d161440	0.036640406
43	0xbd59d342	-0.053179987
44	0xbdae45ef	-0.085094325
45	0x3de2fdfa	0.110835984
46	0xbd161600	-0.036642075
47	0xbd90390e	-0.07042132
48	0x3c1ee040	0.00969702
49	0xbd6edead	-0.05831783
50	0xbd71f038	-0.05906698
51	0x3cee0b9a	0.029058266
52	0x3d8d4946	0.068987414
53	0xbd919c56	-0.07109897
54	0xbd33cd55	-0.04389699
55	0x3c9db6d6	0.019252222
56	0xbcf5a4bd	-0.02998578
57	0x3db2545c	0.087074965
58	0xbd4dd7f5	-0.05025478
59	0x3cc24e27	0.023718907
60	0xbd305e6c	-0.043058798
61	0x3ce2b416	0.027673762
62	0x3c4a4260	0.012344927
63	0xbc791553	-0.015202838
64	0xbe0bf445	-0.136674
65	0xbb06347c	-0.002047806
66	0xbdd8988c	-0.10575971
67	0xbcf7790a	-0.030209083
68	0x3d94bf25	0.072630204
69	0x3d17eac8	0.03708914
70	0x3ccef90c	0.02526524
71	0x3dadfc16	0.08495347
72	0xbc86ad0f	-0.016439943
73	0xbd16f1a0	-0.036851525
74	0xbd94a162	-0.07257344
75	0x3d83e3c0	0.06439924
76	0x3d99b874	0.07505885
77	0x3d6b1368	0.057391554
78	0x3d422b76	0.04740473
79	0xbd4a1982	-0.049340732
80	0xbcbcd32c	-0.023049913
81	0xbdf4b0d8	-0.11947793
82	0x3d0ae742	0.03391195
83	0x3cd45ba2	0.0259226
84	0x3bb0dc04	0.0053973217
85	0x3db87f71	0.090086825
86	0xbda3c9b2	-0.07997455
87	0xbd613cdf	-0.05498969
88	0x3d793559	0.060841892
89	0xbdf46622	-0.11933543
90	0xbd8d58f0	-0.06901729
91	0xbd45011f	-0.048096772
92	0x3c7d778f	0.0154703995
93	0xbd0c2fb2	-0.034225173
94	0xbdc39199	-0.09549255
95	0xbd88e186	-0.0668364
96	0x3d9dd511	0.07706655
97	0xbd1a16cc	-0.037619397
98	0x3d384ca2	0.044994958
99	0xbdb600f5	-0.08886901
100	0x3d0b594b	0.034020703
101	0x3d4642c3	0.048403513
102	0xbda15594	-0.07877651
103	0xbdb60531	-0.08887709
104	0xbd87238e	-0.065985784
105	0xbd95c089	-0.07312114
106	0x3d5b0ca3	0.05347885
107	0x3d1e7925	0.03868975
108	0x3d861052	0.065460816
109	0x3c7ce76c	0.015436035
110	0x3c84be3d	0.016203994
111	0xbe0c445f	-0.13697957
112	0x3d78fb0b	0.06078629
113	0xbdb56ed5	-0.0885903
114	0xbbceaf51	-0.0063075204
115	0xbc9d752e	-0.019220915
116	0x3c56780d	0.013090146
117	0xbd10db30	-0.035365283
118	0xbca86893	-0.020557677
119	0x3d1ecd97	0.038770285
120	0x3d9e65f3	0.07734289
121	0x3d472945	0.048623342
122	0xbdd52b35	-0.10408632
123	0xbdbfef01	-0.09371758
124	0xbbee90cf	-0.007280446
125	0xba9bd6e6	-0.0011889606
126	0xbdaf885d	-0.08570931
127	0xbc488658	-0.012239061
128	0xbd573446	-0.052540086
129	0x3c77f456	0.015133938
130	0xbdc99a40	-0.09843874
131	0xbd2df168	-0.04246655
132	0x3d89982d	0.06718478
133	0x3b228575	0.0024798785
134	0x3d1b472b	0.037909668
135	0x3d99d3aa	0.07511075
136	0x3d9f39f4	0.077747256
137	0xbac6e58c	-0.0015174611
138	0xbdaa7df1	-0.08324803
139	0xbc98ae11	-0.018637689
140	0xbc816d55	-0.015799204
141	0x3d7b64dd	0.061375488
142	0xbce9a015	-0.028518716
143	0x3d0804e9	0.033207808
144	0xbd65772b	-0.05602185
145	0xbd0be5b1	-0.034154598
146	0x3da873df	0.08225226
147	0xbd66dc36	-0.056362353
148	0xbcabf58d	-0.020991111
149	0xbdadc5b4	-0.084849745
150	0x3d3bff5a	0.04589782
151	0xbcc05ea9	-0.023482637
152	0x3dbdc285	0.09265617
153	0x3cc3ff5d	0.023925478
154	0xbdd8ff12	-0.10595526
155	0x3b9d12d8	0.004793506
156	0x3c934587	0.01797749
157	0x3d3fc013	0.046814036
158	0x3c9e9987	0.019360317
159	0xbd5379b8	-0.051629752
160	0x3d4bfd3d	0.049802054
161	0xbda9c983	-0.082903884
162	0xbce09675	-0.027415494
163	0x3d202f76	0.039107762
164	0x3df356d1	0.11881793
165	0xbe1f2b48	-0.15543854
166	0xbe2885a1	-0.16457225
167	0xbe13125b	-0.14362471
168	0x3ce4f97e	0.027950998
169	0x3b640940	0.0034795552
170	0xbcb2749d	-0.021784121
171	0x3e0e7e9a	0.13915482
172	0x3d691381	0.056903366
173	0xbe03d769	-0.12875141
174	0xbca23dea	-0.019804914
175	0x3dc53497	0.09629171
176	0xbccc29fd	-0.024922365
177	0x3c8cf08a	0.017204542
178	0x3d926067	0.071472935
179	0x3c55698a	0.013025651
180	0xbde97f87	-0.11401277
181	0x3d519378	0.051166028
182	0xbc0b8385	-0.008515243
183	0xbd85d00c	-0.065338224
184	0xbd8086f8	-0.06275743
185	0xbe115fd3	-0.1419671
186	0xbc7dcb61	-0.015490384
187	0x3c1a7f3c	0.009429749
188	0xbc13ec3b	-0.00902849
189	0xbcfad4af	-0.030618994
190	0x3c843efc	0.016143315
191	0xbd140665	-0.03613891
192	0x3d28230b	0.041049045
193	0xbd7d1807	-0.061790492
194	0xbdf262ed	-0.11835275
195	0xbd940ed5	-0.072293915
196	0xbd8e5f72	-0.069517985
197	0x3d8f2f4b	0.06991442
198	0x3dc23fd9	0.09484834
199	0x3d4e6e61	0.050398234
200	0xbd4ee647	-0.05051258
201	0xbcc98d40	-0.024603486
202	0xbcc6ef3c	-0.024283998
203	0x3d0126c2	0.031531103
204	0xbe2294f3	-0.15877132
205	0x3e1c87af	0.15286134
206	0x3a83752d	0.0010029428
207	0x3dc17ac6	0.09447245
208	0x3a93b66f	0.0011269579
209	0xbd0ed710	-0.03487307
210	0xbdb98f88	-0.090605795
211	0xbbdeb22c	-0.006796142
212	0x3dedd7df	0.1161344
213	0x3dbb32e5	0.09140567
214	0x3d1ef352	0.038806267
215	0x3da2793a	0.079332784
216	0xbdd5d212	-0.10440458
217	0xbd1f6a28	-0.038919598
218	0x3d09bf1e	0.03362953
219	0xbd9ec19f	-0.07751774
220	0x3bd916f6	0.0066250516
221	0xbd8d7b4c	-0.06908283
222	0xbc084262	-0.008316608
223	0xbc34a0d2	-0.011024671
224	0xbd0c0e11	-0.034193102
225	0xbddbb9ed	-0.10728822
226	0x3ded9be4	0.116019994
227	0xbb15282d	-0.0022759542
228	0x3df6e580	0.120554924
229	0xbc129a29	-0.008947887
230	0xbc2dfc15	-0.010619183
231	0x3c75b3ad	0.014996451
232	0xbca1ac68	-0.01973553
233	0x3d529d6a	0.051419653
234	0xbd0c4257	-0.034242954
235	0xbd604297	-0.054751005
236	0xbc838730	-0.016055673
237	0xbd49e7f7	-0.049293485
238	0xba1439d5	-0.00056543696
239	0x3c7ea895	0.015543123
240	0x3ad0e152	0.0015936291
241	0x3d5dec2c	0.05418031
242	0xbc46bcc7	-0.012129969
243	0xb75e42af	-1.3247757e-05
244	0xbe076705	-0.13222893
245	0x3d0f390c	0.034966514
246	0xbde990a2	-0.1140454
247	0xbd248efd	-0.040175427
248	0x3ac92454	0.001534591
249	0x3c7cd83e	0.0154324155
250	0x3d0b87bb	0.03406499
251	0xbdb7dfbe	-0.08978222
252	0xbe2ba9f4	-0.1676405
253	0xbd398d9a	-0.045301057
254	0x3c1edb6a	0.009695867
255	0xbdfb87b5	-0.122817434

fc2.bias f4 [128]
0	0xbe86fa8e	-0.26363033
1	0xbe28efaf	-0.16497682
2	0xbe23b73d	-0.15987869
3	0xbee3d7df	-0.44500634
4	0xbecf0275	-0.40431562
5	0xbe348220	-0.17627764
6	0xbe1a2409	-0.15052809
7	0xbf164cc8	-0.5871091
8	0xbeb86ab3	-0.36018905
9	0xbe9ef24e	-0.3104424
10	0xbe1d8c64	-0.15385586
11	0xbe914f11	-0.28380635
12	0xbe4a8254	-0.19776279
13	0xbe897cc7	-0.2685301
14	0xbec5c74e	-0.3862862
15	0xbd5fdb47	-0.05465248
16	0xbe718a13	-0.23587827
17	0xbebc6915	-0.3679892
18	0x3cd7d12b	0.026344856
19	0xbebb72f1	-0.3661113
20	0xbe673e56	-0.22582373
21	0xbe6f9d95	-0.23399957
22	0xbe36fbf5	-0.17869551
23	0xbf2282de	-0.6348094
24	0xbebfa29d	-0.37428752
25	0xbe8265c9	-0.2546828
26	0xbe2a7bd3	-0.16648798
27	0xbe58c013	-0.2116702
28	0xbdb021a0	-0.086001635
29	0xbe882002	-0.2658692
30	0xbee64fa4	-0.44982636
31	0xbe6e830b	-0.23292176
32	0xbe1fc31d	-0.15601774
33	0xbe9e01ed	-0.30860844
34	0xbe30f867	-0.17282258
35	0xbeabdb70	-0.33565855
36	0xbe6fe2e3	-0.23426394
37	0xbe87a2d4	-0.26491416
38	0x3dbc5aa9	0.091969796
39	0xbe653913	-0.22385053
40	0xbe809fe5	-0.2512199
41	0xbe719782	-0.23592952
42	0xbea0dd4c	-0.31418836
43	0xbe9826c0	-0.29717064
44	0xbe4352b0	-0.19074512
45	0xbe5facb4	-0.21843225
46	0xbe6e7f3f	-0.23290728
47	0xbe68ae28	-0.22722685
48	0xbe4e15cc	-0.20125502
49	0xbf1dee7f	-0.6169204
50	0xbeda17ba	-0.42596227
51	0xbf10db47	-0.5658459
52	0xbecc99d5	-0.39961115
53	0xbe5ba8da	-0.2145113
54	0xbeab54fc	-0.33463275
55	0xbec0a975	-0.37629285
56	0xbeb288c0	-0.34869957
57	0xbe5c4dc8	-0.21514046
58	0xbf13ece4	-0.5778334
59	0xbec34523	-0.38138685
60	0xbe6c2dcd	-0.23064347
61	0xbf2a56eb	-0.66538876
62	0xbf2cf0a7	-0.67554706
63	0xbf190569	-0.5977388
64	0xbe295c52	-0.16539124
65	0xbdabe887	-0.083939604
66	0xbea2f0da	-0.3182438
67	0xbe5fd709	-0.21859373
68	0xbec2523b	-0.37953362
69	0xbe32b4be	-0.1745176
70	0xbe3f0ded	-0.18657656
71	0xbe6dd735	-0.23226626
72	0xbe9b4002	-0.30322272
73	0xbe5a2615	-0.2130359
74	0xbe87883d	-0.2647113
75	0xbe9baf7a	-0.30407315
76	0xbe96747d	-0.29385749
77	0xbe882d9b	-0.26597294
78	0xbf0385f2	-0.5137626
79	0xbe12e8b9	-0.14346589
80	0xbeb766df	-0.35820672
81	0xbe44c950	-0.1921742
82	0xbeddf072	-0.43347508
83	0xbea4e076	-0.322025
84	0xbe2e500d	-0.17022724
85	0xbeeed982	-0.4665032
86	0xbf197545	-0.59944564
87	0xbe965d94	-0.2936827
88	0xbe6de86f	-0.23233198
89	0xbe70eaee	-0.23527119
90	0xbe9567da	-0.29180795
91	0xbe69ad0b	-0.22819917
92	0xbe92e4f2	-0.28690296
93	0xbe89beb0	-0.26903296
94	0xbe33c3cf	-0.17555164
95	0xbec507f5	-0.38482633
96	0xbe846a4b	-0.25862345
97	0xbf079bb7	-0.52971977
98	0xbe97d326	-0.2965328
99	0xbe95abc2	-0.29232603
100	0xbe78785e	-0.24264666
101	0xbf06672c	-0.5250118
102	0xbe22980c	-0.15878314
103	0xbe4380c0	-0.19092083
104	0xbe905708	-0.281914
105	0xbeba7276	-0.36415452
106	0xbf110cdd	-0.5666025
107	0xbe7aa933	-0.24478607
108	0xbebb3eb6	-0.36571282
109	0xbe6d5ad5	-0.23179181
110	0xbe66ac0f	-0.22526573
111	0xbebd3597	-0.36954948
112	0xbe108bd8	-0.14115846
113	0xbf0f4731	-0.55968004
114	0xbe6ecbd4	-0.23319942
115	0xbf2c07b5	-0.6719926
116	0xbe35f5b7	-0.17769514
117	0xbe8984e1	-0.2685919
118	0xbec75e27	-0.3893902
119	0xbe77cf91	-0.24200274
120	0xbf09d420	-0.538393
121	0xbe9a7269	-0.30165413
122	0xbf4b1463	-0.7932798
123	0xbe8a1c20	-0.26974583
124	0xbf0060ba	-0.50147593
125	0xbf273946	-0.6532177
126	0xbea45618	-0.32096934
127	0x3b7f9dfa	0.0039004073

fc3.weight f4 [1, 128]
0	0x3c84b96e	0.016201701
1	0x3c3bd674	0.011464704
2	0xbcbeb9c6	-0.023281943
3	0xbbc0e3ca	-0.0058865296
4	0xbc84de7c	-0.01621937
5	0x3cd904fa	0.02649163
6	0x3cbfadda	0.023398329
7	0xbd637dd9	-0.05553994
8	0xbc18d985	-0.009329204
9	0x3caa275b	0.02077072
10	0x3c5a99b6	0.013342312
11	0x3a1cb5d8	0.00059780246
12	0xbca44be7	-0.020055724
13	0xbaeec74c	-0.0018217354
14	0x3cdabf0f	0.026702432
15	0xbcda77f0	-0.026668519
16	0xbcc85cdd	-0.024458343
17	0x3c8333b8	0.016015872
18	0xbcc5569d	-0.024089152
19	0xbd06ddf1	-0.032926504
20	0xbb912d9a	-0.004430485
21	0x3bfc8768	0.0077065714
22	0xbc60c538	-0.013718896
23	0x3d8a3b06	0.06749539
24	0x3cf21b42	0.029554013
25	0x3ad4af40	0.0016226545
26	0x3c798c65	0.015231227
27	0xbcabddd5	-0.020979801
28	0x3c4248e6	0.011858201
29	0x3b3f0a67	0.0029150487
30	0x3d977bf8	0.07396692
31	0x3c935180	0.017983198
32	0x3c8ad210	0.016945869
33	0x3c2d3631	0.010572002
34	0x3c61450b	0.013749371
35	0xbcb0fb1d	-0.021604115
36	0xbc8671ed	-0.016411746
37	0x3c6f32a8	0.01459948
38	0x3d17ceba	0.037062384
39	0xbc9421d9	-0.018082546
40	0x3c6ef28d	0.014584196
41	0xbc36a683	-0.011148098
42	0x3cfd3c4e	0.030912545
43	0xbb90cfb6	-0.0044192923
44	0xbacfb068	-0.001584542
45	0x3b8066c8	0.0039185025
46	0x3c26cd0a	0.010180721
47	0x3cc8e632	0.024523828
48	0xbc84a789	-0.016193168
49	0xbd22ea0c	-0.039773986
50	0x3d5b7eb9	0.05358765
51	0xbcd83ad8	-0.026395246
52	0x3d0da87c	0.034584507
53	0xbce26c9b	-0.027639678
54	0x3c20a8f2	0.009805905
55	0x3c0386ec	0.008027773
56	0x3b5e82b8	0.0033952426
57	0xbaf948a2	-0.0019018839
58	0x3cc9c525	0.024630139
59	0x3bb64dda	0.00556348
60	0x3ce4bb69	0.027921395
61	0x3ceff8be	0.029293414
62	0x3da14c1d	0.078758456
63	0xbc390fd6	-0.0112952795
64	0x3c5046db	0.012712206
65	0x3d58139b	0.052753072
66	0x3b21d9c7	0.0024696456
67	0x3da7c0ea	0.08191092
68	0x3ab2e069	0.0013647202
69	0xbc382c95	-0.011241098
70	0x3bb4c559	0.0055166897
71	0xbc83cd42	-0.016089085
72	0xbbc32fab	-0.00595661
73	0x3c8ed327	0.01743467
74	0x3bea2235	0.007145191
75	0xbcb49341	-0.022042872
76	0xbc9f8db9	-0.019476758
77	0xbb9f1808	-0.0048551597
78	0xbd7b9317	-0.061419573
79	0x3d09c8af	0.033638652
80	0xbd0d76c0	-0.034537077
81	0x3b4861e9	0.0030575937
82	0xbb91e362	-0.004452155
83	0x3c4dddc8	0.012565084
84	0x3c410a56	0.011782249
85	0xbd0ebf9b	-0.034850698
86	0xbd08429f	-0.03326666
87	0x3b93b6ff	0.004507899
88	0x3bbb7cdf	0.005721673
89	0x3ba47aa4	0.0050195027
90	0x3ab9f06e	0.0014186034
91	0x3a324485	0.00068003713
92	0xbc01bc2c	-0.007918399
93	0x3c0e4571	0.008683548
94	0xbc4a1295	-0.012333532
95	0x3e8d1791	0.27557042
96	0x3c1adce6	0.00945208
97	0xbc9f531e	-0.019448813
98	0x3c2fe0c8	0.010734744
99	0x3cbb44e8	0.022860005
100	0x3acaa89d	0.0015461628
101	0x3d5361e9	0.051607046
102	0xbcb81da7	-0.022475077
103	0xbcaa7a20	-0.020810187
104	0x3c1540ab	0.009109656
105	0xbd057b83	-0.032588493
106	0x3d5713d6	0.05250915
107	0xbc5dc184	-0.013534907
108	0xbd64c869	-0.05585519
109	0xbc82c9fe	-0.015965458
110	0xbb4894dd	-0.0030606308
111	0xbafd7c03	-0.0019339327
112	0x3ce21255	0.027596632
113	0x3cee8a72	0.02911875
114	0x3b633c48	0.0034673382
115	0xbcf41968	-0.02979727
116	0x3d0cc670	0.034368932
117	0xbd3cd4a5	-0.04610123
118	0xbd53e093	-0.051727843
119	0x3c87b1a5	0.0165642
120	0x3d51c86f	0.05121654
121	0xbc4dc9b8	-0.0125603005
122	0x3d2776ea	0.04088489
123	0xbbd59c05	-0.006518843
124	0xbd1eced7	-0.038771477
125	0x3dc169cf	0.094440095
126	0x3cb4f319	0.022088574
127	0x3cbbbe32	0.02291784
