training_output/best_agent/checkpoints/episode_638/weights_actor_target.pth (torch_old, 83672 bytes, 10 tensors)

fc1.weight f4 [128, 24]
000000 c4 92 be 3f e4 3a a3 bf 4f 25 17 bf 2f 55 1f c0
       1.4888539 -1.2752347 -0.59041303 -2.4895742
000010 24 bc f6 bf 68 41 6a 3e be 75 0b bf 6f ba 1d c0
       -1.9276166 0.22876513 -0.54476535 -2.464504
000020 e3 78 bc 3f eb 9f d5 bf 5f fe cc bc e9 74 c7 bf
       1.4724392 -1.6689428 -0.025023637 -1.5582553
000030 d2 d5 0b c0 63 74 a5 3f 72 eb b4 bc aa 78 c1 bf
       -2.1849256 1.2926143 -0.022084925 -1.5114949
000040 ec 96 04 40 5a 56 c0 bf 42 aa 40 bf df c7 5c 3f
       2.0717115 -1.5026352 -0.7525979 0.8624248
000050 f1 c6 18 c0 6e 7f 4b 3f 29 ae 2f bf 3a 14 81 3f
       -2.3871424 0.7949132 -0.6862512 1.0084298
000060 67 e7 12 3d 4c b1 e5 3f 0e 2a 0d 3f 78 0a 44 bf
       0.035865214 1.7944732 0.55142295 -0.76578474
000070 35 b2 a3 3f 47 31 86 bf 71 1e 05 3f 5a 99 68 bf
       1.278876 -1.0483788 0.51999575 -0.90858996
000080 92 16 fc 3b 3d 3e ca 3f e2 5e 7b 3f 9c 65 d5 bc
       0.0076931203 1.5800244 0.98191655 -0.026049428
000090 9f b6 aa 3f 8f 81 1e c0 b7 be 77 3f 64 d8 93 bd
       1.3336982 -2.4766576 0.9677538 -0.072190076
0000a0 2c f4 f3 3c e9 6b be 3f db 97 b6 3e 0c 6b cb 3e
       0.029779516 1.4876682 0.35662732 0.39730108
0000b0 a8 da 9f 3f ac a6 8e c0 b6 ae d5 3e 2f e2 be 3e
       1.2488604 -4.4578457 0.41734856 0.3728194
0000c0 24 e9 9b 3f d6 13 2a c0 50 18 b0 be f6 ca 0a bf
       1.2180524 -2.6574607 -0.3439355 -0.54215944
0000d0 3d 9d 09 bd 33 b9 14 c0 80 4a c2 be 55 9e ca be
       -0.03359722 -2.3238037 -0.37947464 -0.39573923
0000e0 7e 61 75 3f 1d b5 20 c0 60 bb aa bf a8 ae 17 bf
       0.95851886 -2.5110543 -1.3338432 -0.5925088
0000f0 83 c7 9e be e4 dc 02 c0 f6 70 a1 bf 33 dd 1c bf
       -0.3101159 -2.044732 -1.2612598 -0.61275023
000100 75 d4 a6 3f f3 6d 32 c0 2f 5d 90 3f f2 36 d3 bf
       1.3033587 -2.7879608 1.1278437 -1.6501143
000110 b2 4a 87 bf 0e fb 83 bf 8c 99 8d 3f e6 5e d5 bf
       -1.056967 -1.0310991 1.1062484 -1.6669586
000120 4f 40 1f 3f bb 56 c3 c0 fa 3f ee be f8 35 72 3f
       0.622075 -6.104337 -0.46533185 0.946136
000130 7d e5 dd 3f ae f6 dc bf 35 93 0e bf 77 d7 6c 3f
       1.7335659 -1.7262781 -0.5569337 0.92516273
000140 f1 79 85 3e ea 40 b6 c0 47 c8 95 3d 98 ee 58 3f
       0.26069596 -5.695424 0.073135905 0.84739065
000150 1e 7c 86 3e 93 2e 34 3f 9e ac 7c 3c 89 b7 46 3f
       0.2626657 0.70383567 0.0154220145 0.776238
000160 c4 32 9b 3f 21 67 9e c0 34 4a fb 3e 08 76 09 bf
       1.2124867 -4.950089 0.4908005 -0.53695726
000170 ab 1b ad bf b2 6d e3 3f 2e 30 03 3f 67 4c 0e bf
       -1.3524069 1.7767851 0.5124539 -0.5558533
000180 b3 ff af be 2a 5b 12 3f 48 bd ff be 7a d3 bf 3f
       -0.3437477 0.57170355 -0.49949098 1.4986413
000190 ec 5c 70 3f ae c4 33 3f 52 14 f8 be 13 b0 c7 3f
       0.9389179 0.70221984 -0.48453003 1.5600609
0001a0 ea b0 04 3e c4 fb ec 3f f2 6e de be ea 94 19 40
       0.12958112 1.8514333 -0.4344402 2.399714
0001b0 d0 ea d4 3f d8 2e 86 3f 07 a9 d3 be 40 25 1d 40
       1.6634159 1.0483046 -0.41339895 2.4553986
0001c0 ee 23 c2 be 79 a2 1a 40 89 2f 18 bf e0 3b cf 3f
       -0.37918037 2.4161665 -0.5944753 1.6190147
0001d0 ee d4 27 40 2c 0c 09 40 23 ca 0d bf 80 5e ca 3f
       2.6223712 2.141368 -0.5538656 1.5810089
0001e0 ab 73 7d bf 9a 06 3d 40 a6 a7 87 3d 95 38 e4 be
       -0.9900462 2.953528 0.06623773 -0.4457442
0001f0 23 34 7c bf e7 9e 0a c0 dd 35 20 3d 7c 2a cb be
       -0.98517054 -2.1659486 0.039113868 -0.3968085
000200 67 6b 92 bf 52 7a 46 40 9e e6 98 3d 4a ec 82 bd
       -1.1439027 3.1012158 0.07465862 -0.06392725
000210 8b 9b f9 bd 61 98 89 c0 ad 22 ba 3d 55 97 ce bd
       -0.121878706 -4.299851 0.09088645 -0.10087458
000220 de 38 bb bf 1c e7 4f 40 f6 db 4b be 67 89 8b 3f
       -1.462673 3.2484808 -0.19908127 1.0901307
000230 ff 3c ff 3e e5 be ec c0 2f 57 1e be c8 a8 98 3f
       0.49851224 -7.3983026 -0.15462945 1.1926508
000240 ed e9 dc 3d 3d 05 d5 be d3 48 95 bf 20 33 20 c0
       0.10786805 -0.4160556 -1.1662849 -2.5031204
000250 b9 2f a3 bd 1c 34 21 c0 ec 5e 8f bf a5 72 20 c0
       -0.07968087 -2.5188055 -1.1200843 -2.5069973
000260 b1 fc d6 3d 0e 52 a3 bf 98 11 a3 be 77 da cc bf
       0.10497416 -1.2759416 -0.3184936 -1.600417
000270 35 84 27 3e 6a 03 0a c0 d4 35 7f be 68 2c d6 bf
       0.16359027 -2.1564584 -0.24922878 -1.6732302
000280 94 95 cb 3e 8a 3e ef bf 28 f8 17 3f 1d 7e 1e bf
       0.39762557 -1.869096 0.5936303 -0.61911184
000290 22 3c 14 3f 01 c2 b6 bf ac 08 37 3f 1c 23 0d bf
       0.57904255 -1.4277955 0.7149761 -0.551317
0002a0 c6 30 c9 bd 46 15 6d c0 bb 43 7c be 99 12 bf be
       -0.09823756 -3.7044234 -0.24635212 -0.37318876
0002b0 89 20 0f 40 91 35 8b bf a8 a0 b2 be 58 a1 e9 be
       2.2363608 -1.0875722 -0.34888196 -0.45630908
0002c0 67 3b 3f be 46 50 75 c0 ee c2 cf 3e 4d 91 9e bf
       -0.18675004 -3.8330245 0.40578407 -1.2388092
0002d0 11 02 c3 3f e1 c0 11 bf 07 ef e7 3e d0 ee 95 bf
       1.5235006 -0.56934935 0.4529955 -1.1713505
0002e0 ec f6 3b 3f 95 28 6c c0 5e 35 a9 3f c1 52 1c bf
       0.7342365 -3.689977 1.3219411 -0.6106377
0002f0 d5 02 06 3f 5c ae 0f bf 2d e2 a2 3f e8 c0 1e bf
       0.5234807 -0.56125426 1.2725273 -0.620131
000300 8d 26 18 3f 6d 6b 20 3f bf 1f 05 3e 8f 8f 6e bf
       0.59433824 0.6266392 0.13000391 -0.93187803
000310 68 6c f3 bf 29 26 ad bf d1 29 e5 3d 33 1e 7b bf
       -1.9017458 -1.352727 0.111896165 -0.98092955
000320 33 de 3b 3f 37 21 88 3e 4e 6b bb be 3f 3c ec bf
       0.73385924 0.2658784 -0.36605304 -1.8455886
000330 cd e7 9a bf 9d eb f1 bf 2b 8d 97 be 41 91 f3 bf
       -1.210199 -1.8900028 -0.2959989 -1.9028703
000340 19 58 ac 3f b6 bf d6 bc e1 ac c5 3e 75 62 38 c0
       1.3464385 -0.026214462 0.3860846 -2.8810093
000350 f0 43 35 bf c5 c1 f0 bf 44 41 c9 3e 76 0e 3d c0
       -0.7080679 -1.8809134 0.39307606 -2.9540076
000360 cd 9c 43 3f 02 ec 2d c0 4b 31 b0 3e df 78 1a 3f
       0.76411134 -2.7175298 0.34412608 0.60340685
000370 a5 66 e4 bf 8b 86 cf bf 2a 5f 58 3e a5 23 13 3f
       -1.7843825 -1.6212934 0.21130052 0.57476264
000380 3a 48 40 3f b6 32 23 c0 a4 91 93 3e cd 05 22 3e
       0.7511021 -2.5499701 0.28822052 0.15822525
000390 86 f8 fb bf 6f cd d6 bf 0c fa 4b 3e 08 7d 9f 3d
       -1.9685218 -1.6781443 0.19919604 0.0778752
0003a0 85 65 da 3f 5e 6c 37 c0 eb f8 c1 3e a2 a7 13 c0
       1.7062231 -2.8659892 0.37885222 -2.3071065
0003b0 ca 3e 0d c0 00 78 3a bf 7e 90 fd 3e d8 57 13 c0
       -2.2069573 -0.72839355 0.495243 -2.3022366
0003c0 3e ab 19 3e 71 d5 15 40 da 61 cf 3e d4 f2 4e c0
       0.1500673 2.3411524 0.40504342 -3.233571
0003d0 a0 e3 1c 3c 8d 5a 8a 3d 4a b4 cb 3e f5 cf 47 c0
       0.009575754 0.067555524 0.39785987 -3.1220677
0003e0 1f 3e 51 3f dc 96 d0 3f 72 1a 60 3f 02 d0 28 c0
       0.81735414 1.6296039 0.8754035 -2.6376958
0003f0 f6 5d 8a 3f 5e b6 3c 3d b8 1c 64 3f b4 bc 27 c0
       1.0809925 0.046072356 0.8910632 -2.6208925

fc1.bias f4 [128]
000000 28 7d 10 c0 c1 c8 ca be 04 ee 37 bf 99 dc b2 be
       -2.257639 -0.39606288 -0.7184756 -0.34933928
000010 c5 29 ec bf e0 32 77 3e eb 27 55 bf bb db 69 be
       -1.8450247 0.24140501 -0.83264035 -0.22837727
000020 77 68 a6 bf ca e6 33 bf 48 68 d9 be 30 12 32 bf
       -1.300063 -0.7027403 -0.42462373 -0.69559
000030 ce b5 aa be cf 38 9a bf e6 29 f2 be e3 b2 82 bf
       -0.3334183 -1.2048587 -0.4729759 -1.0210842
000040 7c db ee be 36 a5 25 bf 83 f8 1e c0 ad 99 02 bf
       -0.46651828 -0.64705217 -2.483918 -0.5101574
000050 db 3d 25 bf 13 bd ed bf a5 ed 6f bf 7f 8e d7 3d
       -0.6454751 -1.8573326 -0.9372199 0.10525226
000060 c1 0a bc bf ae 1f ef bf a5 86 09 bf 6a 35 d5 bf
       -1.4690782 -1.8681543 -0.53721076 -1.6656926
000070 a0 53 09 c0 8a 5d 4d be 11 41 14 3d e9 b9 e5 3f
       -2.145729 -0.20055214 0.036194865 1.794736
000080 ce 4d e6 3f 1f c7 14 bf ca aa 0e c0 f1 fa 23 3d
       1.7992494 -0.58116335 -2.2291741 0.04003424
000090 95 df 38 bf 6e fe d3 3b 6f e4 1d c0 bb 3b b8 bf
       -0.7221616 0.0064695394 -2.4670675 -1.4393228
0000a0 a7 90 1a bf e0 6b 21 bf c6 39 94 bf 97 99 6a 3f
       -0.6037697 -0.6305523 -1.1580131 0.9164061
0000b0 55 47 df bf 79 a7 9e bf b4 62 28 bf 3e 73 fa bf
       -1.7443644 -1.2394859 -0.6577561 -1.9566419
0000c0 3a c2 88 bf 98 51 86 bf a0 41 76 be d4 99 e1 be
       -1.0684273 -1.049365 -0.24048471 -0.44062674
0000d0 f4 b0 5b c0 3d 4e 09 3e bd 69 fa be 98 ea f8 bf
       -3.4326754 0.13408752 -0.48908797 -1.9446592
0000e0 0e e8 bf bf 6d 5e 04 3e 96 3c 07 3f 36 f5 9b bf
       -1.4992692 0.12926646 0.5282682 -1.2184207
0000f0 48 e5 80 bf 10 c8 78 bf 36 e3 4f bf 72 29 ac 3d
       -1.0069971 -0.9718027 -0.8120607 0.084063426
000100 bc 55 1f bd 70 df d7 bc fa 4a 5b bf 5a 02 cc bf
       -0.038900122 -0.02635166 -0.8566128 -1.5938218
000110 31 10 8f bf ab a3 2a c0 d0 80 08 c0 3e ac 94 be
       -1.1176816 -2.6662395 -2.132862 -0.2903766
000120 f0 10 5a 3e da b4 89 bf 19 7c 25 3f 8e a9 42 3d
       0.21295524 -1.0758317 0.64642483 0.04752498
000130 0f 23 66 bf 85 85 47 3e d1 46 b7 3e 15 56 c5 3f
       -0.89897245 0.19484527 0.35796216 1.5416895
000140 a7 d6 1a c0 ec 2f ab bf 09 15 f1 bf c6 fc 2e bf
       -2.4193513 -1.3374 -1.8834544 -0.6835445
000150 89 78 ad bf 50 39 9e bf 09 e0 25 bf 48 99 e2 bf
       -1.355241 -1.236124 -0.64794976 -1.7703028
000160 8e 08 20 c0 9c d9 0e c0 9e 0e 07 c0 20 8b 6b be
       -2.5005221 -2.2320318 -2.1102672 -0.2300229
000170 86 a4 23 bf a3 2f 72 bf 10 9b b9 bf b6 4c d4 bf
       -0.6392292 -0.9460394 -1.4500446 -1.658591
000180 6a 95 0e bd e6 c4 61 be 9f dd e6 be 82 6e 54 bf
       -0.03481046 -0.22047767 -0.45090958 -0.8298112
000190 ef 6a 42 3f ed ca e0 bf 41 78 8d bd 28 82 a9 bf
       0.7594442 -1.7561928 -0.06907702 -1.3242846
0001a0 bf 46 0a c0 35 85 2c 3f ec 74 26 3e 66 ea 82 3f
       -2.160568 0.6739076 0.1625554 1.0227783
0001b0 62 4b 00 c0 fb 78 3a bf d8 c2 0c c0 56 d8 bb be
       -2.004601 -0.7284085 -2.1993923 -0.3668849
0001c0 25 8a d6 bf 40 32 76 be e5 a1 b2 bf 57 2a 3e bf
       -1.6760908 -0.24042606 -1.3955656 -0.74283355
0001d0 42 a1 83 bf db 3f 30 3f a7 ea bd bf 7d b6 61 bf
       -1.0283587 0.68847436 -1.4837235 -0.8816908
0001e0 b4 96 04 c0 ff d9 f3 bf 99 0b 48 3c 80 b4 c7 bf
       -2.0716982 -1.9050902 0.012209796 -1.5601959
0001f0 e7 7e cf bf e3 d2 f3 bf 0a 98 38 bf fd 90 a0 bf
       -1.6210603 -1.9048733 -0.72106993 -1.2544247

bn1.weight f4 [128]
000000 8d 0b a1 be 60 b2 63 3e f6 e4 8b 3e a1 bd 6b 3f
       -0.31454125 0.22236013 0.2732312 0.92086226
000010 b0 c8 09 3f 23 46 85 40 e3 71 81 bd 45 80 eb 3d
       0.5382185 4.1648116 -0.0632055 0.11499075
000020 c7 aa 7d 3e d7 28 cf 3f 74 ee 48 3f 50 2f 04 40
       0.24772178 1.6184338 0.7848885 2.0653877
000030 79 91 42 40 e8 9a da 3f 46 6d 37 3e e7 d1 ce 3e
       3.040129 1.7078524 0.17912778 0.40394518
000040 24 34 a4 3f ec a8 d4 3f 00 c8 c5 3f 51 79 93 3f
       1.2828412 1.6614051 1.545166 1.1521398
000050 90 45 4d 40 18 0d 7c 3e c4 c4 52 3f e8 ff a3 3f
       3.2073708 0.2461437 0.8233149 1.2812471
000060 e0 61 3c 3f 8e 68 05 40 ce fc 52 3f 63 42 3f 3e
       0.73586845 2.0845065 0.82417 0.18677668
000070 c5 af 85 3f c1 82 d5 3f c8 0a b2 3e e4 d5 4c 3f
       1.0444266 1.6680528 0.3477385 0.8001387
000080 3d 20 60 3f 38 86 06 40 7d 3f 85 bd db 20 3e 3d
       0.8754919 2.101942 -0.0650625 0.046418052
000090 75 3f dd 3f cb 03 09 3f 6d df b3 3e 37 ec 00 40
       1.728499 0.5352141 0.35131398 2.0144174
0000a0 3c 6f 84 be 56 57 19 40 72 bc 56 bc 89 b4 57 3e
       -0.25866115 2.3959556 -0.013106452 0.21064962
0000b0 4a 74 ed 3e 92 9d 01 40 61 a1 ba bd e1 7f e2 3f
       0.46377784 2.0252423 -0.09112812 1.7695276
0000c0 bf d7 eb 3f 02 b7 cc bf e0 65 44 40 4f 44 b9 3f
       1.8425215 -1.599335 3.068718 1.4473971
0000d0 2d c1 ba 3f 7a 13 fe 3b 23 1d 83 bd d9 4f bf 3d
       1.4590203 0.0077537866 -0.06402042 0.093414016
0000e0 e7 bd 1b be 0d 1b b5 3f 59 35 1e 3e f9 f8 0b 3e
       -0.15209161 1.414888 0.15450038 0.13669194
0000f0 02 89 89 be 0e 36 15 40 5e 76 b0 3e 7b 48 44 40
       -0.2686234 2.3314242 0.34465307 3.0669239
000100 16 7f 7a 40 16 7b fc 3f d1 82 ae 3f 78 14 24 40
       3.9140067 1.9725063 1.3633672 2.5637493
000110 3a 83 51 40 e1 c1 1a 40 ae ae 58 3f f2 be b4 3f
       3.2736344 2.4180834 0.8464154 1.4120772
000120 8c ec ad 3f 45 31 0f 40 21 46 44 40 f6 52 07 bf
       1.3587813 2.2373822 3.0667803 -0.52860963
000130 70 91 19 3e f0 1a 14 be 7e a7 e5 3f e9 e4 06 40
       0.14996886 -0.14463401 1.794174 2.1077216
000140 ec 8f 18 40 46 d4 20 40 b4 4a 93 40 d3 ed e6 3f
       2.3837843 2.5129561 4.602869 1.8041328
000150 dd a9 d3 3f 24 95 8b 3f de 83 5a 3f 5b 2a d4 3f
       1.6536213 1.0904889 0.85357463 1.6575426
000160 e2 64 4b 40 cb b1 0f 40 65 3d de 3f d1 af 80 be
       3.1780324 2.2452266 1.7362486 -0.25134137
000170 9f 40 24 40 16 52 4c 3f cf e8 07 3f 7e c0 92 3f
       2.5664442 0.79812753 0.5308961 1.1464994
000180 22 f0 86 3c de ee b8 3f fe a3 5b 3e b8 d7 c1 3f
       0.016471926 1.4447896 0.21449277 1.5143957
000190 f9 2a ab 3f f6 d9 2b 40 e0 ad 92 3f c9 83 2b 40
       1.3372489 2.6851783 1.1459312 2.6799185
0001a0 7a 4a 13 40 c8 b5 9f be 98 6a a1 3f a6 a5 11 3e
       2.3014207 -0.31193376 1.2610655 0.14223346
0001b0 d8 3e 9c 3e 93 90 c1 3c 1b a5 92 3f eb f1 06 40
       0.30516696 0.023628509 1.1456636 2.1085155
0001c0 04 14 78 3f 9a 1d 17 40 8a d6 58 3f 80 48 19 3e
       0.9690554 2.3611817 0.8470236 0.14969063
0001d0 84 5c a0 3f 2d c4 b0 3f 6e e8 ca 40 61 58 bc 3f
       1.2528234 1.3809868 6.340873 1.4714471
0001e0 6e ea 9b 3f 5a 67 f8 3e 11 d8 c7 3f 3d c9 ea 3f
       1.2180917 0.4851635 1.5612813 1.8342663
0001f0 c0 b3 d3 3d 7b 5f 2a 3f 79 0f 9d 3d eb bb 43 40
       0.10337019 0.6655194 0.07668967 3.0583446

bn1.bias f4 [128]
000000 f8 a1 fd bd 6a 1a 70 bd 1a 01 d4 3d 8f 5e 96 3f
       -0.12384409 -0.05861894 0.103517726 1.1747607
000010 40 d4 d2 3d 43 b2 5a 3f ea cd 69 3e 23 dd c1 3e
       0.1029439 0.85428256 0.22832456 0.37864026
000020 cf 8c 48 3e d0 b0 de 3e 74 b8 73 3e 10 86 93 3f
       0.19584964 0.43494272 0.23800832 1.1525288
000030 57 1c aa 3e 79 38 16 bf 15 fa 08 bf ea 32 2f be
       0.33224747 -0.5867992 -0.53506595 -0.17109266
000040 a6 58 c8 3f c3 c0 05 3e e6 d9 b8 bf 4a 96 b7 3e
       1.5652053 0.13061814 -1.4441497 0.3585685
000050 34 08 72 bf 4f 14 2d bf 72 b8 89 3e 1d a4 95 3f
       -0.94543767 -0.67609113 0.26898533 1.1690708
000060 54 ee b4 be 27 95 22 3f 0f 0e e7 be b1 3f c9 3d
       -0.3533808 0.6350884 -0.45127913 0.09826601
000070 6a 0c fd 3d 87 c8 87 3f 00 f4 6e 3e 06 44 8a bf
       0.123558834 1.0608071 0.23335266 -1.0802009
000080 ce d8 06 bf cc bd 8a be 2f 7a 0a be 6e 7f a5 3b
       -0.5267457 -0.2709793 -0.13523172 0.005050591
000090 04 f1 21 3f 44 48 a1 bf e3 68 be 3d 42 d0 6e 3e
       0.63258386 -1.2600179 0.09297349 0.23321632
0000a0 67 cb c0 bc 6a 61 65 3e 91 10 04 3e 42 65 e5 bd
       -0.02353449 0.22400442 0.12896945 -0.11200954
0000b0 62 10 5f 3e eb 65 fd 3e 6d 88 f8 bd 68 e5 02 3f
       0.21783593 0.4949182 -0.12135396 0.51131296
0000c0 eb d0 04 3f 00 bc 12 3f 35 6e e2 3e 6f a5 82 3f
       0.51881284 0.57318115 0.44224706 1.0206736
0000d0 17 19 b3 bf fc fe 9e bc 97 72 cb bd fb 19 3e 3e
       -1.3992032 -0.019408695 -0.09933966 0.18564598
0000e0 5f 51 8b bd 13 52 00 3f 6e 3d 2b 3c 34 e5 f4 3c
       -0.0680263 0.50125235 0.010451658 0.029894449
0000f0 f4 4a da 3d ad 3d 94 3f c9 93 49 3e 9f ac e5 3e
       0.106588274 1.1581322 0.19685282 0.44858262
000100 ef c2 d8 3e f2 00 42 3f 59 f4 55 3e 66 5e 5e 3f
       0.42336223 0.7578269 0.20893992 0.8686279
000110 f2 66 0b 3f 9c 55 6a 3d 44 25 a6 bd 44 03 2d 3f
       0.5445396 0.05721055 -0.081125766 0.6758311
000120 ec 37 94 3f 79 f2 e0 bf f1 c2 b4 bf 15 bc cd be
       1.1579566 -1.7573997 -1.4121991 -0.40182558
000130 9e 67 22 be f3 11 9b be 07 7e 5e 3f d3 fa 39 bf
       -0.1585984 -0.30287132 0.8691105 -0.7264835
000140 e0 de bf bd ed 5c 40 3f d5 54 5a bf 57 05 ce 3f
       -0.09368682 0.75141793 -0.85285693 1.609538
000150 04 b2 14 3f 0a 71 c9 3e e5 8b 0c 3f 42 e0 20 3e
       0.5808413 0.39344054 0.5490096 0.15710548
000160 d4 7e f0 3e a9 02 88 3e aa f1 cc 3e 96 8d 89 be
       0.46971762 0.2656453 0.40028125 -0.26865834
000170 fc b4 dd 3f f5 ac 63 bf 89 e2 42 3d 13 77 f3 3e
       1.7320857 -0.88935786 0.047579322 0.47551784
000180 65 a6 8f bd 76 2b 20 3f 7d ab 8f be 10 40 7f 3e
       -0.07014159 0.62566316 -0.28060523 0.24926782
000190 8a 7e 8e 3f fc 11 04 3f 15 36 35 3f 3b 0c 3f 3e
       1.1132367 0.5158994 0.7078565 0.1865701
0001a0 27 bc ce be 89 2e c4 bd 10 93 20 3f c5 2d 30 be
       -0.40377924 -0.095791884 0.627244 -0.1720496
0001b0 75 01 01 3d f5 bf 84 3d ff 6a e0 bc 74 75 a2 3e
       0.03149553 0.064819254 -0.02739477 0.31730235
0001c0 75 2e a4 3d 3b d0 74 3f a7 5e c6 3d f4 93 8d 3e
       0.080166735 0.95630234 0.09686022 0.27651942
0001d0 93 7c 1d 3d 99 e7 44 3f 4c c7 07 bf 24 88 0d 3f
       0.03844888 0.7691589 -0.5303848 0.5528586
0001e0 3c ed 84 bf 58 83 a0 3b 78 0b 9c 3f ef ad a2 3f
       -1.0384898 0.00489847 1.2191 1.270933
0001f0 c4 5b 70 3e 2b 30 14 be 0d b3 3a 3e 0c 22 95 3f
       0.23472506 -0.144715 0.18232365 1.1651015

bn1.running_mean f4 [128]
000000 fd 6f ee 40 6e c3 ce 41 ca ba d9 40 f9 cb 42 41
       7.4511704 25.845425 6.8040514 12.174798
000010 89 72 c4 41 36 7b 13 40 bd 08 10 41 96 43 12 42
       24.555925 2.3043952 9.002133 36.566
000020 56 3a d7 40 0c f3 0e 41 74 13 f1 41 36 ff 82 41
       6.725871 8.934338 30.134499 16.374615
000030 b1 e1 55 42 f1 ad bc 41 b7 ff 30 41 37 78 8a 42
       53.4704 23.584932 11.06243 69.234795
000040 cc c5 2c 42 08 0a 41 3e 55 4c d4 41 32 2d 70 41
       43.19316 0.18851483 26.537271 15.011034
000050 c7 c8 0e 42 2f 0b bd 3f 35 f2 82 41 08 4b 49 42
       35.69607 1.4769038 16.368265 50.323273
000060 07 94 a1 42 f9 68 84 41 af 09 94 40 59 89 90 40
       80.789116 16.551256 4.626182 4.516766
000070 e1 3c 92 42 e3 e7 f7 41 af 6b a8 41 ad 21 6b 42
       73.118904 30.988226 21.05258 58.782887
000080 c3 0f 00 42 04 91 6f 40 05 11 27 40 31 3d 7c 42
       32.015392 3.743226 2.6104138 63.059757
000090 c2 5a 6e 41 09 f3 0e 42 0e ea 4b 41 94 9c 69 41
       14.897158 35.73734 12.744642 14.600727
0000a0 fb 5a 1b 41 4b 3e 81 3f d4 8b b6 41 46 94 91 42
       9.709712 1.0097135 22.818275 72.7896
0000b0 45 a5 6e 40 29 5a 22 41 b9 3c 34 40 fc 38 fd 40
       3.7288373 10.147012 2.8162062 7.913206
0000c0 c5 bd 6a 40 40 64 e6 40 1c 78 19 42 91 29 34 42
       3.6678326 7.1997375 38.367294 45.040592
0000d0 cd 2f bf 41 b3 9c f5 41 ef ac fc 41 a6 61 95 3c
       23.89834 30.701513 31.58444 0.018235039
0000e0 98 50 61 3e 45 44 44 42 ae 90 24 42 5e 7f 50 41
       0.220034 49.06667 41.14129 13.0310955
0000f0 ae 80 b5 3f a9 8b fc 41 be b2 0e 41 06 91 15 40
       1.4179895 31.568193 8.918638 2.3369765
000100 d9 b6 55 40 76 33 2e 42 05 64 8e 41 f6 f1 88 42
       3.3392851 43.550255 17.798838 68.47258
000110 9f af 11 40 6d fc 39 40 5a e3 96 42 ee 21 a1 41
       2.276344 2.9060318 75.444046 20.141567
000120 ad c2 5e 42 c0 37 27 42 d5 24 15 42 d4 af a3 41
       55.690113 41.804443 37.28597 20.460854
000130 ea 9f 04 41 56 d9 e3 41 13 75 53 41 dd 0d 10 42
       8.2890415 28.481121 13.216083 36.01354
000140 7b 12 bb 42 a7 01 a9 41 0f 0f 04 42 64 0b 0f 42
       93.536095 21.125807 33.014706 35.761124
000150 da 68 ae 40 50 69 78 41 89 b4 16 41 5e db dd 40
       5.4502993 15.525711 9.419076 6.933028
000160 98 ad 9f 42 e4 51 9a 42 35 a1 45 41 37 5c 2d 42
       79.83905 77.15994 12.351857 43.340054
000170 39 c8 65 41 71 f4 ce 41 f1 8e cd 3f 23 6c 20 41
       14.3613825 25.869356 1.6059247 10.026401
000180 01 b0 42 42 a3 b1 5c 42 8c 2f a0 42 8a 5c 95 41
       48.67188 55.173473 80.092865 18.670185
000190 7c c7 f0 41 59 33 b9 42 86 8f b8 41 06 16 0a 42
       30.097404 92.60029 23.07008 34.521507
0001a0 9d f1 8a 41 5a 20 0d 42 14 5d 29 41 2a 57 39 42
       17.367975 35.281593 10.585224 46.33512
0001b0 91 ab 60 3e 75 d3 97 40 81 1f 6f 3f 19 f1 8f 41
       0.21940447 4.7445626 0.93407446 17.992723
0001c0 04 00 00 00 c7 37 f1 41 26 49 2f 3f 78 04 d8 41
       6e-45 30.152235 0.6847099 27.002182
0001d0 3f 84 10 40 10 2a 21 42 88 97 1f 42 81 6d 2a 40
       2.2580717 40.291077 39.89798 2.6629336
0001e0 d4 8c 8d 41 04 00 00 00 1a a8 b9 41 6c ee 2c 41
       17.693764 6e-45 23.20708 10.808208
0001f0 85 93 dc 40 dd 2e 38 3f ec df c7 41 70 ab b3 42
       6.8930078 0.7194651 24.984337 89.83484

bn1.running_var f4 [128]
000000 9b 83 d8 43 6d 48 e4 44 da 58 dd 43 b5 b9 97 43
       433.02817 1826.2633 442.69415 303.45084
000010 2e b7 7b 44 e1 9c 79 42 93 b1 fe 43 ba 73 21 45
       1006.8622 62.403202 509.3873 2583.233
000020 2a da a5 43 f7 fc a5 43 5c aa 10 45 7a e1 33 44
       331.7044 331.9763 2314.6475 719.5231
000030 b9 af 00 44 1c 23 83 44 64 4d 33 44 03 38 44 44
       514.74567 1049.0972 717.2092 784.8752
000040 7e 86 43 45 39 df d8 40 16 7f 60 44 64 b5 2c 44
       3128.4058 6.777249 897.9857 690.8342
000050 79 92 d4 44 3a de 2b 42 b9 48 69 44 43 be 91 45
       1700.5773 42.96702 933.1363 4663.7827
000060 cf 66 06 45 13 cb 2c 44 24 c5 2b 43 bc 57 80 43
       2150.4255 691.17303 171.77008 256.68542
000070 d8 20 a4 44 8f c5 00 45 15 b0 8e 44 58 87 df 44
       1313.0264 2060.3474 1141.5026 1788.2295
000080 fd d2 b1 44 2a 07 3a 43 de da c5 42 96 de 38 45
       1422.5934 186.02798 98.927475 2957.9116
000090 0c c0 38 44 a8 c5 94 44 62 67 05 44 49 2d 2a 44
       739.00073 1190.1768 533.61536 680.7076
0000a0 f9 12 68 44 be 02 d8 41 c4 6c b1 44 a1 7b 00 45
       928.29645 27.001339 1419.3989 2055.7268
0000b0 6c 5a 04 43 21 85 17 44 e1 6a 9c 42 ed 78 06 44
       132.35321 606.08014 78.20875 537.88947
0000c0 f2 fd 16 43 10 5a 45 43 ec c6 7c 44 50 84 5e 45
       150.99197 197.3518 1011.10815 3560.2695
0000d0 86 91 31 44 35 33 7d 44 f5 81 24 45 45 12 b9 3e
       710.2738 1012.8001 2632.1223 0.3614675
0000e0 cc d7 68 40 77 9a 87 45 e5 31 09 45 97 1e 85 44
       3.6381712 4339.308 2195.1184 1064.9559
0000f0 f3 32 3c 42 3c 52 8e 44 be 70 de 43 44 99 88 42
       47.049755 1138.5698 444.8808 68.29935
000100 b1 cb a0 42 ab 8e 46 44 f0 36 64 44 a0 75 11 45
       80.397835 794.2292 912.8584 2327.3516
000110 e7 83 8a 42 8c ff cd 42 dc 1d 4e 44 c6 56 f6 44
       69.25762 102.999115 824.46655 1970.7117
000120 00 01 95 45 59 89 0f 45 c5 7f 04 45 f2 e1 0e 45
       4768.125 2296.5842 2119.9856 2286.1216
000130 7d 11 1e 44 c6 ef 12 45 65 03 17 44 ed b1 2e 44
       632.27325 2350.9858 604.05304 698.7801
000140 ed 76 49 45 31 98 92 44 1f e9 57 44 dc 42 c6 44
       3223.4329 1172.756 863.6425 1586.0894
000150 d3 01 a2 43 97 5a 68 44 8c ea 32 44 01 28 c7 43
       324.01425 929.41547 715.6648 398.31253
000160 2d 89 e7 44 0e 7a cb 44 c9 3f 8d 43 81 08 7c 45
       1852.2867 1627.8142 282.49832 4032.5315
000170 6b a1 4c 44 b8 07 80 44 f7 da 14 42 d0 93 83 44
       818.52216 1024.2412 37.213833 1052.6191
000180 4d a0 13 45 64 5e b7 45 9b 5b b3 44 1d aa 33 44
       2362.0188 5867.799 1434.8627 718.658
000190 ce b5 d3 44 a5 1a 72 45 b4 c8 88 44 cc 2f 2b 44
       1693.6814 3873.6653 1094.272 684.7468
0001a0 08 05 d1 43 d4 9d e6 44 11 e8 1b 44 26 4f 36 45
       418.0393 1844.9321 623.62604 2916.9468
0001b0 d2 dd a2 40 4d 51 7b 43 08 9f e9 41 c4 f2 7c 44
       5.0895777 251.31758 29.202652 1011.7932
0001c0 04 00 00 00 a9 b0 c0 44 87 9e e5 41 49 7b f1 44
       6e-45 1541.5206 28.702406 1931.8527
0001d0 32 5f 9b 42 e3 cc 17 44 79 10 fb 43 85 91 00 43
       77.68593 607.20135 502.1287 128.56844
0001e0 88 ba 76 44 04 00 00 00 4b 58 67 44 ce a5 28 44
       986.91455 6e-45 925.3796 674.5907
0001f0 13 82 86 43 8c 84 98 41 6b 1d 55 44 a7 6b b4 44
       269.0162 19.06472 852.45966 1443.3641

fc2.weight f4 [128, 128]
000000 f0 35 c5 3d f8 ad 30 3d 8f 80 9d be 6b b8 56 bf
       0.096294284 0.04313466 -0.30762145 -0.8387515
000010 7c 69 b8 3f 2e ae 2a bf bc f2 ac 3e 9c c4 23 3f
       1.4407191 -0.6667203 0.33778942 0.6397188
000020 55 0b d8 3b 62 0b 86 bf fc 9e bb 3f 74 05 d2 be
       0.0065931478 -1.0472224 1.4657893 -0.41019785
000030 60 35 7d bf 63 c7 7e 3f d2 6d 88 be 15 6a c4 3e
       -0.9890957 0.9952299 -0.26646286 0.38362184
000040 9b 7a 79 3f e2 20 31 bf 28 50 83 be dc d5 e1 3f
       0.97452706 -0.691908 -0.25647092 1.764339
000050 03 2b 76 c0 06 81 5e 3f cb 7e 26 3f 57 d2 24 3f
       -3.8463752 0.86915624 0.6503722 0.64383453
000060 b4 b5 eb 3f d8 cf 4e 40 52 1e 9c 3e 07 14 22 be
       1.8414826 3.2314358 0.30491883 -0.15827952
000070 ea 34 e8 3e 54 8b 01 3f e8 55 50 be f5 4f 6c 3f
       0.4535287 0.5060322 -0.2034527 0.92309505
000080 36 0b af bf 8e 63 85 3f c0 e7 02 bf 0c a1 91 bc
       -1.3675296 1.0421007 -0.5113487 -0.017776988
000090 d9 65 6f 3f f7 2d e7 3d b0 02 c4 be 00 dc f2 3f
       0.9351478 0.11288064 -0.382833 1.8973389
0000a0 20 7a 48 bd 98 63 59 bf 86 6e 7c 3e 6f 9b d1 3f
       -0.048944592 -0.84917593 0.24651536 1.637556
0000b0 0c c8 83 3f 97 d6 08 40 21 91 36 bf 37 98 c9 3e
       1.0295424 2.1380975 -0.713152 0.39373943
0000c0 00 4f e3 bf 68 50 00 bf 2e c2 ae 40 cc fa 62 3f
       -1.7758484 -0.5012269 5.4612036 0.88663936
0000d0 74 b1 23 bf e7 9e de 3e 07 3c cd 3e 6b 4e 0d bf
       -0.63942647 0.43480608 0.4008486 -0.5519778
0000e0 ee 2d c6 be 60 ba 25 3f f3 55 d1 3e 42 24 e7 be
       -0.38706917 0.6473751 0.40885887 -0.4514485
0000f0 15 df 51 3e ca aa 93 40 b8 0d 1d bf 5f 51 34 bf
       0.20495255 4.6145983 -0.6134906 -0.7043666
000100 93 31 80 bf 02 99 83 bf 42 0a c8 3f 6f c3 1d 40
       -1.0015129 -1.0281069 1.562813 2.4650533
000110 3f 88 27 be e7 5d e0 3f 0f 5d 0a 3f 99 05 ac bf
       -0.16360568 1.7528657 0.54048246 -1.3439208
000120 e1 96 cb 3e 86 ab 6c be d4 27 8f bf b6 c5 53 3d
       0.3976355 -0.23112306 -1.118403 0.051702224
000130 05 94 cb be 34 f4 1b 3e 6b 73 aa 3d af 28 bd 3f
       -0.39761367 0.15229875 0.083227955 1.4778041
000140 ee dc b9 3f 6e 4f a5 be ff 21 83 be c7 49 26 40
       1.4520547 -0.32287163 -0.25611874 2.598253
000150 01 d7 1d 3d 53 0a 9f 3e 0b 3d 19 3f d5 db a6 3f
       0.03853512 0.31062564 0.5985877 1.3035837
000160 9d 24 96 3f 12 8b 1d 3f 89 38 d9 3f d4 db 8c 3f
       1.1729923 0.6154033 1.6970378 1.1004586
000170 ba 4f b7 3e ea c2 84 3e 16 d6 aa bf e4 ad 47 3d
       0.35803014 0.25929958 -1.3346584 0.04874982
000180 ba 4f ab bd 8d de 9f 3e fc 72 7a bd e5 52 c3 3e
       -0.08364816 0.3122448 -0.061144814 0.3814918
000190 57 ae 8a 3e 77 9b 06 3f c9 9f 13 bf c2 59 28 c0
       0.27086136 0.5258097 -0.5766569 -2.6304784
0001a0 4d 4c 80 bf 79 10 49 3e b4 d0 90 bf 3e 81 35 3f
       -1.0023285 0.1963519 -1.1313691 0.7090033
0001b0 ae 04 f3 be f4 ab 38 3f 5c 8e 97 3e c4 4f c3 3f
       -0.47464508 0.7213738 0.296008 1.5258718
0001c0 8e 94 98 3f 1a 82 6d bf 21 24 dc be 34 a4 36 3f
       1.1920335 -0.92776644 -0.42996314 0.71344304
0001d0 21 d0 5b bf 57 b4 94 bf df 12 0d 3e 8f 89 97 be
       -0.85864455 -1.1617535 0.1377673 -0.29597136
0001e0 b8 ad e9 3f 63 2c 78 be 54 a2 a9 bf e4 52 ad bf
       1.825614 -0.24235682 -1.3252664 -1.3540921
0001f0 65 ac 87 be a7 1e a5 bf 5f be ed be fb fc 21 40
       -0.26498714 -1.2899979 -0.46434304 2.5310657
000200 9b db 31 3f 0a 5b cd be 4c 1b 3f 3e 3b c2 f3 bf
       0.69475716 -0.4010852 0.18662757 -1.904365
000210 a8 e1 12 3e 6b 0d d4 3c 4c 10 96 be 18 ee 94 be
       0.14343894 0.025885304 -0.2930931 -0.290879
000220 2d b0 14 bf ad 02 a3 be 5b ee 8c bf b1 b7 65 bd
       -0.5808132 -0.3183798 -1.101024 -0.056083385
000230 eb 80 27 3e d7 61 33 3f 33 6e dc 3f a7 c6 4e bf
       0.16357772 0.70071167 1.722113 -0.8077187
000240 29 4f 9e bf 8e 8e 77 3f f5 33 58 3f 00 e7 81 3f
       -1.2367908 0.96701896 0.8445428 1.0148621
000250 e0 ff f4 be 0d f4 81 3f 30 3b 66 3f 05 ad 87 bf
       -0.47851467 1.0152603 0.8993406 -1.0599676
000260 e1 6e 0c 3f fb 2c 3d 3f 1a b1 ac 3f 43 31 97 3f
       0.5485669 0.7389676 1.3491547 1.1811908
000270 9d ea 81 bf de 58 07 bf 1c 01 d2 3d 8a 3b 68 3f
       -1.0149723 -0.52869976 0.10254118 0.9071585
000280 72 60 c4 bf ed 50 dd be 06 69 80 3f 0e 12 80 bf
       -1.5341933 -0.43225804 1.0032051 -1.000551
000290 28 10 23 3e fc 56 95 3f f6 ff 72 3f 17 a2 25 3f
       0.15924132 1.166717 0.94921815 0.64700454
0002a0 0f 2a 9d 3e c6 f2 a0 3e 9c ac cb bc fb fa c7 3e
       0.3069615 0.3143522 -0.02486258 0.3905867
0002b0 39 df 26 3e 07 0e 7f 3e cc 09 58 3f b8 f3 50 bf
       0.1629609 0.24907695 0.8438995 -0.81621885
0002c0 b5 02 e8 be 5f 79 35 3e 60 84 9e 3f b0 c3 3c be
       -0.45314565 0.1772208 1.2384148 -0.18434024
0002d0 33 75 7f 3f 28 79 ac 3d cc 42 1a be 47 58 fb 3e
       0.99788207 0.08421546 -0.15064543 0.49090788
0002e0 8a 50 09 3f fe 55 c5 bf f4 76 8e bd 91 03 88 bf
       0.5363852 -1.5416868 -0.06956282 -1.0626088
0002f0 e5 26 2e 3f 0a ce 4d 3f 38 4b 13 3e 65 42 8f 3e
       0.680281 0.80392516 0.14384162 0.27980343
000300 58 f6 04 3e e4 7f 66 bf df 2d e1 bc ad 1b 6d 3f
       0.12984598 -0.90038896 -0.027487693 0.92620355
000310 85 05 0f 3f e7 1e b9 3f 10 62 6a bf bd 7f a5 3e
       0.558678 1.4462556 -0.9155588 0.3232402
000320 6c ba e9 bf df c3 93 3f 61 99 95 3f d2 0b 94 3f
       -1.8260016 1.154415 1.1687433 1.1566107
000330 36 de 74 3f 54 31 9c 3f f2 e5 6f bf 0b ae 45 bd
       0.95651567 1.2202554 -0.93710244 -0.048261683
000340 89 0e 24 3f 05 c5 ef be cf 14 9e 3f 24 8c 0e bf
       0.6408468 -0.4683 1.23501 -0.5568259
000350 46 97 13 3f f3 34 b9 bf 14 4c c4 3d 60 c5 be 3f
       0.576527 -1.4469284 0.09584823 1.4903984
000360 96 f7 88 bf ce cb b7 bf 95 01 d3 3f a7 80 89 3f
       -1.0700557 -1.4359071 1.6484858 1.0742387
000370 3c 74 2a bf f3 1a aa 3e 0c c3 1d be 50 3b 0b 3f
       -0.6658361 0.33223686 -0.15406436 0.5438738
000380 54 d2 e6 be ff 19 82 bd e4 57 94 3e 11 82 52 3f
       -0.45082343 -0.063526146 0.28973305 0.82229716
000390 d4 68 5c bf b1 4d ca 3e ca 52 9f 3e 66 95 0a bf
       -0.86097455 0.395124 0.3111785 -0.54134214
0003a0 77 af 0e 3e d6 6d 47 3e 25 b1 c0 be 8c 9c b6 bf
       0.13934122 0.19475493 -0.3763515 -1.4266524
0003b0 5d 29 16 3f 31 d5 e3 3e 5a b7 22 3f af 7f b6 bd
       0.58656865 0.4449859 0.6356102 -0.089110725
0003c0 a8 fd 21 3e d3 90 e5 be dd b3 99 3f 1e 76 38 be
       0.15819418 -0.44837055 1.2008015 -0.18013808
0003d0 30 12 c1 3e 43 e8 26 be 54 ba 3d 40 40 bc 77 bf
       0.37709188 -0.16299538 2.9644976 -0.9677162
0003e0 4d 48 db 3f 6b b7 c0 3d ea 87 27 bf ae 3b 53 bf
       1.713144 0.09409984 -0.65441763 -0.8251294
0003f0 64 4b b6 bc 52 60 f7 3f 3b d8 66 bf 6f f2 50 3a
       -0.022252746 1.932627 -0.9017369 0.0007970696

fc2.bias f4 [128]
000000 52 97 62 bf e7 df b4 bf b3 c3 e8 3e e9 18 6f bd
       -0.88512146 -1.413083 0.45461807 -0.058373366
000010 f9 bf 03 bf bb 70 8e 3e 7c 45 9b bf 86 da b9 bf
       -0.514648 0.27820382 -1.213058 -1.4519813
000020 b0 bb 9a bf 73 37 91 3f 2a 67 3d bf b1 25 64 bd
       -1.2088528 1.1345047 -0.7398554 -0.055700008
000030 19 8c 47 3f 85 40 75 be 1c e6 94 be bf 58 4a be
       0.7794815 -0.23950393 -0.2908181 -0.19760416
000040 68 e0 25 c0 b9 26 21 3e d3 15 89 bf 91 37 5a bd
       -2.5918217 0.15737428 -1.0709785 -0.05327565
000050 d6 a7 af bf 81 9d c3 bf f9 49 0c 3f 20 3e e2 3f
       -1.3723094 -1.5282441 0.54800373 1.7675209
000060 fa d9 b0 3f e8 8c d9 bf 29 b1 ac bf 20 32 f7 3e
       1.3816521 -1.6996126 -1.3491565 0.4828043
000070 3f d5 a2 3f ed 1a d4 be 33 72 88 bf 71 09 44 bf
       1.2721328 -0.41426793 -1.0659851 -0.76576906
000080 63 fd 9d bf f5 14 82 bf dd 59 4f be 14 8d 7d 3e
       -1.2342952 -1.0162646 -0.20249124 0.24760848
000090 03 cc 50 3f de a2 ab 3f 6f c4 14 be e5 8c 48 be
       0.815613 1.3409078 -0.14528058 -0.19584997
0000a0 2b a7 b0 3f 49 10 84 bf 1b 03 2a bf 95 f8 8d bf
       1.3801016 -1.031747 -0.6641099 -1.1091486
0000b0 26 9f b2 3f cf 2f 63 bf b0 c0 d5 bf ff 70 6d 3e
       1.3954818 -0.88744825 -1.6699429 0.23187636
0000c0 c2 8c c6 bf 98 f3 09 c0 db d8 46 bf 68 d6 e5 be
       -1.5511706 -2.1554928 -0.77674645 -0.4489014
0000d0 35 e5 81 bf 13 86 2c bf f1 a9 95 bf f8 71 59 3e
       -1.0148073 -0.6739208 -1.1692487 0.21234882
0000e0 83 2c 95 3f ee 89 ca be 1f c8 1f 3c 4e df e5 bf
       1.1654209 -0.39558357 0.009752302 -1.7958772
0000f0 ac 4d 6f bf 48 d7 b2 3f 0e 32 e8 3e 9a e1 3f c0
       -0.9347789 1.3971949 0.4535069 -2.9981446
000100 cf c0 c6 3e 94 5f 90 bf 2d 6b ff be bd f6 3f 3f
       0.38818976 -1.1279168 -0.49886456 0.7498587
000110 66 8c c2 be 36 8f ec 3d a6 87 2e 3e 18 7e f6 3e
       -0.3799774 0.11550753 0.17043933 0.48143077
000120 b0 4c 18 c0 90 0f 2b bf 0f d4 b9 bf 75 07 35 bf
       -2.3796806 -0.6682062 -1.451784 -0.70714504
000130 b9 67 da be 08 ce 69 bf f8 09 8e bf 0f fd 02 bf
       -0.4265726 -0.91330004 -1.1096792 -0.51167387
000140 99 45 ea bd 96 9d 90 bf 26 a4 38 c0 0d 85 08 bf
       -0.11439056 -1.1298091 -2.8850188 -0.5332802
000150 23 92 ca bf 26 69 25 3d 61 c1 15 bf 4b 1f 23 3f
       -1.5825847 0.04038348 -0.584982 0.63719624
000160 2b f3 0f 3f 71 cb 8c 3f da f8 71 bf 4b b6 c4 bf
       0.5623042 1.0999585 -0.9452034 -1.5368131
000170 c9 76 bf bf 7b c3 0d bf 2a 21 ee bf ae e9 68 bf
       -1.4958125 -0.55376405 -1.8603871 -0.90981567
000180 d4 ff a9 be 24 94 41 bf 00 37 07 be 0a ee 99 bf
       -0.33202994 -0.7561667 -0.13204575 -1.2025769
000190 2f b1 85 bf 89 85 a2 bd 8c 7a f0 be 8e 0d d6 bf
       -1.0444697 -0.07935626 -0.46968496 -1.6722887
0001a0 a9 ce 72 3f b3 50 b4 bf 28 16 eb bf 70 0c a3 bf
       0.9484659 -1.4087127 -1.8366137 -1.2738171
0001b0 3b 64 52 bf 1f 0f 5c 3f db f6 1a 3f 3d 1f b9 bc
       -0.8218419 0.8596057 0.6053292 -0.022597903
0001c0 dd c3 6c 3f 1c cf 7a bf 32 4e a2 bf a9 8b 1f bf
       0.92486364 -0.97972274 -1.2680113 -0.6232248
0001d0 06 09 c7 bf a7 40 e9 3e c1 fc 48 3e 26 f7 69 be
       -1.5549629 0.45557138 0.19627668 -0.22848186
0001e0 18 71 56 3f 21 c6 cf bc 73 93 9f bf a2 2e dd bd
       0.8376632 -0.02536303 -1.2466873 -0.1079991
0001f0 6b 1c a9 bf d3 50 80 3f 38 ce 24 3f 0e 00 6a bf
       -1.3211797 1.0024666 0.64377165 -0.91406333

fc3.weight f4 [2, 128]
000000 8f b3 19 40 4d 50 aa be e1 85 0d 40 b8 f6 c2 be
       2.4015844 -0.3326439 2.2112963 -0.38078856
000010 30 b1 b3 3f 5a bb e0 bf cc e7 e2 bd bc 97 9f 3b
       1.4038448 -1.7557175 -0.11079368 0.004870383
000020 84 ba 91 3d 5e b2 a5 bf b1 55 a7 3d 99 e0 ac bf
       0.07115653 -1.2945058 0.08170641 -1.3506042
000030 9c 49 12 c0 f8 dc a9 bf b4 16 78 bf 26 2e 73 bf
       -2.2857428 -1.3270559 -0.9690964 -0.9499229
000040 de 97 1f 40 ff 12 e4 bf 46 2a d9 3f df 2d 6e bf
       2.4936442 -1.7818297 1.6966026 -0.93038744
000050 11 39 9d be 90 83 19 40 d9 17 9a bf d2 0a da bf
       -0.307076 2.398655 -1.2038528 -1.7034552
000060 8f de 18 3f 57 e5 6b bf 7e 32 c3 3f c6 01 cf be
       0.597146 -0.9214682 1.5249784 -0.4043104
000070 60 f0 fc bf b0 79 c1 be e9 9b 3b 3f 69 91 05 3f
       -1.9760857 -0.37788153 0.73284775 0.52175003
000080 7c b1 ac 3e 48 66 d7 3f 1a c6 da bf 73 60 39 40
       0.3372916 1.6828089 -1.7091706 2.8965118
000090 45 c4 e4 bf 19 31 a4 bf f6 af cf bf 26 dd 88 bf
       -1.7872397 -1.2827483 -1.6225574 -1.0692489
0000a0 d9 48 0d c0 ca 30 4a 3f 1e 77 71 bf 70 3b 01 bf
       -2.2075713 0.78980696 -0.94322383 -0.5048132
0000b0 13 88 d0 bf 48 40 8d 3f 6f 1c ae 3e bd a1 33 40
       -1.6291527 1.1035242 0.34006068 2.8067467
0000c0 80 75 e4 3f dc 10 7d bf 0b 6b c2 be ef 29 4b 3f
       1.7848358 -0.9885385 -0.37972292 0.7936086
0000d0 4d 94 cc 3f 80 58 28 3f e0 66 b4 bf c4 ed 8f bf
       1.5982758 0.6576004 -1.4093895 -1.1244435
0000e0 5f 6b bb bf ba b1 29 bf bd 8b 58 bf 62 ca 5e bf
       -1.4642142 -0.66286814 -0.84588224 -0.8702756
0000f0 5b 73 a0 3f eb cf df bf 8b 42 b8 bf 2d 91 07 40
       1.2535204 -1.7485327 -1.4395307 2.1182358
000100 9e 38 19 40 bb 91 cb 3f e7 d4 6d 3e f0 20 97 bf
       2.3940806 1.5903848 0.23225747 -1.1806927
000110 13 9d 85 3f 38 21 f4 be 2c b9 b5 bf ac 54 cf bf
       1.043856 -0.47681594 -1.4197135 -1.6197715
000120 bb 71 0c 3f 57 08 b3 bd 7b b0 1f be 6e be 57 bf
       0.5486104 -0.08741825 -0.15594666 -0.8427495
000130 d8 b4 f8 bf 6c c2 6f bf 4e 57 54 be 17 d5 83 be
       -1.9430189 -0.9365604 -0.20736429 -0.25748512
000140 53 7c 8f 3f 3d d5 09 3f 31 a0 94 3f 9b 64 47 bf
       1.1209816 0.53841 1.1611387 -0.77887887
000150 ff ea 22 3f b7 9c b6 bf 2e ea b2 3f 1f 04 b3 bf
       0.63639826 -1.4266576 1.3977716 -1.3985633
000160 95 b8 c0 bf 2b b8 96 bf 52 bb 42 40 09 ef 96 bd
       -1.505633 -1.1774954 3.0426831 -0.07369811
000170 46 bb af bf 26 86 e7 bf 56 bc 97 bb 25 1a 06 c0
       -1.3729026 -1.8087814 -0.0046306057 -2.0953457
000180 2e 6c 33 3f c8 89 d7 bf 0e e2 e3 bf b2 70 ff 3f
       0.70086944 -1.6838923 -1.7803361 1.9956267
000190 60 d7 9f bf 7e cf 5a bf 8c ec e7 3f 5d 54 14 40
       -1.2487602 -0.8547286 1.8119063 2.3176491
0001a0 fe 67 f2 bf e5 ed f8 3f 6c b3 0f bf af 6a 26 3f
       -1.8937986 1.94476 -0.5613315 0.65006536
0001b0 75 5c 80 bf 8e e2 ee bf 3b f0 02 c0 e2 ec a4 bf
       -1.0028216 -1.8662889 -2.0459125 -1.2884791
0001c0 09 3a 2b c0 59 17 63 40 6a fb 07 40 79 15 6e 3f
       -2.6754172 3.5483 2.12472 0.93001515
0001d0 79 86 2b be 6f c0 22 40 95 31 b6 bf 9a c8 ee be
       -0.16750516 2.5429952 -1.4233881 -0.46637422
0001e0 ee d0 dd bf 4a 48 ae be f6 33 df 3f ff d2 90 bf
       -1.7329385 -0.34039527 1.7437732 -1.1314391
0001f0 f4 c3 c6 3f 1a 6f 9d bf cc cf f1 bf 9c 78 26 be
       1.552855 -1.229953 -1.889154 -0.16256946
000200 09 e7 92 bf 63 b9 0e 3e 1f 62 59 3f 06 f9 16 40
       -1.1476756 0.13937907 0.84915346 2.3589492
000210 5e 33 84 3e 1e a1 fd bf f0 26 a0 bf d0 94 19 c0
       0.2582044 -1.9814794 -1.2511883 -2.3997078
000220 72 6e 80 bf b7 1f 07 40 a9 a9 c9 bf 31 c6 87 3c
       -1.0033705 2.1113107 -1.5754901 0.016573997
000230 9b ec ff bf 04 11 85 3c c7 a4 f0 3d 42 9f 3d 3f
       -1.9994081 0.016243465 0.11750179 0.74071133
000240 9f 81 17 be 3f 8a cf bd 00 d8 0f c0 17 42 d1 3f
       -0.1479554 -0.1013379 -2.2475586 1.6348294
000250 5b b8 b7 bf bb b1 74 be d6 39 9b bd 5b 96 26 3f
       -1.4353136 -0.23895924 -0.07579391 0.65073174
000260 80 1a f4 3f bc fe ea 3f 67 e8 05 bf 2c 6d 33 40
       1.9070587 1.8358989 -0.5230774 2.8035383
000270 6b ed 6d 3d d9 7f db bf 22 22 9e bf 89 7e d3 bf
       0.058087748 -1.7148391 -1.2354167 -1.652299
000280 b6 b9 74 bf b6 a7 53 bf 8e 74 64 be 35 8a f3 3e
       -0.9559587 -0.8267778 -0.22310087 0.4756638
000290 46 22 a4 3c f0 2d e1 3f 6c e0 9d be 5c 96 77 bd
       0.020035874 1.7592144 -0.30835283 -0.06044613
0002a0 72 b1 39 be d4 b6 a1 bf c8 f1 61 c0 55 94 44 3f
       -0.18134096 -1.263392 -3.5303822 0.76788837
0002b0 7e bb fa 3c 7a 1d bf 3e c8 36 6d bf 5b a7 98 3e
       0.030606981 0.37327176 -0.92661715 0.29815182
0002c0 c7 e1 9e bf 78 40 68 3f 1a a7 70 bc 9f 10 31 bf
       -1.2412652 0.9072337 -0.014688278 -0.69165987
0002d0 82 e4 36 3e 61 f7 26 3f f1 00 39 3e 74 9b 26 40
       0.17860606 0.6522122 0.18066765 2.603238
0002e0 f8 65 d8 be 66 df 5e 3f 7c 8e 25 bf 58 03 8c 3f
       -0.42265296 0.8705963 -0.6467054 1.093852
0002f0 d4 1e 93 bf 66 c2 f6 bd b9 44 ee 3f 83 cf 82 3f
       -1.1493783 -0.12048797 1.8614722 1.0219578
000300 02 03 65 3f 88 95 04 c0 64 be d3 bf 23 52 fa be
       0.89457715 -2.0716267 -1.6542478 -0.4889079
000310 47 9b 3b bf c2 d2 0e 3f 1d 0d e6 3e f7 9a 63 3f
       -0.7328381 0.5579034 0.4493188 0.8890833
000320 73 02 57 3f 1e 43 f8 bb fd b4 99 bf 15 60 ba 3f
       0.8398811 -0.0075763604 -1.2008358 1.4560572
000330 2f 15 cd bf a5 2e 30 3f 2a 76 74 bf ca 4e 08 3f
       -1.602209 0.68821174 -0.95492804 0.5324522
000340 73 3e 87 be 8a 1d b1 bf 63 49 b8 3e 72 fa 37 3f
       -0.26414832 -1.383714 0.3599349 0.71866524
000350 91 2f f5 3f 64 20 3f bf 2c dd 05 3f d8 1e a6 bf
       1.9155141 -0.746588 0.52290606 -1.2978163
000360 61 95 c9 3f c0 bb 15 3f 80 ef 1b bf 5c c6 59 c0
       1.5748712 0.5848961 -0.60912323 -3.402732
000370 30 34 89 3d 0a d3 d0 3d 1a 69 3e be 7b 7b 80 3f
       0.06699407 0.101965025 -0.1859478 1.0037683
000380 bc f3 2c c0 ba 6b a8 3d f1 3e 82 bf de 62 0a c0
       -2.7023764 0.08223672 -1.0175458 -2.1622844
000390 6b 4e 6a c0 00 7c 70 3e 2b 20 2d bf ab 14 90 bf
       -3.6610363 0.23484802 -0.6762721 -1.1256307
0003a0 d5 ef 3a 3e cc ec d5 bf 45 0e 67 3d 22 9f 71 bf
       0.18255551 -1.671289 0.056410093 -0.9438344
0003b0 1e ef dd bf 04 7c 38 3f a1 8d 5a bd c8 25 f1 bf
       -1.7338598 0.7206423 -0.053357724 -1.8839655
0003c0 82 6a 86 3e fa 20 a0 bf 80 b2 98 bf db af ae 3f
       0.26253134 -1.2510064 -1.1929474 1.3647417
0003d0 f2 80 34 bf ea d1 f5 3e 72 50 b6 bf 64 e4 07 3f
       -0.70509255 0.48011714 -1.42433 0.5308287
0003e0 0f c0 c0 3f 59 3a d1 3d f9 bf 1f 3f 2b 39 8d 3f
       1.5058612 0.10216207 0.624023 1.1033071
0003f0 a5 5e ec bf 7a 34 d1 3f 66 e8 06 3e 8c 6e 35 c0
       -1.8466383 1.634414 0.1317459 -2.8348722

fc3.bias f4 [2]
000000 96 4a df 3e 4e 48 b2 3f
       0.43611592 1.3928316
