training_output/best_agent/checkpoints/episode_638/weights_actor.pth (torch_old, 83672 bytes, 10 tensors)

fc1.weight f4 [128, 24]
000000 67 7a bf 3f a5 50 a2 bf f1 00 10 bf 04 91 1d c0
       1.4959229 -1.2680861 -0.56251436 -2.461976
000010 0c 47 f6 bf 78 c1 65 3e 63 51 04 bf 3a f6 1b c0
       -1.9240432 0.22437084 -0.51686686 -2.4369035
000020 7c 55 bd 3f 65 f7 d4 bf f8 1c ba bc ff b3 c7 bf
       1.4791713 -1.6637999 -0.022718892 -1.5601805
000030 2f a5 0b c0 ce 53 a5 3f 01 0a a2 bc cc b7 c1 bf
       -2.181957 1.29162 -0.01978016 -1.5134215
000040 2d ec 04 40 d0 2f c0 bf 72 ec 45 bf e8 7e 5a 3f
       2.076915 -1.5014591 -0.7731391 0.85349894
000050 1c ab 18 c0 ac d1 4e 3f 54 f0 34 bf 87 df 7f 3f
       -2.3854437 0.80788684 -0.7067921 0.9995045
000060 7a 96 58 3d 6a 81 e1 3f f6 38 01 3f 17 1b 48 bf
       0.05287788 1.7617619 0.5047754 -0.78166336
000070 ad 5e a3 3f 14 c4 88 bf b0 5a f2 3e 08 aa 6c bf
       1.2763268 -1.0684838 0.47334814 -0.9244695
000080 a7 55 c4 3c c3 0b c4 3f 99 b8 77 3f f6 3a 39 bc
       0.023966623 1.5316089 0.9676605 -0.011305561
000090 59 6a aa 3f 52 21 20 c0 65 18 74 3f 05 4d 6b bd
       1.3313705 -2.5020337 0.95349723 -0.0574465
0000a0 73 0f 4c 3d 3d b6 ba 3f 52 55 db 3e 7f c6 d5 3e
       0.04981942 1.4586865 0.42838532 0.41753003
0000b0 c8 82 9f 3f 90 a2 8f c0 37 6c fa 3e 9c 3d c9 3e
       1.2461786 -4.488594 0.48910686 0.39304817
0000c0 e7 70 9b 3f 65 01 2b c0 ec 8a b4 be fc 39 0f bf
       1.214383 -2.67196 -0.3526224 -0.5594785
0000d0 c9 c7 0f bd f3 58 14 c0 07 bd c6 be 2e 7c d3 be
       -0.03510264 -2.317929 -0.3881609 -0.4130568
0000e0 58 66 75 3f 99 3d 21 c0 ce 2f ab bf 91 3c 15 bf
       0.9585929 -2.5193846 -1.3373964 -0.5829554
0000f0 91 47 9d be d3 2e 03 c0 69 e5 a1 bf 17 6b 1a bf
       -0.30718663 -2.049733 -1.2648135 -0.60319656
000100 ca b4 a6 3f 0b cd 32 c0 65 16 90 3f b2 7b d0 bf
       1.3023922 -2.7937648 1.1256834 -1.6287749
000110 0f 31 87 bf 94 b9 84 bf da 52 8d 3f a4 a3 d2 bf
       -1.0561846 -1.0369134 1.1040909 -1.6456189
000120 9d df 1b 3f 7f eb c2 c0 a0 fb e8 be e6 ec 71 3f
       0.6088808 -6.091247 -0.45504475 0.94502103
000130 d1 0b dc 3f 94 c5 d8 bf 1c f1 0b bf 5f 8e 6c 3f
       1.7191106 -1.6935296 -0.5466478 0.9240474
000140 c3 e0 79 3e 90 c7 b5 c0 9e f4 72 3d 42 9c 57 3f
       0.24402146 -5.6806107 0.059315316 0.84222806
000150 fc 11 82 3e da c1 3b 3f 69 da d1 3a 2c 65 45 3f
       0.25404346 0.7334267 0.0016010526 0.771075
000160 b0 8c 9a 3f 50 fa 9d c0 95 b2 07 3f 80 a9 0e bf
       1.2074184 -4.9368057 0.5300687 -0.55727386
000170 87 17 ae bf 9d 5f e7 3f a7 3d 0d 3f dc 7f 13 bf
       -1.360093 1.8076054 0.551722 -0.5761697
000180 c3 3e 99 be 15 00 20 3f 31 1a dc be 90 c0 ce 3f
       -0.29930696 0.62500125 -0.42988732 1.6152515
000190 5d 92 60 3f 2c c6 34 3f 2a 71 d4 be 3b 9d d6 3f
       0.8772333 0.70614886 -0.41492587 1.6766733
0001a0 68 cc 30 3e 04 91 f6 3f dc d4 da be 36 98 20 40
       0.17265475 1.9263005 -0.42740524 2.5092902
0001b0 41 39 cd 3f 27 c1 84 3f ed 0e d0 be 9c 28 24 40
       1.6033098 1.0371445 -0.40636387 2.5649786
0001c0 36 e2 ae be be 0b 20 40 67 f0 1b bf 95 1a de 3f
       -0.3415696 2.5007167 -0.609137 1.7351862
0001d0 91 e2 24 40 d0 2d 07 40 01 8b 11 bf 1a 3d d9 3f
       2.5763285 2.1121712 -0.5685273 1.6971772
0001e0 b0 87 86 bf f6 36 3a 40 ef f6 07 3d df 51 c0 be
       -1.0510159 2.9096045 0.03319448 -0.37562463
0001f0 0d 87 86 bf 5d 92 06 c0 50 ea c6 3b b6 43 a7 be
       -1.0509964 -2.1026833 0.0060704127 -0.32668847
000200 d5 69 9a bf a7 c2 46 40 37 64 cc 3c b6 40 3d 3c
       -1.2063547 3.1056306 0.02495013 0.011551073
000210 dc ef 3f be e4 95 87 c0 59 aa 28 3d 11 0c d0 bc
       -0.18743843 -4.237047 0.04117808 -0.025396379
000220 71 3d c3 bf e3 97 52 40 ed 0a 3c be 6d 2d 94 3f
       -1.5253125 3.2905204 -0.18363543 1.1576363
000230 b5 d8 dd 3e a0 cf ea c0 1d 86 0e be d4 4c a1 3f
       0.43329397 -7.337845 -0.13918348 1.2601571
000240 16 6d c3 3d 15 d2 d9 be 1b 17 93 bf bb f8 21 c0
       0.09542291 -0.42543092 -1.1491426 -2.5308063
000250 e9 7c a1 bd 4a 69 20 c0 2b 2d 8d bf 3f 38 22 c0
       -0.07885153 -2.5064263 -1.1029409 -2.534683
000260 02 4a c8 3d f0 2d a3 bf c8 10 b1 be 8f ad cd bf
       0.09779741 -1.2748394 -0.34583116 -1.6068591
000270 89 cf 32 3e 56 c4 0a c0 0c 9a 8d be 93 ff d6 bf
       0.17461981 -2.1682334 -0.2765659 -1.6796745
000280 e5 0a c6 3e 85 93 ee bf 95 02 18 3f b7 e4 19 bf
       0.38680187 -1.8638769 0.5937894 -0.60114616
000290 d5 c1 16 3f 55 19 b9 bf 26 13 37 3f ae 89 08 bf
       0.58889514 -1.4460856 0.71513593 -0.5333508
0002a0 5b c2 02 be e2 85 6d c0 fa 15 74 be 32 63 b2 be
       -0.12769453 -3.7112966 -0.23836508 -0.34841305
0002b0 c2 29 0f 40 ca c6 87 bf d1 89 ae be 01 f2 dc be
       2.2369237 -1.0607541 -0.3408952 -0.43153384
0002c0 b3 e3 59 be 73 cc 75 c0 c4 38 c7 3e a6 43 9f bf
       -0.21278267 -3.8406036 0.38910496 -1.244252
0002d0 66 af c3 3f 1f a7 0a bf e5 64 df 3e 23 a1 96 bf
       1.5287902 -0.54161257 0.43631664 -1.1767925
0002e0 e3 91 34 3f 6b dc 6c c0 88 3c ab 3f 13 6a 21 bf
       0.70535105 -3.7009532 1.3377848 -0.6305248
0002f0 c0 2e 09 3f 79 bd 08 bf 4f e9 a4 3f 49 d8 23 bf
       0.5358696 -0.5341411 1.28837 -0.640019
000300 a7 d9 17 3f 6d 5a 21 3f fa 95 17 3e 7f 0f 6f bf
       0.59316486 0.63028604 0.14803305 -0.9338302
000310 7e 06 f2 bf 72 83 ac bf 1a 0b 05 3e 26 9e 7b bf
       -1.8908231 -1.3477614 0.12992516 -0.9828819
000320 01 95 3a 3f fa 53 88 3e 79 b6 bd be 2f 5f ed bf
       0.7288361 0.2662657 -0.37053278 -1.8544673
000330 dd c1 99 bf 9a 52 f0 bf 40 d8 99 be 2f b4 f4 bf
       -1.2012287 -1.8775208 -0.30047798 -1.9117488
000340 e9 07 ac 3f 69 c3 dd bc 46 29 cc 3e 16 80 39 c0
       1.3439914 -0.027070718 0.3987524 -2.8984427
000350 27 ff 32 bf 89 c1 ee bf a7 bd cf 3e 21 2c 3e c0
       -0.6992058 -1.8652812 0.4057438 -2.9714434
000360 e4 47 45 3f 29 63 2e c0 af 0c b5 3e 58 a3 17 3f
       0.7706282 -2.7248023 0.3536124 0.5923362
000370 cd af e3 bf c2 cb cf bf ae 15 62 3e 13 4e 10 3f
       -1.7788025 -1.6234057 0.22078583 0.5636913
000380 b4 d7 41 3f 4a 90 23 c0 5b c0 93 3e ab c8 2c 3e
       0.7571976 -2.5556817 0.28857693 0.16873424
000390 b3 17 fb bf 49 43 d7 bf 4d 57 4c 3e 6c 02 b5 3d
       -1.9616607 -1.6817409 0.19955178 0.088383526
0003a0 ed 4f db 3f f6 ba 37 c0 ba 8f c5 3e 6e b0 12 c0
       1.7133766 -2.8707862 0.38586217 -2.2920184
0003b0 12 da 0c c0 d3 19 3a bf b7 93 00 3f 9c 60 12 c0
       -2.20081 -0.72695655 0.50225395 -2.2871466
0003c0 15 b2 0f 3e c0 55 16 40 75 12 ce 3e a7 7e 4f c0
       0.14032777 2.3489838 0.40248457 -3.2421052
0003d0 33 87 d4 3c d9 e6 91 3d de 64 ca 3e c0 5b 48 c0
       0.025943374 0.07124109 0.3953008 -3.1306
0003e0 75 e1 4d 3f 79 68 d1 3f 21 64 5b 3f d0 1c 29 c0
       0.80422145 1.6360008 0.8569966 -2.6423836
0003f0 41 5c 8c 3f 24 26 64 3d 61 66 5f 3f 7b 09 28 c0
       1.0965654 0.055700436 0.8726559 -2.6255786

fc1.bias f4 [128]
000000 0f 8e 10 c0 c3 c7 d5 be 3f e2 38 bf ed c5 ad be
       -2.2586706 -0.4175397 -0.72220224 -0.33940068
000010 9a b7 e6 bf 16 5e 99 3e 2c 74 54 bf 94 5f 54 be
       -1.8024781 0.29954594 -0.82989764 -0.20739585
000020 c6 cb a4 bf 3a 40 34 bf 52 4d d1 be b7 69 45 bf
       -1.2874687 -0.704105 -0.40879303 -0.77114433
000030 d9 29 c5 be a4 fc 9a bf c6 8b d2 be 8e 9c 84 bf
       -0.3850849 -1.210835 -0.41122264 -1.0360277
000040 25 b9 d9 be 2d 14 24 bf 61 7b 1a c0 d8 5f ff be
       -0.42524067 -0.64093286 -2.4137805 -0.4987781
000050 2b 41 17 bf 2b 0a f2 bf c4 7f 75 bf a2 e0 ea 3d
       -0.59083813 -1.8909353 -0.9589808 0.114686266
000060 00 62 bb bf a8 ef e6 bf 8e e9 ef be da f8 de bf
       -1.4639282 -1.8041887 -0.46857876 -1.7419693
000070 b6 9e 0d c0 1d fa 13 be 9e a5 6e 3d db d1 e6 3f
       -2.212812 -0.1445088 0.058263414 1.8032793
000080 7f bc e7 3f 77 48 0e bf ca 61 0b c0 e7 e3 3a 3d
       1.81044 -0.5557932 -2.1778436 0.0456275
000090 78 50 37 bf 0a af b2 3c 61 c6 20 c0 fb f7 b8 bf
       -0.7160716 0.02181198 -2.512108 -1.4450678
0000a0 05 9f 1f bf 39 38 25 bf 2d 33 90 bf ef d4 65 3f
       -0.6235202 -0.64538914 -1.1265618 0.89778036
0000b0 c7 b3 d2 bf c8 0f 99 bf 76 fe 21 bf 81 a7 fa bf
       -1.6461114 -1.1957941 -0.632789 -1.9582368
0000c0 28 6d 7d bf d0 75 86 bf 05 85 b5 be 1f 5d 06 bf
       -0.98994684 -1.0504704 -0.35453048 -0.5248584
0000d0 f8 e0 5d c0 44 bc 21 3e 65 49 01 bf 45 84 f0 bf
       -3.466856 0.15794474 -0.50502616 -1.8790365
0000e0 60 83 c0 bf 87 90 0e 3e 9c c5 ff 3e bf a4 9e bf
       -1.5040092 0.1392232 0.4995545 -1.2394027
0000f0 1a 2e 6f bf 34 25 80 bf 5f a4 47 bf 59 a4 35 3d
       -0.9342972 -1.0011353 -0.77985185 0.044346187
000100 3b 56 92 bc 76 bd e5 bc 39 1b 55 bf ad f9 d3 bf
       -0.017863384 -0.028044444 -0.83244663 -1.656057
000110 27 70 91 bf 74 89 28 c0 9b 70 0c c0 91 39 9a be
       -1.1362351 -2.6333895 -2.194373 -0.30122045
000120 cb 5f 6b 3e 02 0f 73 bf 6a ab 30 3f cf 91 15 3d
       0.22985761 -0.94944775 0.6901156 0.036516007
000130 fa 31 76 bf 8e 66 36 3e a6 f7 cc 3e c4 1c d2 3f
       -0.9617001 0.17812559 0.4003269 1.6415029
000140 02 99 19 c0 67 82 a3 bf 77 58 f8 bf 80 78 31 bf
       -2.3999639 -1.2774171 -1.9401997 -0.69324493
000150 fd 3b ac bf 20 ac a8 bf 9b 8e 1d bf 58 79 d9 bf
       -1.3455807 -1.3177528 -0.61545724 -1.6990156
000160 f7 7f 21 c0 7d e1 0f c0 39 ec 0a c0 6c 1f 8e be
       -2.5234354 -2.2481377 -2.170668 -0.27758348
000170 d9 ea 2e bf cf 58 66 bf e3 c4 bb bf bf ca da bf
       -0.683271 -0.8997926 -1.466946 -1.7093123
000180 13 bd 07 bd 41 9a 3d be 59 9e d8 be 1d 94 56 bf
       -0.0331393 -0.18515874 -0.4230831 -0.8381975
000190 44 02 53 3f eb 1c db bf 61 4e bb bc 2f ea ac bf
       0.8242533 -1.71182 -0.022864522 -1.3508967
0001a0 79 a1 0c c0 c8 a4 23 3f 59 a4 08 3e ad 5d 6a 3f
       -2.1973555 0.6392331 0.13343944 0.9154919
0001b0 64 5f 04 c0 46 b2 39 bf f7 ae 0c c0 13 e4 ac be
       -2.0683222 -0.7253765 -2.198179 -0.33767757
0001c0 e2 8a d6 bf 4a 9f a2 be 20 61 b3 bf c8 c9 3c bf
       -1.6761134 -0.31762153 -1.4014015 -0.73745394
0001d0 22 b7 82 bf f2 0a 29 3f f9 97 c6 bf 8c 15 66 bf
       -1.0212138 0.66032326 -1.5515128 -0.8987663
0001e0 87 6f 08 c0 a6 da f3 bf 60 2a c4 bc cb 22 c4 bf
       -2.131807 -1.9051101 -0.023945987 -1.5323118
0001f0 5e a4 ca bf f5 a3 e6 bf fd e8 40 bf 56 85 a8 bf
       -1.5831411 -1.8018786 -0.7535551 -1.3165691

bn1.weight f4 [128]
000000 cc 37 b8 be 67 69 32 3e a1 ed 84 3e 12 e7 69 3f
       -0.3598007 0.1742302 0.25962546 0.9136821
000010 72 7f 08 3f 87 62 87 40 8a fb b7 bd 4d 97 04 3e
       0.53319466 4.2307773 -0.08983524 0.12948342
000020 da e7 93 3e 98 8f d0 3f 07 fd 53 3f be 6d 00 40
       0.28887826 1.6293821 0.82807964 2.0066981
000030 57 5d 43 40 e5 8e d0 3f 25 8d 1c 3e b6 29 bf 3e
       3.052572 1.6293608 0.15288217 0.3733651
000040 9b 5a a0 3f 3d 70 d4 3f 9e 00 be 3f 39 12 98 3f
       1.252765 1.6596752 1.4843938 1.1880561
000050 ab 6c 48 40 58 41 4a 3e a2 f3 4a 3f 89 9f a9 3f
       3.1316326 0.19751489 0.79278004 1.3251811
000060 2f 59 2f 3f 3c 7b 0a 40 d2 b6 59 3f e3 80 39 3e
       0.6849546 2.1637716 0.85044587 0.18115573
000070 18 d6 89 3f 1c 0b db 3f 6c 28 c2 3e 79 43 46 3f
       1.0768461 1.7112765 0.37921464 0.77446705
000080 0b 46 57 3f 07 89 07 40 94 c1 b5 bd 0f bc c6 3d
       0.8409125 2.1177385 -0.08874813 0.09703838
000090 16 4a e3 3f 92 5e fd 3e 0f 90 9d 3e 5f 7d 00 40
       1.7756984 0.49486214 0.3077397 2.007652
0000a0 5e db 65 be 36 1b 18 40 a4 f4 f7 3b 8f 9d 4a 3e
       -0.22446963 2.3766608 0.007567005 0.19786666
0000b0 c6 b3 01 3f 74 65 06 40 fd dd f6 bd 32 6c e5 3f
       0.5066494 2.0999422 -0.1205406 1.7923644
0000c0 bd c7 ea 3f 1f 57 cf bf 48 ce 3d 40 3f ba b3 3f
       1.8342205 -1.6198462 2.9657154 1.4041213
0000d0 02 c1 b2 3f a8 aa d9 3b 41 ed 9e bc c8 5a c7 3d
       1.3965151 0.0066426583 -0.01940024 0.09734112
0000e0 56 2f 2c be b5 53 b4 3f 94 a3 11 3e c1 63 fb 3d
       -0.16814932 1.4088045 0.14222556 0.12274886
0000f0 b0 de b0 be 65 41 13 40 67 2c c0 3e 82 05 43 40
       -0.34544897 2.3008664 0.37533876 3.0472112
000100 e5 97 7e 40 a2 d4 f3 3f 42 d6 b1 3f 15 e6 25 40
       3.978021 1.9049265 1.3893511 2.592168
000110 74 d4 52 40 4e 3b 1d 40 1d bb 5c 3f 25 65 b4 3f
       3.294217 2.4567447 0.8622301 1.4093367
000120 13 1f b1 3f b5 78 0a 40 21 30 3f 40 5f 19 0b bf
       1.3837608 2.1636174 2.9873126 -0.5433559
000130 18 8b a7 3d 66 dd d8 bd b1 63 e9 3f 3a 66 04 40
       0.08180827 -0.105891034 1.8233548 2.0687394
000140 68 af 15 40 97 bc 22 40 77 32 91 40 a5 df e0 3f
       2.338831 2.5427606 4.5374103 1.7568251
000150 04 6c d5 3f 48 f1 86 3f 5d 4b 65 3f 5b 59 d8 3f
       1.6673589 1.0542383 0.8956812 1.6902269
000160 e8 f8 47 40 a2 87 0c 40 b9 88 d7 3f a8 db 72 be
       3.124567 2.1957784 1.68386 -0.23716605
000170 98 b8 24 40 ff 4d 3e 3f f6 1e 03 3f 42 37 95 3f
       2.5737667 0.7433776 0.5121912 1.1657488
000180 fd cb a9 bc f4 fc ba 3f 76 9f 84 3e aa 7f c2 3f
       -0.020727152 1.4608445 0.2590291 1.519521
000190 14 b1 b0 3f af 6c 28 40 7a 91 95 3f 80 3e 28 40
       1.380404 2.6316335 1.1685021 2.6288147
0001a0 6d f7 0f 40 66 46 86 be f3 3c 9e 3f 69 57 9c 3d
       2.2494767 -0.26225585 1.236235 0.0763386
0001b0 f3 be a4 3e 4e eb 97 3c d1 76 92 3f 0c 8a 0a 40
       0.32176933 0.01854482 1.144251 2.1646757
0001c0 71 14 78 3f e2 61 17 40 57 66 53 3f e5 d7 19 3e
       0.9690619 2.3653493 0.82578033 0.15023763
0001d0 a5 20 a9 3f 23 f3 a8 3f 0b 09 cd 40 b2 bc b5 3f
       1.3213087 1.31992 6.407354 1.419821
0001e0 66 48 97 3f c9 67 f8 3e ca 2f d0 3f 43 41 ed 3f
       1.1818969 0.48516682 1.6264584 1.8535541
0001f0 76 73 09 3e 4e fa 38 3f da 08 12 3d c6 2e 47 40
       0.13422951 0.72256935 0.035652973 3.1122298

bn1.bias f4 [128]
000000 db c2 8f bd 87 2d 51 bc 9d 9d 0c 3e 0b d8 97 3f
       -0.070195876 -0.012767202 0.13732 1.1862806
000010 68 12 e9 3d 1f 90 69 3f bd 81 84 3e 7f 21 bb 3e
       0.11380464 0.91235536 0.25880232 0.36548993
000020 d8 f3 20 3e de 5c db 3e b4 fc 48 3e d8 50 9a 3f
       0.15718019 0.4284429 0.19627649 1.2055922
000030 14 28 8b 3e e4 34 21 bf 11 b2 f2 be 2d 84 68 be
       0.27179015 -0.6297133 -0.4740148 -0.22706671
000040 d7 38 cb 3f a8 04 0d 3e 36 16 c0 bf 16 e4 a3 3e
       1.5876721 0.13771307 -1.5006778 0.32009953
000050 40 bd 7f bf 50 2e 1f bf b3 40 90 3e ab fa 8e 3f
       -0.9989815 -0.6218004 0.28174362 1.1170248
000060 c1 1a e1 be a6 20 0b 3f ca f1 c2 be b3 09 06 3e
       -0.43965724 0.5434669 -0.38075095 0.13089637
000070 a3 7e 3c 3d 8d 2d 82 3f 8a be 5c 3e 22 1c 8d bf
       0.046019208 1.0170151 0.2155706 -1.102421
000080 b2 eb 0c bf 06 61 a4 be 52 26 8e bd c7 e8 8c 3c
       -0.5504714 -0.32105273 -0.06940903 0.01720084
000090 80 a0 16 3f ba 98 a4 bf f7 81 06 3e 1c 39 6e 3e
       0.58838654 -1.2859108 0.13135515 0.23263973
0000a0 0e 1b 47 bd a7 e7 8e 3e 46 29 ec 3d dd 94 3e be
       -0.048609786 0.27911112 0.1153131 -0.18611474
0000b0 48 f5 02 3e e3 67 d1 3e b0 eb 6a bd 41 d7 f8 3e
       0.1278888 0.40899572 -0.057353675 0.48601726
0000c0 7d 10 16 3f 37 a8 1d 3f 20 f8 fc 3e 94 34 86 3f
       0.5861891 0.615848 0.49408054 1.0484796
0000d0 7f b9 ba bf 9c da ad bd 74 4b 0f be 4c b7 00 3e
       -1.4587859 -0.08488962 -0.13993627 0.12569922
0000e0 4d 72 68 bd 52 85 f5 3e 45 d5 01 bd cd 19 69 3d
       -0.05674963 0.47953278 -0.03169753 0.05690937
0000f0 24 67 39 3e d6 d1 97 3f db 92 2c 3e 31 50 02 3f
       0.18105751 1.1860912 0.16852896 0.5090361
000100 8f 6f f6 3e 43 aa 35 3f 4f 5f 34 3e 66 1b 48 3f
       0.48131987 0.70962924 0.17614482 0.78166807
000110 98 f2 02 3f de d5 43 3c e3 c3 1a be 01 07 2a 3f
       0.5115142 0.011952845 -0.15113787 0.6641694
000120 0b b5 8f 3f 37 72 e7 bf c2 ad ba bf e4 f1 c2 be
       1.1227125 -1.8081731 -1.4584277 -0.38075173
000130 b0 8d ba bd e6 d2 a5 be 53 83 51 3f d9 4d 2f bf
       -0.09109056 -0.32387465 0.8184101 -0.6847816
000140 18 b9 2c be 32 13 36 3f 47 b8 6a bf f9 75 cf 3f
       -0.16867483 0.7112304 -0.91687435 1.6207877
000150 c7 63 0d 3f b7 e2 d2 3e f9 d8 00 3f d2 0f f8 3d
       0.55230373 0.41188595 0.50331074 0.121123925
000160 07 9a cb 3e 95 c4 4a 3e ce 78 c1 3e 23 17 78 be
       0.3976595 0.19801553 0.3778748 -0.24227576
000170 82 e0 db 3f 40 74 6c bf 99 6f 60 3d c8 2b d6 3e
       1.7177889 -0.92364883 0.054793928 0.41830277
000180 b8 ac 4b bd 4e ba 1a 3f c8 81 54 be ee 45 66 3e
       -0.049725264 0.6044053 -0.20752633 0.22487614
000190 90 90 89 3f d4 88 e6 3e aa 56 31 3f c4 f9 08 3e
       1.0747242 0.45026267 0.69272864 0.13376528
0001a0 26 62 e9 be 4b 0e 1c bd c0 32 2c 3f dd 2e 71 be
       -0.45582694 -0.03809957 0.6726494 -0.23553033
0001b0 a2 15 43 3d c8 3c 04 3d 07 49 3b bd 00 af 87 3e
       0.047628053 0.032284528 -0.04572394 0.26500702
0001c0 d8 2b d7 3d 9a cf 67 3f 7a bb 19 3e ba a8 88 3e
       0.105064094 0.9055115 0.15012923 0.26691228
0001d0 75 36 74 bd 0d 30 37 3f 5f 73 17 bf ca e2 1b 3f
       -0.059622247 0.71557695 -0.5916042 0.6089293
0001e0 29 89 81 bf 7a 00 3a 3d 48 b3 96 3f 53 61 9d 3f
       -1.0119983 0.04541061 1.1773462 1.2295326
0001f0 a2 ee 4f 3e e3 77 4b be fd 6d 20 3e 1d 47 89 3f
       0.20305875 -0.19869952 0.15666957 1.0724827

bn1.running_mean f4 [128]
000000 e5 4e f8 40 2d e8 cd 41 f0 47 e8 40 45 f2 49 41
       7.7596307 25.738367 7.2587814 12.621648
000010 8f 99 be 41 bb 4c 29 40 40 f2 03 41 7d 94 13 42
       23.82498 2.6453083 8.246643 36.895008
000020 4d 1f ea 40 3e 14 11 41 26 17 f2 41 dc 01 68 41
       7.316321 9.067442 30.261303 14.500454
000030 0b 2a 5b 42 1b ea b9 41 16 6e 31 41 29 a9 8a 42
       54.791058 23.23931 11.089376 69.33039
000040 f5 d3 2f 42 4e 9f 3f 3e 16 0c cf 41 0b 31 80 41
       43.95699 0.18713114 25.880901 16.023947
000050 6e b3 16 42 b0 92 88 3f 45 13 83 41 1c a7 43 42
       37.675224 1.0669765 16.384409 48.913193
000060 72 0b 9f 42 83 71 91 41 3f 97 8f 40 19 94 93 40
       79.522354 18.180426 4.4872127 4.6118283
000070 e2 e7 94 42 54 dd f5 41 35 81 ad 41 4c 1e 68 42
       74.452896 30.73307 21.68809 58.029587
000080 0e fa f9 41 69 c7 71 40 aa fe 5a 40 db fd 7b 42
       31.247097 3.777796 3.4217935 62.997906
000090 c6 9e 76 41 e7 5a 07 42 a0 fd 2d 41 5e da 67 41
       15.413763 33.83877 10.87442 14.490812
0000a0 07 61 13 41 84 44 7a 3f 4d 03 ba 41 61 f3 8e 42
       9.211188 0.97760797 23.251612 71.47535
0000b0 41 0b be 40 42 7b 35 41 b0 4a 72 40 3f 7a e1 40
       5.938874 11.342592 3.7858086 7.0461726
0000c0 05 32 6a 40 42 a0 d3 40 32 98 04 42 d7 a1 2b 42
       3.659303 6.6133127 33.14863 42.908047
0000d0 d9 80 b8 41 d0 a9 f5 41 19 27 f4 41 0a a5 82 3c
       23.062914 30.707916 30.51909 0.015947837
0000e0 d0 e0 4a 3e f3 67 3c 42 95 4f 27 42 ac a2 56 41
       0.19812322 47.101513 41.827717 13.414715
0000f0 d6 fb ef 3f ac 1d ec 41 b7 c0 26 41 c4 87 02 40
       1.8748729 29.514488 10.4220495 2.0395365
000100 ce 5d 74 40 58 21 32 42 45 34 97 41 41 ae 85 42
       3.8182254 44.532562 18.900522 66.84034
000110 3b d6 09 40 36 6e 28 40 6f da 98 42 ee f5 a3 41
       2.1537006 2.6317267 76.42663 20.495083
000120 77 d6 5a 42 2b ed 2e 42 9e 8d 1c 42 68 73 99 41
       54.70944 43.73161 39.138298 19.18135
000130 31 a7 ec 40 0b 91 e1 41 4c a8 5e 41 5f e2 0f 42
       7.395409 28.195822 13.916088 35.971066
000140 a4 e0 bc 42 3f aa ba 41 a0 e0 00 42 a7 6c 0a 42
       94.43875 23.333128 32.21936 34.606106
000150 4e dc c1 40 c1 2b 6a 41 95 45 18 41 51 1c f9 40
       6.0581427 14.635682 9.516988 7.7847066
000160 12 ac 9f 42 3b 6a 9a 42 15 84 31 41 c4 19 29 42
       79.836075 77.20748 11.094747 42.27516
000170 0b c2 61 41 6c d7 c3 41 0a 11 d3 3f c1 60 37 41
       14.109874 24.480186 1.6489575 11.461122
000180 4a 4b 41 42 50 8d 5b 42 78 03 9b 42 8b cc 93 41
       48.323524 54.888 77.506775 18.474874
000190 3c 15 05 42 4c d8 bc 42 07 4f c6 41 2e 59 0e 42
       33.270737 94.422455 24.788588 35.58709
0001a0 5b 77 82 41 1c 96 11 42 83 91 29 41 82 91 2e 42
       16.308279 36.39659 10.598025 43.642097
0001b0 de 48 4b 3e 36 88 a3 40 a8 58 73 3f 62 03 99 41
       0.19852015 5.1103773 0.95057154 19.126652
0001c0 04 00 00 00 97 94 eb 41 56 f0 fa 3e 8b 3f cd 41
       6e-45 29.447554 0.49011487 25.656027
0001d0 01 fd 03 40 b8 ee 24 42 b5 23 1b 42 7e f9 1f 40
       2.0623171 41.233124 38.78487 2.4996028
0001e0 a1 54 7c 41 04 00 00 00 4f bc bb 41 6f 2f 39 41
       15.770661 6e-45 23.466948 11.57408
0001f0 0e 5b 06 41 7e eb 9e 3f f2 4b c2 41 50 3a b5 42
       8.39723 1.2415617 24.287083 90.61389

bn1.running_var f4 [128]
000000 67 7a e4 43 b9 64 e8 44 e2 78 e7 43 87 cb 97 43
       456.95627 1859.1476 462.9444 303.59006
000010 90 9d 69 44 29 a3 8a 42 15 fd df 43 b5 45 20 45
       934.4619 69.31867 447.9772 2564.3567
000020 4a 2a b8 43 e4 a8 a6 43 1b 1d 12 45 50 52 29 44
       368.33038 333.31946 2337.819 677.28613
000030 6f b7 05 44 5e da 82 44 54 94 20 44 5d 29 33 44
       534.86615 1046.824 642.3176 716.6463
000040 a2 ad 46 45 48 de 98 40 bd a8 4e 44 25 6d 3a 44
       3178.852 4.777134 826.63654 745.7054
000050 74 70 e9 44 a9 34 de 41 1e 4b 62 44 a5 8d 8c 45
       1867.5142 27.775713 905.1737 4497.7056
000060 99 75 0b 45 38 90 42 44 2d 1a 0b 43 f4 1e 83 43
       2231.3499 778.2534 139.10225 262.24182
000070 56 ab 87 44 e2 2b fb 44 0f e3 91 44 f6 26 e5 44
       1085.3542 2009.3713 1167.0956 1833.2175
000080 4c eb b5 44 5e 15 31 43 67 11 16 43 62 59 37 45
       1455.353 177.08347 150.06798 2933.5864
000090 ce 3f 34 44 db 8f 8b 44 b3 ed ca 43 31 59 2a 44
       720.99695 1116.4955 405.85703 681.3936
0000a0 5e 59 60 44 87 f4 c2 41 87 b3 b9 44 97 0c 0c 45
       897.39636 24.369398 1485.6102 2240.7869
0000b0 ea 0b 49 43 9f 8c 2b 44 00 5b db 42 88 66 da 43
       201.04654 686.1972 109.677734 436.80103
0000c0 36 85 11 43 ca 64 2d 43 3e 9d 6f 44 77 23 5a 45
       145.52036 173.3937 958.4569 3490.2166
0000d0 78 f2 23 44 7c ba 78 44 3a 4c 1e 45 08 b8 57 3e
       655.7886 994.9138 2532.7642 0.21066296
0000e0 ed 74 7f 40 83 c2 80 45 97 86 0f 45 10 85 94 44
       3.9915116 4120.314 2296.4119 1188.1582
0000f0 7c 52 85 42 40 52 83 44 c8 e7 06 44 d8 48 73 42
       66.6611 1050.5703 539.6216 60.821136
000100 56 db ae 42 81 d5 1c 44 fa 87 72 44 e0 ad 0d 45
       87.42839 627.336 970.12463 2266.8672
000110 28 9f 89 42 7e 12 ca 42 35 33 32 44 ae 0e f0 44
       68.81085 101.03612 712.8001 1920.4587
000120 96 4c 92 45 c6 f5 19 45 00 99 0d 45 70 90 01 45
       4681.573 2463.3608 2265.5625 2073.0273
000130 9c 19 0b 44 1b a1 0e 45 3d e3 13 44 ba f5 0f 44
       556.40015 2282.069 591.5506 575.8395
000140 d0 04 53 45 96 b4 a9 44 b2 e5 58 44 9d 94 c1 44
       3376.3008 1357.6433 867.589 1548.6442
000150 13 fb b1 43 06 aa 5c 44 94 ef 30 44 e6 f5 e9 43
       355.96152 882.6566 707.7434 467.92108
000160 f6 db d3 44 2e 52 b8 44 cc 51 84 43 ba c7 76 45
       1694.8738 1474.5681 264.63904 3948.483
000170 66 7e 44 44 32 95 6f 44 ee 58 12 42 e0 18 98 44
       785.975 958.3312 36.586845 1216.7773
000180 14 4d 10 45 e8 c5 b9 45 de 38 a7 44 7b 5d 30 44
       2308.8174 5944.7383 1337.7771 705.46063
000190 c3 1c f2 44 4e 49 7f 45 97 15 95 44 fe 43 15 44
       1936.8988 4084.5815 1192.6747 597.0624
0001a0 b4 8f ca 43 88 63 08 45 ae 04 18 44 a1 88 38 45
       405.12268 2182.2207 608.0731 2952.5393
0001b0 f2 ac 64 40 0f a0 8e 43 8e ce e8 41 54 c8 8c 44
       3.5730557 285.25046 29.100857 1126.2603
0001c0 04 00 00 00 3e 8d cf 44 72 d9 6a 41 48 6c e1 44
       6e-45 1660.4138 14.678087 1803.3838
0001d0 90 5b 8e 42 ba f7 f2 43 85 72 f6 43 9b d0 f3 42
       71.17883 485.93536 492.89468 121.90743
0001e0 98 67 4e 44 04 00 00 00 cf d0 6f 44 9a 84 35 44
       825.61865 6e-45 959.26263 726.0719
0001f0 ce 78 a8 43 ac c9 0b 42 3d 4d 5a 44 f7 87 ab 44
       336.9438 34.946945 873.20685 1372.2489

fc2.weight f4 [128, 128]
000000 45 16 ab 3d 08 87 ce 3d cd 9c 93 be fc 17 63 bf
       0.08353857 0.10084349 -0.28830567 -0.8870847
000010 d5 ee bd 3f e1 09 1f bf 97 13 8e 3e d8 da 14 3f
       1.4838511 -0.6212445 0.2774932 0.5814643
000020 a4 37 51 bd 14 d6 81 bf 70 00 c0 3f 18 08 b8 be
       -0.051078454 -1.0143456 1.5000134 -0.35943675
000030 30 bf 87 bf 34 04 87 3f 74 81 59 be c4 77 a8 3e
       -1.0605221 1.0548158 -0.21240789 0.32903874
000040 37 78 71 3f 81 5e 31 bf 3a 1c 51 be c2 75 e6 3f
       0.9432406 -0.69284827 -0.20420924 1.8004687
000050 c6 40 74 c0 a4 38 6d 3f bd ac 2b 3f a6 2c 1b 3f
       -3.8164535 0.9266455 0.6706045 0.60615003
000060 5c 88 e6 3f 06 b8 50 40 ae fb bb 3e 30 98 2f be
       1.8010364 3.261232 0.36715454 -0.17147899
000070 39 b8 bb 3e 5f 5b f0 3e 1d 0f 79 be e3 e4 75 3f
       0.36663988 0.4694471 -0.24322172 0.9605238
000080 d1 e8 a7 bf ce ca 8c 3f db 65 ea be b5 9e 2b bd
       -1.3117925 1.0999391 -0.45780835 -0.0418994
000090 ff d0 7c 3f a4 12 2c 3e a5 b1 ae be c7 98 f8 3f
       0.987564 0.16803986 -0.34119907 1.9421624
0000a0 a1 81 bd bd 43 cc 48 bf f1 63 46 3e fe b8 d1 3f
       -0.092532404 -0.7843668 0.19374062 1.638458
0000b0 da e3 80 3f 75 b0 0b 40 eb 7e 29 bf 12 7e d6 3e
       1.0069535 2.182645 -0.66209286 0.4189306
0000c0 26 aa da bf fd 91 0b bf a7 24 ad 40 e2 03 60 3f
       -1.7083175 -0.54519635 5.410724 0.87505925
0000d0 cd 0c 17 bf dc c5 ef 3e ed 25 ee 3e 91 2b 1c bf
       -0.5900391 0.46830642 0.4651331 -0.6100398
0000e0 d8 d9 a5 be aa f3 2f 3f a4 3a d8 3e 1e f7 d0 be
       -0.32392764 0.68731177 0.4223224 -0.40813535
0000f0 fd e4 1b 3e 8d 9f 95 40 04 8d 21 bf f8 34 22 bf
       0.15224071 4.6757264 -0.631058 -0.63362074
000100 f3 b2 80 bf e7 62 8d bf af 0d ce 3f 37 8e 19 40
       -1.0054611 -1.1045808 1.6097926 2.399305
000110 90 c3 17 be cf 4b e7 3f 22 5c e3 3e aa 78 ab bf
       -0.14820695 1.807001 0.4440623 -1.3396199
000120 b0 82 c2 3e ab 92 2c be ef 43 86 bf f2 61 c1 3d
       0.37990332 -0.16852824 -1.0489482 0.0944251
000130 c7 f0 ad be 92 58 52 3e 99 6b 2b 3d f9 5b b9 3f
       -0.3397276 0.205416 0.04185066 1.4481193
000140 c2 63 b1 3f 04 cd af be db 12 81 be 07 39 24 40
       1.3858569 -0.34336102 -0.25209698 2.5659807
000150 0d f1 32 3d a8 5a b7 3e 67 1a 0e 3f 3b fb ad 3f
       0.043686915 0.35811353 0.55509037 1.3592294
000160 80 f1 8b 3f c9 d5 08 3f 49 29 d8 3f 30 ae 92 3f
       1.0933075 0.5345121 1.6887599 1.1459408
000170 0d f1 b4 3e 5f c6 a5 3e bb 5f a3 bf 1f a5 2f 3d
       0.35340157 0.32377908 -1.276359 0.04288208
000180 f8 83 25 bd 64 b9 9d 3e 16 7a 11 bd 77 b1 d1 3e
       -0.04040906 0.30805504 -0.03551682 0.40955707
000190 cc 17 82 3e 53 a4 ea 3e e4 09 09 bf a9 c6 2d c0
       0.2540878 0.45828494 -0.53530717 -2.7152503
0001a0 d9 61 77 bf 22 a1 66 3e 84 6a 92 bf 11 c6 43 3f
       -0.9663368 0.22522405 -1.1438756 0.764741
0001b0 43 b6 e8 be 8b 4e 2c 3f 3a 9b b3 3e 17 08 c9 3f
       -0.45451555 0.6730735 0.35079366 1.5705594
0001c0 b7 6f 93 3f 81 fe 71 bf 1e 95 d0 be ec 4f 29 3f
       1.1518468 -0.9452897 -0.40738767 0.66137576
0001d0 a4 94 49 bf 00 0f 9f bf 23 6d f3 3d b1 0d 91 be
       -0.7874243 -1.2426453 0.118860506 -0.28330758
0001e0 49 82 f1 3f 54 b7 84 be 45 cd af bf 0a ea b4 bf
       1.8867885 -0.25921118 -1.3734518 -1.4133923
0001f0 f0 fb a2 be eb 36 a0 bf ee b3 05 bf 3c 3c 1c 40
       -0.31832838 -1.251676 -0.52227676 2.4411764
000200 46 09 32 3f 6a 81 c6 be 07 c8 30 3e 14 d0 f7 bf
       0.695454 -0.3877061 0.17263804 -1.9360375
000210 50 04 1f 3e 4f c7 3d 3d eb 4d a5 be b8 27 a4 be
       0.15528989 0.046332654 -0.3228601 -0.32061553
000220 2a ec 1a bf b1 23 ac be 60 f1 89 bf 07 02 8d bd
       -0.6051661 -0.3362098 -1.0776787 -0.06885152
000230 89 4f 03 3e af 8e 3b 3f 76 bc e0 3f d0 b4 55 bf
       0.12823309 0.7326459 1.7557514 -0.8347902
000240 ba cc a2 bf e8 13 7a 3f 0a 21 57 3f 13 bd 86 3f
       -1.2718728 0.97686625 0.8403479 1.0526451
000250 c7 d2 f9 be 91 0e 86 3f 59 17 6a 3f 0b e4 8a bf
       -0.48793623 1.0473195 0.91441876 -1.0850843
000260 5a 80 13 3f 11 32 41 3f da df b0 3f 0f c6 94 3f
       0.57617724 0.7546702 1.3818314 1.1622943
000270 6d 26 82 bf 05 cf 0b bf 4c 68 c3 3d 0c 9e 70 3f
       -1.0167977 -0.5461276 0.095413774 0.9399116
000280 12 99 c5 bf 4b a6 d5 be ff fb 84 3f d1 fc 7e bf
       -1.5437338 -0.41728434 1.0389403 -0.9960452
000290 c0 8d 1e 3e 7c 23 98 3f 6a b2 79 3f 0d 7e 2e 3f
       0.15483761 1.1885829 0.97537863 0.6816109
0002a0 08 c5 8e 3e 5c e1 a8 3e 23 6c 42 bd f4 79 c3 3e
       0.27884698 0.32984436 -0.04746641 0.3817898
0002b0 8d 61 19 3e ea 6c 8e 3e c3 98 5e 3f 93 6e 55 bf
       0.14978619 0.2781747 0.86951846 -0.8337185
0002c0 f0 c0 ec be a3 b2 42 3e 65 65 a2 3f ee a6 51 be
       -0.4624095 0.19013457 1.2687193 -0.20473835
0002d0 23 32 7e 3f 92 6e a5 3d b1 83 05 be 9d 2d ee 3e
       0.9929525 0.0807773 -0.13038518 0.46519175
0002e0 c5 64 0f 3f 8b 64 c7 bf ad 67 83 bd 32 3c 89 bf
       0.5601314 -1.5577558 -0.06416259 -1.0721495
0002f0 be f9 25 3f 02 a1 50 3f a8 ab 06 3e db 32 95 3e
       0.648342 0.8149568 0.13151419 0.29140362
000300 47 a1 23 3e ed 17 71 bf e9 1f 96 bc b4 b9 6e 3f
       0.15979491 -0.9417713 -0.018325763 0.9325211
000310 31 25 09 3f 95 b7 bc 3f 9e 86 73 bf e1 01 99 3e
       0.53572375 1.4743525 -0.95127285 0.29884246
000320 d6 b4 ec bf 93 18 99 3f 5f 8c 9a 3f 3c c6 96 3f
       -1.8492687 1.1960624 1.2074088 1.1779246
000330 8b 98 7d 3f f3 f7 9f 3f d8 7c 6d bf 21 76 81 bc
       0.9906089 1.2497543 -0.9276862 -0.015803399
000340 0f 6a 2a 3f ec 25 fe be da d0 98 3f fc ec 14 bf
       0.6656808 -0.49638307 1.1938736 -0.5817411
000350 77 5d 0e 3f 9a b9 ba bf c2 fe 8c 3d 76 92 be 3f
       0.55611366 -1.4587891 0.06884529 1.4888446
000360 10 a1 8b bf 35 c9 b8 bf 09 cc d4 3f 4b 76 8c 3f
       -1.0908527 -1.4436404 1.6624767 1.09736
000370 0d f0 2f bf 61 81 bb 3e 9d c9 17 be 55 82 06 3f
       -0.68725663 0.36622146 -0.14823003 0.5254262
000380 c1 77 dc be 49 f9 a9 bd 91 6e 92 3e 07 02 4f 3f
       -0.43060115 -0.082995005 0.2859998 0.8086247
000390 cd eb 60 bf 1f 87 d3 3e a2 d1 95 3e 32 0e 14 bf
       -0.87859803 0.41314027 0.292615 -0.5783416
0003a0 41 78 e0 3d 5b b0 4a 3e 1d 52 d4 be 79 67 b2 bf
       0.109604366 0.19793837 -0.41468897 -1.3937827
0003b0 9d 89 12 3f 26 f9 d7 3e 0b ce 26 3f 2d 0d 61 bd
       0.5724123 0.42182273 0.65158147 -0.054944206
0003c0 d4 cc 05 3e c7 ed e2 be 73 e1 9b 3f 14 bf 53 be
       0.13066417 -0.44322035 1.2178177 -0.2067836
0003d0 fc e8 d1 3e 0e 2e 4d be 2f 40 3b 40 ed 25 7c bf
       0.40998065 -0.200371 2.9257925 -0.9849537
0003e0 3c 79 df 3f 5f 65 a9 3d e2 a6 2c bf 1e 15 5a bf
       1.7458873 0.08271288 -0.6744214 -0.8518847
0003f0 59 22 48 bd fe ee f8 3f b0 4c 6e bf 78 50 c7 bc
       -0.04886088 1.9447935 -0.93085766 -0.024330363

fc2.bias f4 [128]
000000 be 74 71 bf 5a fd b8 bf 27 3f 04 3f e5 6e a1 bd
       -0.9431876 -1.4452317 0.5165886 -0.078824796
000010 b9 4d 09 bf d5 85 82 3e 30 a7 9c bf 5e 33 bd bf
       -0.5363422 0.2549273 -1.2238522 -1.4781301
000020 00 56 9b bf 39 4f 8d 3f 2f f5 34 bf b0 9a 7a bd
       -1.213562 1.1039802 -0.7068662 -0.061182678
000030 52 00 54 3f e4 a0 69 be e8 f8 b4 be 9b 6b 82 be
       0.8281299 -0.22815281 -0.3534615 -0.2547272
000040 96 5d 25 c0 c9 95 25 3e 6e f3 8a bf 27 bb 0c be
       -2.583837 0.1617042 -1.0855539 -0.13743268
000050 28 10 ae bf 7b b5 ca bf e1 a9 f9 3e ca 5f da 3f
       -1.359868 -1.5836633 0.4876242 1.7060483
000060 b8 ec b9 3f 0c 09 db bf 5a 96 b1 bf ce 64 e2 3e
       1.4525366 -1.7112136 -1.3874009 0.44217533
000070 e0 91 9a 3f 44 2a ad be 32 48 7f bf 8e 4b 46 bf
       1.2075768 -0.3382131 -0.99719536 -0.7745904
000080 51 aa 9d bf cd bf 83 bf 90 07 4d be ce d0 9d 3e
       -1.2317601 -1.0292908 -0.20022416 0.30823368
000090 d6 d9 53 3f f9 b3 a0 3f a7 42 fa bd 5b 1c 3d be
       0.82754266 1.2554923 -0.12219744 -0.18467848
0000a0 8e b7 a8 3f fb ac 88 bf 72 50 25 bf 36 7b 93 bf
       1.3181016 -1.067779 -0.64575875 -1.1521976
0000b0 e7 a8 aa 3f d6 2f 77 bf 60 aa d6 bf 98 89 95 3e
       1.3332795 -0.96557367 -1.6770744 0.29206538
0000c0 c3 ed cb bf ba 5c 0a c0 e2 32 46 bf bc 4c c4 be
       -1.5931934 -2.1619096 -0.7742139 -0.38339794
0000d0 8b ab 86 bf 8d 2e 29 bf 12 f1 9d bf d3 24 40 3e
       -1.0521101 -0.66086656 -1.2339194 0.18764047
0000e0 a3 24 96 3f f6 61 e5 be 25 53 0f 3d 17 d9 e5 bf
       1.1729931 -0.448013 0.034991402 -1.7956876
0000f0 3a b6 6f bf 41 34 ab 3f 65 41 ba 3e ba 19 41 c0
       -0.9363743 1.3375322 0.36378017 -3.0171952
000100 7d 74 e6 3e 8d 8d 95 bf bb 4a 11 bf c4 e0 31 3f
       0.45010749 -1.1683823 -0.56754655 0.6948359
000110 be 29 a3 be cb 1f b5 3d 01 32 32 3e df 50 ec 3e
       -0.31867784 0.08843955 0.17401887 0.4615545
000120 ad 1a 19 c0 3f e6 2f bf 2d ce bb bf 9e 30 41 bf
       -2.3922532 -0.687107 -1.4672295 -0.7546481
000130 83 c9 dd be 2c ac 7b bf 4f e8 8c bf 4a 75 0d bf
       -0.43317804 -0.9830959 -1.1008395 -0.55257094
000140 ba 4f 68 bd 85 ae 91 bf d7 7c 38 c0 97 42 11 bf
       -0.05671666 -1.1381384 -2.8826196 -0.56742233
000150 03 8c cc bf f4 3e 94 3d 57 39 06 bf db 7b 29 3f
       -1.5980228 0.0723857 -0.52431244 0.66204613
000160 24 cd 08 3f 33 15 84 3f 71 bf 7d bf 07 87 c8 bf
       0.5343802 1.031897 -0.9912024 -1.5666207
000170 11 b9 bf bf f7 21 0d bf 3c 22 ee bf 9a 62 79 bf
       -1.4978353 -0.5512995 -1.8604198 -0.9741608
000180 22 b6 a2 be 3b b5 51 bf 77 5b 03 be a1 50 a4 bf
       -0.3177958 -0.8191716 -0.1282786 -1.2837106
000190 05 d7 82 bf c1 02 0b be 8b 76 d1 be 67 ab d8 bf
       -1.0221869 -0.1357527 -0.40910754 -1.6927308
0001a0 f7 aa 62 3f 51 2d b8 bf 1c e7 eb bf 22 15 a3 bf
       0.8854212 -1.438883 -1.8429904 -1.2740824
0001b0 8e 34 4e bf 13 fd 4b 3f 42 ba 1d 3f ca 02 14 3d
       -0.8054894 0.79683036 0.6161233 0.036135472
0001c0 66 69 5c 3f 5e 7e 83 bf 61 c1 a6 bf 87 e9 0e bf
       0.86098325 -1.0272939 -1.3027765 -0.55825084
0001d0 25 58 c9 bf f1 2c 04 3f eb 21 6a 3e b7 44 90 be
       -1.5730025 0.51631075 0.22864501 -0.28177425
0001e0 43 86 42 3f 9d c8 b3 bd bf 72 a1 bf d6 27 24 be
       0.7598612 -0.08778498 -1.2613143 -0.16030821
0001f0 f0 95 b4 bf 16 54 7a 3f ef 4d 15 3f 33 7e 66 bf
       -1.4108257 0.97784555 0.5832204 -0.90036315

fc3.weight f4 [2, 128]
000000 ab 14 18 40 0e 62 aa be 7e bc 11 40 6d 8e cc be
       2.3762615 -0.33277935 2.2771297 -0.39952412
000010 43 76 b0 3f a0 5b d8 bf 92 1f ea bd 11 47 ac 3b
       1.3786091 -1.6902962 -0.11431803 0.005257495
000020 1c ad 8b 3d ec 35 a6 bf 8d d8 0d 3e 90 ac aa bf
       0.06820127 -1.2985206 0.13852139 -1.3333912
000030 63 ce 12 c0 02 67 aa bf b6 2e 67 bf c8 9d 62 bf
       -2.2938468 -1.3312685 -0.9030565 -0.88522005
000040 1d 47 20 40 12 a3 e4 bf 88 33 d9 3f cf 79 5d bf
       2.5043404 -1.7862265 1.6968851 -0.8651399
000050 79 38 9d be 20 7b 17 40 5d c2 93 bf 93 8b d5 bf
       -0.30707148 2.36689 -1.154369 -1.668322
000060 43 fe 27 3f 95 2e 6c bf c3 f9 c0 3f 7c ad b2 be
       0.6562235 -0.9225858 1.5076221 -0.34897983
000070 4b f0 f5 bf f7 81 c1 be ed 34 46 3f 9f e9 00 3f
       -1.9213957 -0.37794468 0.7742451 0.5035648
000080 32 32 ae 3e 09 d2 d7 3f 88 61 db bf be 9f 3d 40
       0.3402267 1.6860973 -1.7139139 2.962875
000090 6d 62 e5 bf ce 90 9b bf e7 76 d0 bf a5 2e 89 bf
       -1.7920662 -1.2153566 -1.6286286 -1.071736
0000a0 2b 9f 08 c0 83 86 4a 3f 50 17 71 bf 64 14 fe be
       -2.1347148 0.791115 -0.941762 -0.49624932
0000b0 33 58 c8 bf a0 c0 88 3f 67 43 ad 3e 53 d1 37 40
       -1.5651916 1.0683784 0.33840486 2.8721511
0000c0 0d da e1 3f 4f 4e 7c bf 6c 97 c4 be 4b 69 57 3f
       1.7644669 -0.9855699 -0.38396776 0.8414504
0000d0 c4 ec c9 3f c2 66 26 3f 60 4e ac bf 93 84 90 bf
       1.577538 0.65000546 -1.3461418 -1.1290458
0000e0 1e 7d bb bf 63 4d 17 bf e3 9f 56 bf 43 06 5e bf
       -1.4647558 -0.5910246 -0.8383772 -0.86728305
0000f0 d0 8b a0 3f 59 56 d8 bf c2 97 ae bf 6b 7a 07 40
       1.2542667 -1.6901351 -1.3640063 2.1168468
000100 d2 75 1d 40 e2 1b ca 3f c3 f9 6f 3e 03 f4 8e bf
       2.4603162 1.5789759 0.2343512 -1.1168216
000110 dc 40 8e 3f 7c a2 f5 be 17 ae b5 bf 97 86 cf bf
       1.1113544 -0.47975528 -1.4193753 -1.6212949
000120 49 f0 04 3f dd 0e b3 bd e4 ea 21 be 6d 2d 45 bf
       0.51929146 -0.08743069 -0.1581226 -0.7702244
000130 96 51 f9 bf 96 67 5a bf 72 74 40 be eb 1d 83 be
       -1.9478023 -0.8531431 -0.1879442 -0.25608763
000140 f9 d6 97 3f 6f b7 09 3f 9d 15 94 3f 8b dc 48 bf
       1.186248 0.5379552 1.1569096 -0.7846152
000150 78 1a 24 3f 1a 29 b7 bf f7 44 ba 3f 16 90 b2 bf
       0.6410289 -1.4309418 1.4552296 -1.3950222
000160 b1 00 c1 bf 70 a0 8e bf 03 25 41 40 ba 52 94 bd
       -1.5078336 -1.1142712 3.017884 -0.07242341
000170 1e 22 af bf 16 fb e7 bf a3 b6 97 bb 86 fc 02 c0
       -1.3682287 -1.81235 -0.0046299263 -2.0466628
000180 35 10 32 3f 03 61 d1 bf df 79 e4 bf 58 0f fc 3f
       0.6955598 -1.6357731 -1.7849692 1.9692183
000190 bd 76 a0 bf 8c d8 48 bf f9 0f f0 3f 6d c8 13 40
       -1.2536236 -0.78455424 1.8754874 2.309108
0001a0 03 bc e9 bf 02 4c f8 3f 64 f7 0e bf b0 8d 26 3f
       -1.8260502 1.9398196 -0.5584624 0.6505995
0001b0 33 3c 81 bf 7b 03 e7 bf 09 21 03 c0 f1 d9 a5 bf
       -1.0096496 -1.8047937 -2.0488913 -1.2957135
0001c0 7e cd 26 c0 38 7d 62 40 7b 94 07 40 02 e3 7e 3f
       -2.6062922 3.5388927 2.1184375 0.99565136
0001d0 c8 0e 32 be 3d e3 26 40 45 d2 b6 bf 6a 97 c7 be
       -0.17388451 2.6076195 -1.4282919 -0.38982707
0001e0 db ff d4 bf a0 dc 92 be e4 88 dd 3f 07 5b 87 bf
       -1.6640581 -0.2868395 1.7307401 -1.0574654
0001f0 cd cc c3 3f 25 22 9e bf c0 29 e9 bf 81 fe 27 be
       1.5296875 -1.235417 -1.8215866 -0.1640568
000200 38 a2 89 bf da 42 ea 3d 75 05 5e 3f d4 c8 14 40
       -1.075263 0.11438532 0.86727077 2.3247576
000210 c2 d7 8a 3e 60 08 00 c0 98 1d 9f bf a6 43 18 c0
       0.27117735 -2.0005112 -1.2430906 -2.379129
000220 2b 52 80 bf 9f 81 06 40 a0 7a c9 bf a2 c6 89 3c
       -1.0025076 2.1016614 -1.5740547 0.016818348
000230 c4 58 01 c0 ac 76 89 3c 59 ac bf 3d 5d 92 44 3f
       -2.0210428 0.01678022 0.093590446 0.7678583
000240 9c c3 1d be 24 1f d6 bd 09 b2 0f c0 62 f6 da 3f
       -0.1540665 -0.10455158 -2.2452414 1.710644
000250 92 d8 b7 bf bb 4b 34 be 8f 2a cf bd a2 bd 1e 3f
       -1.4362967 -0.17607014 -0.10115539 0.62008107
000260 51 4d f6 3f 5b 6a e8 3f 78 87 ff be 96 6f 34 40
       1.9242345 1.8157457 -0.49908042 2.8193107
000270 ed a4 a4 3c f4 6b de bf f5 f9 9d bf 37 6a d3 bf
       0.020098174 -1.7376695 -1.2341906 -1.6516789
000280 7e 23 74 bf 34 b5 50 bf d2 c4 61 be 72 15 fd 3e
       -0.95366657 -0.81526494 -0.22047737 0.49430424
000290 43 1b 8d 3c 76 43 dd 3f cc a6 a2 be e9 0d 82 bd
       0.017224913 1.7286212 -0.3176788 -0.063503094
0002a0 cb 5b 5b be 72 8d 99 bf af 17 63 c0 24 e8 36 3f
       -0.21421735 -1.1996291 -3.5483205 0.7144797
0002b0 d9 2f 80 bb 1e 77 a5 3e 9a 98 6c bf c4 4b a2 3e
       -0.003911954 0.32317442 -0.9242035 0.3169843
0002c0 69 3e 95 bf fc 52 64 3f 6e 7b 87 bc 50 26 2f bf
       -1.1659671 0.89189124 -0.016538348 -0.68417835
0002d0 2c dc 71 3e aa db 29 3f 04 bc 4f 3e cf 5a 26 40
       0.23619145 0.66350806 0.20286566 2.5992925
0002e0 7f e4 e1 be b7 72 6f 3f da 5b 31 bf 69 55 89 3f
       -0.4411964 0.93534416 -0.6928078 1.072919
0002f0 80 b5 92 bf cf f5 1c be c1 f0 f0 3f f9 02 7e 3f
       -1.146164 -0.15328144 1.8823472 0.99223286
000300 25 d8 69 3f 9d 3b 05 c0 b3 e4 cd bf f2 cd 04 bf
       0.91345435 -2.0817635 -1.6085418 -0.5187675
000310 b0 f0 38 bf 59 0b 11 3f 62 5c ef 3e 50 96 5d 3f
       -0.7224226 0.5665794 0.4675017 0.86557484
000320 90 1e 51 3f 28 26 f5 bc 00 eb 97 bf 6e 20 c5 3f
       0.8168726 -0.02992542 -1.1868591 1.5400522
000330 85 84 cd bf 4c 50 38 3f 4d 58 75 bf 8c a9 01 3f
       -1.6056067 0.71997523 -0.9583786 0.50649333
000340 76 6b 81 be 15 c5 b0 bf 80 bf af 3e 13 ca 29 3f
       -0.252773 -1.3810145 0.3432579 0.66323966
000350 0f 84 f2 3f 84 5f 44 bf a2 40 09 3f 53 25 ab bf
       1.8946551 -0.76708245 0.53614247 -1.3370765
000360 00 ce c5 3f 03 2d 0a 3f b7 5c 0d bf 3d 96 58 c0
       1.5453491 0.5397493 -0.55219597 -3.3841698
000370 a4 f8 71 3d e1 3f b4 3d 06 69 3e be d9 6d 7d 3f
       0.059075013 0.088012464 -0.18594751 0.9899574
000380 24 0c 2b c0 67 07 86 3d 6c 98 83 bf 53 74 05 c0
       -2.672616 0.06544381 -1.028089 -2.0852249
000390 53 97 6a c0 dd 61 9e 3e d7 b5 29 bf 07 5b 91 bf
       -3.665486 0.3093404 -0.6629309 -1.1355904
0003a0 0e b6 26 3e 3e bb ce bf 62 d7 1a 3d ee ca 71 bf
       0.16280386 -1.6150892 0.03780306 -0.9445027
0003b0 1d 4c df bf 39 c7 35 3f a2 56 46 bd 6c 98 f3 bf
       -1.7445103 0.71007115 -0.048422463 -1.903089
0003c0 4d 8f 72 3e 7d 10 9a bf 8c 0f 9a bf 7b 42 b0 3f
       0.23687477 -1.2036282 -1.2035995 1.3770288
0003d0 3d c3 32 bf e3 79 fe 3e 0d c6 b7 bf d2 c7 19 3f
       -0.6982916 0.49702367 -1.4357315 0.60070527
0003e0 e7 98 c5 3f 46 47 22 3e 81 f7 30 3f 53 ed 97 3f
       1.5437287 0.15847501 0.6912766 1.1869301
0003f0 e4 36 e3 bf 91 e6 ce 3f 70 37 d9 3d e1 ee 35 c0
       -1.7751126 1.6164113 0.10606277 -2.842705

fc3.bias f4 [2]
000000 04 51 fc 3e f1 10 b0 3f
       0.4928056 1.375517
