training_output/best_agent/checkpoints/episode_638/weights_critic.pth (torch_old, 84182 bytes, 9 tensors)

fcs1.weight f4 [128, 24]
000000 5b 8d 47 3e 38 d0 02 3d 7c 31 0b 3d 52 4a cf 3e
       0.19487517 0.031936854 0.03398274 0.4048639
000010 a9 a5 1a bf b4 a2 3d 3e f3 e1 75 bd 4a 99 d7 3e
       -0.6040903 0.18519098 -0.060029935 0.42109138
000020 71 1c 70 3e a4 a4 b8 3e d3 91 c1 bc 67 96 d2 3b
       0.2344835 0.3606311 -0.023629105 0.0064266208
000030 12 70 6a bf c2 40 71 bf bd b2 fa 3c dc 60 50 3d
       -0.91577256 -0.9423944 0.030602807 0.050873622
000040 b0 3f 46 3f 29 4d bc 3e 7b 6b 50 3d 0d d5 43 be
       0.7744093 0.3677762 0.05088375 -0.19124241
000050 2c 92 34 bf ff a2 1f c0 2f eb 37 bc ab 87 14 be
       -0.7053554 -2.4943235 -0.011225506 -0.14504878
000060 f1 59 0c 3f 2b df aa 3f 76 4f c2 bd 16 b8 de be
       0.5482474 1.3349355 -0.09487812 -0.4349982
000070 24 5a bc be cb 22 1c be aa 22 b2 bd 34 40 bb be
       -0.36787522 -0.15247647 -0.08698018 -0.3657242
000080 9a 78 2f 3f e6 82 1a 3f c9 24 b9 3d eb 80 c7 bc
       0.685434 0.60355985 0.09040219 -0.024353465
000090 cc 4e f4 be 80 5a 77 3d f6 68 02 3e cf a5 c6 3d
       -0.47716367 0.060389042 0.12735352 0.09699594
0000a0 43 80 57 3f 57 04 4c 3d 14 ea b1 bd 2f e2 af be
       0.84180087 0.049808826 -0.08687225 -0.34352252
0000b0 55 7f 93 bf 41 d3 ac 3e 21 e8 11 be 7c 61 e4 be
       -1.1523234 0.33754924 -0.14248706 -0.44605625
0000c0 05 29 0b be 8f 0e b2 3e f2 cb 2a 3b e5 06 17 3e
       -0.13589866 0.34776732 0.0026061502 0.14748724
0000d0 be 00 55 bf 11 f4 af 3f 06 1a 48 bc a2 5f 47 3e
       -0.8320426 1.3746358 -0.012213236 0.19470075
0000e0 07 67 dd bb 42 9f 2a 3f 18 80 89 bc 75 7c 94 3c
       -0.0067566666 0.6664926 -0.016784713 0.018125752
0000f0 b4 a4 cf 3c 49 63 89 3d 76 55 49 bc 84 1e 00 bd
       0.025347091 0.0670839 -0.012288442 -0.031279102
000100 3f 6d 56 3d cc a1 33 3f 7a 5a 3e 3d d6 84 9c 3e
       0.05235028 0.7016876 0.046473004 0.30570096
000110 13 9c 63 3f 2f 07 fc bf f4 2e 60 bd 61 3f 93 3e
       0.88910025 -1.9689692 -0.054732278 0.28759292
000120 5e 7a d5 be 7a 00 b4 3d 54 c2 89 bd 1a d3 29 bf
       -0.4169492 0.087891534 -0.06726518 -0.6633774
000130 44 36 cf 3e 17 11 d1 be a6 7b ea 3c cb e3 17 bf
       0.4047109 -0.4083335 0.028623413 -0.5933196
000140 13 a1 36 bf 12 00 6a bb 30 99 37 bd a2 1b 5f bf
       -0.7133953 -0.0035705608 -0.044823825 -0.8715154
000150 fc 9b fc 3e 53 d2 60 bd 0b 31 2d be 87 51 5d bf
       0.49337757 -0.05488808 -0.1691324 -0.86452526
000160 63 fa 66 bf ee fa 09 bf 16 1f f2 bd 85 91 39 bf
       -0.9022581 -0.53898513 -0.118223354 -0.7248767
000170 34 7e 24 3f 31 d2 ac be b2 a6 89 bd 4d 93 5b bf
       0.6425507 -0.33754113 -0.06721248 -0.8577164
000180 fd fb 8a bf 3e 10 23 bf 1e 65 70 3a 61 a2 03 3d
       -1.0858151 -0.6369666 0.0009170341 0.03213728
000190 c3 08 3c 3e 7a 75 38 be f9 2f ec bd be 08 69 bd
       0.18362717 -0.18013564 -0.115325876 -0.056893103
0001a0 e0 80 0f bf 8a 3c c6 be 43 40 ad 3c b7 59 08 3f
       -0.5605602 -0.38718063 0.021148806 0.53261894
0001b0 4c 90 8c 3e e1 96 11 be e7 c1 8a 3d 83 25 26 3f
       0.2745384 -0.14217712 0.06775265 0.6490099
0001c0 12 3d 25 bf 7a c0 f5 be 9c d3 20 3d 9f 3f b5 be
       -0.6454631 -0.4799841 0.039264306 -0.35400102
0001d0 ae 3b 5a 3d e4 24 14 40 a0 98 16 3e 2a ed b8 be
       0.05327957 2.3147516 0.1470666 -0.36118442
0001e0 68 c3 04 be 7f 35 96 3f c4 55 01 bd f8 97 f7 3d
       -0.12965167 1.1735076 -0.031575933 0.120895326
0001f0 e5 a4 a4 3e e2 f6 3a bf 9e 37 e7 bc 94 d4 0b 3e
       0.32157055 -0.73032963 -0.028224763 0.13655311
000200 3f cf 9d be 34 6c 5b 3f de 74 9a bd 30 12 da 3d
       -0.3082218 0.8571198 -0.07541822 0.10648
000210 91 c9 db 3e 94 6c b0 bf a3 df 90 3d b7 89 e0 3d
       0.4292722 -1.3783135 0.07073905 0.10963767
000220 7d 35 92 bf 2d 96 95 3f f7 5b b4 bd 26 ae cc 3d
       -1.1422573 1.1686455 -0.088066034 0.09994154
000230 07 2c 86 3e 73 b0 d3 bf 12 31 27 3d e9 23 10 3e
       0.26205465 -1.6538223 0.04081828 0.14076199
000240 e1 9a 55 3e d3 d8 8a 3f 87 63 73 bc 85 2f 0b bf
       0.20859863 1.084742 -0.014855272 -0.54369384
000250 9e 15 89 3e d7 77 73 bf 44 d3 b7 bd c3 0d 06 bf
       0.26774305 -0.95104736 -0.089758426 -0.5236475
000260 91 ca 36 3e 5f 47 44 3f 2c 71 d1 bc 6e 6d 91 be
       0.1785071 0.76671404 -0.02556666 -0.284038
000270 35 78 05 3f 45 be df bf eb 5e 03 3d 81 4d 50 be
       0.52136546 -1.7479941 0.032072943 -0.20342065
000280 0a d6 37 3e 54 e1 75 be 1c 48 83 3e 62 1d 08 bf
       0.17952743 -0.24011737 0.25640953 -0.53169835
000290 54 29 b9 3e e5 4f 25 c0 35 4e 70 3e 85 45 18 bf
       0.36164343 -2.5830014 0.23467334 -0.5948108
0002a0 2d 09 1a be 2c 04 6c be d7 8b d8 bc 94 28 a0 3b
       -0.15042563 -0.23048466 -0.026433868 0.00488765
0002b0 5b b8 7d 3f 77 30 29 3e 1d 66 02 3d 21 8f 19 bd
       0.9910943 0.16522394 0.031835664 -0.037490014
0002c0 6b af 01 bd ed 35 db 3d b9 1a 72 3c 8b 59 c5 3a
       -0.031661432 0.10703645 0.014776879 0.0015056593
0002d0 a8 fa 2e 3f be 48 1a 3f 8a d4 0c bd 73 cb e8 bb
       0.6835122 0.60267246 -0.03438238 -0.007104331
0002e0 33 13 b3 3e d2 fa 21 be 55 b4 03 bd de b5 08 3d
       0.34975585 -0.15818337 -0.0321544 0.033376567
0002f0 02 8c fb bf 79 0c d9 bd 00 d8 9f ba bb 15 4d bd
       -1.9652102 -0.10598082 -0.001219511 -0.050069552
000300 47 21 be 3d 2a 93 83 bf a7 ae cf 3c e3 49 f0 3c
       0.09283691 -1.0279286 0.025351835 0.029332107
000310 cb a7 d8 bc e4 5a 69 3f 35 c3 21 bd eb ea e3 3d
       -0.026447197 0.91154313 -0.039492805 0.111287914
000320 22 e2 cd 3e 3f 0e b3 bf 12 77 f0 3c 63 08 25 bd
       0.40211588 -1.3988723 0.029353652 -0.0402912
000330 e3 f4 2f 3d 51 31 ab 3f 37 d2 12 bd 47 b0 9d bd
       0.04295815 1.3374425 -0.035845008 -0.07699638
000340 4c 65 20 3f 44 ab da bf 2c f0 a1 3d f4 ec 9a be
       0.62654567 -1.7083516 0.07907137 -0.30258906
000350 58 a4 1c be f9 03 e2 3f b9 20 0a bd de a7 ae be
       -0.15297067 1.7657462 -0.033722613 -0.34112448
000360 63 49 18 be 66 16 94 bf 63 ab be 3e 17 05 00 3f
       -0.14871745 -1.1569335 0.37240133 0.50007766
000370 b2 61 45 3f cd db 02 bf 48 af c0 3e 46 5d e4 3e
       0.77102196 -0.5111664 0.3763373 0.44602412
000380 87 f2 28 be a9 b1 6c bf 48 76 50 bd 4a 72 08 3c
       -0.16498767 -0.9245859 -0.05089405 0.00832803
000390 d9 22 46 3f 53 9f 88 be 37 03 13 be b9 ef 0b 3e
       0.77396923 -0.26684055 -0.14356695 0.13665666
0003a0 56 fa 05 bf 16 03 85 bf 54 24 e9 bd 34 5c 03 bf
       -0.5233511 -1.0391567 -0.11383882 -0.51312566
0003b0 8b 1c 92 3f 15 ba 2b be 5e fc 86 be 02 93 e9 be
       1.1414961 -0.16770203 -0.26364416 -0.4561997
0003c0 0f 7a ad 3f 8f b3 00 3f 65 b0 2f be 08 bd 35 3f
       1.3552874 0.50273985 -0.17157133 0.70991564
0003d0 62 13 15 3e 69 3e 12 be 68 e6 01 bd b6 b5 26 3f
       0.14558175 -0.1428162 -0.031713873 0.6512102
0003e0 89 ba 62 3f df ac 36 3f 52 f1 5b bd 5a 32 87 3d
       0.8856588 0.7135753 -0.053696938 0.06601401
0003f0 00 b3 5b 3d 76 c1 19 3d 0d 76 25 bd f4 b8 c2 3c
       0.053637505 0.037538014 -0.040395785 0.023769833

fcs1.bias f4 [128]
000000 7c e4 ca 3e 47 c4 12 bf e7 36 17 bf da b9 94 bf
       0.39627445 -0.57330745 -0.5906815 -1.1619217
000010 f6 0c 09 c0 8f ab 67 3f cb 0f 39 bd 70 d6 0c bf
       -2.141416 0.9049615 -0.045181077 -0.55014706
000020 7d e0 fa be 40 a3 b4 be c5 9f 38 bf c4 be 1b bf
       -0.48999396 -0.352808 -0.7211879 -0.6083796
000030 f6 ac b6 3e 2c 41 2f be 22 70 f4 3e a9 12 11 be
       0.35678834 -0.17114705 0.477418 -0.14167275
000040 87 0f 85 bc 8c ce 1f be 3a 44 7d bd 9d 7a cd 3d
       -0.016242756 -0.15606135 -0.061832644 0.10033152
000050 7e e3 c8 bf 02 7c 5f bf 72 6c b1 3e 32 d1 d3 be
       -1.5694425 -0.87298596 0.3465305 -0.4137054
000060 55 6c d3 be 61 f7 1a be dd 32 d3 bf 50 45 f5 bd
       -0.41293588 -0.1513343 -1.6499897 -0.11976111
000070 42 61 21 3e aa cf bd bf 5e 50 76 bf 79 83 01 c0
       0.15759757 -1.4828999 -0.9621638 -2.0236495
000080 5d 84 23 c0 d0 fe fb bf eb 9a fa be f8 8f 86 c0
       -2.5549538 -1.9687138 -0.48946318 -4.2050743
000090 ec d8 17 bf a6 8c 4e 3f 03 5e ae 3f e5 0e 3c be
       -0.5931537 0.8068336 1.362244 -0.18365057
0000a0 d5 40 7a bf b1 20 0a bf 97 a6 0b bd 08 85 0a bf
       -0.97755176 -0.53956133 -0.03409442 -0.5410924
0000b0 32 fb ac be 80 db 93 3f 6e 2a 17 bf 37 0d dc be
       -0.33785397 1.1551361 -0.5904912 -0.42978832
0000c0 69 22 57 bf 9a 20 b4 be 82 db 52 bf 58 1a f4 3e
       -0.8403688 -0.35181123 -0.8236619 0.4767635
0000d0 89 e5 ff bc 95 2b c6 be e6 d1 ac bf 31 af 6e be
       -0.03123738 -0.38705125 -1.3501556 -0.23309018
0000e0 5b 73 8a 3e 3c 9a 1d 3e 49 1c 2d be ab 44 1f be
       0.27041134 0.15390867 -0.16905321 -0.15553539
0000f0 ea a7 86 bd 6c d9 e6 be a2 bc 96 bb 28 f4 08 bf
       -0.06574996 -0.45087755 -0.0046001235 -0.5349755
000100 fa 8a f7 3d e6 03 7e bf b2 a7 27 be 45 1e 30 3f
       0.120870546 -0.992247 -0.16372564 0.6879619
000110 ce c5 04 3e 68 7a c6 be 01 d7 fb be e1 69 19 bf
       0.12966082 -0.38765264 -0.49187472 -0.59927183
000120 fb 73 da be 40 fa 1e 3e 87 2b f9 be f8 1c b2 3f
       -0.4266661 0.1552515 -0.4866602 1.391509
000130 11 33 90 3d be 18 71 be b2 d2 d6 be 46 c3 fe be
       0.0704099 -0.23544595 -0.41957623 -0.49758357
000140 f4 70 ee be 32 f8 22 3f a6 49 c2 3e 10 47 8a bf
       -0.4657055 0.63659966 0.37946814 -1.0802937
000150 1a ff f3 be 8d 3a 4d 3e 44 88 9a 3c 31 64 18 3d
       -0.47655565 0.20041867 0.018863805 0.037204925
000160 ad 7b 0d bf cf 0a f5 3c 65 c5 9a be c6 90 41 bf
       -0.5526684 0.02991238 -0.30228725 -0.7561153
000170 6f 3d 2d be 70 aa 81 3e 60 cb 73 3e d0 79 cd be
       -0.16917966 0.25325346 0.2380805 -0.40131998
000180 af 2c fd be 5b 13 bb be 0d aa 8d 3e 00 c7 82 be
       -0.49448153 -0.36538205 0.276688 -0.2554245
000190 a2 17 e6 bf d3 0b d6 3e 8c 4b b4 3d ca 4a 3a bf
       -1.7975962 0.41805896 0.08803472 -0.7277037
0001a0 4e 89 90 bf 08 db 38 bf 2f a4 8c be ef 0a af 3f
       -1.1291902 -0.72209215 -0.27469012 1.3675212
0001b0 2a 13 a4 3e e3 cf 54 3d 9e 62 d2 3d 03 a0 24 3e
       0.3204587 0.05195607 0.10272716 0.16076665
0001c0 9e 1b 93 bf 9f 9e d3 bf 44 58 74 bf cf a7 03 bc
       -1.1492803 -1.6532782 -0.9544718 -0.008035614
0001d0 3b 3d 35 3e d5 30 8a bf 11 4a d4 3c 96 52 d6 bf
       0.17699139 -1.0796152 0.025914224 -1.6743953
0001e0 0d e2 76 be 44 60 4e bf cb 94 2d 3f 75 f9 bc bf
       -0.24109669 -0.8061564 0.67805165 -1.4763628
0001f0 a7 f4 ed 3e 85 6c b0 bf de 8d bf 3e ef e7 02 3f
       0.46475717 -1.3783118 0.37412924 0.5113515

bn1.weight f4 [128]
000000 4b 5b 2c 3e 27 56 f1 3c e4 1e f9 3d 8e d7 ca 3d
       0.168317 0.029460026 0.12164095 0.09904395
000010 5b 72 4f 3d 0b 5d 5d 3e 1c c0 22 3e c5 95 fa 3e
       0.050646167 0.21617524 0.15893596 0.4894239
000020 c1 44 7d 3e 78 81 2e 3e 7a 51 59 bd aa d3 8f 3d
       0.24733259 0.17041576 -0.053056218 0.070227936
000030 f4 62 41 3d 35 f7 e9 bb bf 9f 9c 3e 3a 09 18 3f
       0.04721351 -0.007140065 0.30590627 0.5938908
000040 7a 28 47 3d b8 60 d4 3d e0 75 a6 3e c5 df b4 3d
       0.048622586 0.1037001 0.32511806 0.08831743
000050 66 a5 6a 3e 62 ff 8f ba ba eb 16 3e ec 10 3c 3f
       0.22914657 -0.0010986144 0.1473836 0.7346332
000060 24 e5 4a 3d 08 58 df 3d 99 23 2b 3f 59 62 18 bc
       0.04953493 0.109054625 0.6685119 -0.009300792
000070 a6 62 a7 3d 4a 0a 75 3f ec 01 24 3e 9d 0b dd 3d
       0.081731126 0.95718825 0.16016358 0.10793231
000080 da 30 82 3e ac 95 ee 3d 63 c8 0a 3e a5 6c a6 3e
       0.25427896 0.116496414 0.13553004 0.32504764
000090 98 18 1c 3f 5a c8 4d 3e 77 b1 8b 3d 82 6e 21 3e
       0.6097503 0.2009596 0.06820958 0.15764812
0000a0 7c 3e 96 3d d1 cf ab 3b ab 8b a9 3f d6 9d 3e 3d
       0.07336137 0.0052432795 1.3245748 0.046537243
0000b0 0d d1 07 3d dd 6a 4f 3e 45 a6 2b 3d 61 37 15 3e
       0.03315835 0.20255609 0.041906614 0.14571907
0000c0 92 50 0c 3e 3e 90 e6 3d a9 8f e1 3c 74 26 cf 3d
       0.1370261 0.11257981 0.027534323 0.10114756
0000d0 1a 2a 8a 3e b5 53 ec 3e 52 0a b3 3d 67 83 a8 3f
       0.26985246 0.46157613 0.08742203 1.3165101
0000e0 ef ed 02 3e 67 03 f9 3c bc 2f 2e 3e 43 b1 5b 3e
       0.12786077 0.03039713 0.17010397 0.21454339
0000f0 9d de fd 3d 2a df 21 3e 21 d4 ce 3c 76 4d c9 3d
       0.12395976 0.15807787 0.025247635 0.098292276
000100 f3 64 53 3d a8 9b 8c 3f a6 53 81 bb 21 53 96 3d
       0.051609945 1.0985003 -0.0039467392 0.07340074
000110 35 8e 6d 3d db d7 85 3d 8a 69 0d 3e 5e 70 07 3e
       0.057996947 0.06535312 0.13809791 0.13226458
000120 87 6e 38 3e c2 f9 c7 bd 5f 89 e4 3d 24 17 fa 3e
       0.18010913 -0.097644344 0.11159014 0.4884578
000130 02 78 1d 3d dd 61 d5 3e b6 d3 a2 3e f6 8c 2b 3f
       0.038444526 0.41676226 0.31802148 0.67011964
000140 6b aa 45 3e f0 c1 a4 3d 3c ff b1 3d 06 1e 0b 3e
       0.1930329 0.08044803 0.0869126 0.13585672
000150 4f d2 c8 3c eb 68 1b 3b 91 cc 0a 3e ed cc 99 3e
       0.024514345 0.002371366 0.13554598 0.30039158
000160 79 0c 55 3d 5d 51 a3 3d 9a 5a 71 3f bd 12 d9 3d
       0.052013848 0.07974503 0.9427887 0.10599277
000170 3d e4 c3 3a 3f 8b ab 3f 91 d8 d2 3e 7f 02 c3 3e
       0.001494534 1.340187 0.41180852 0.38087842
000180 4b c6 85 3d f2 67 88 3d c2 92 2b 3d 46 7e a5 3e
       0.06531962 0.06660451 0.041888006 0.323229
000190 82 a2 0f 3f 24 f7 a5 3d a6 fd 29 3e 8f 1d ac 3c
       0.5610734 0.08103779 0.16600665 0.021010188
0001a0 63 e6 b9 3d 06 17 42 3b 32 de ae 3d 88 24 1d 3f
       0.09077146 0.0029615774 0.08538474 0.6138387
0001b0 36 60 8e ba 26 e7 6c 3e e5 ff f1 3b 08 f6 b7 3d
       -0.0010862413 0.23135051 0.0073852413 0.089824736
0001c0 9e 4e 0a 3e 9f 28 74 3e a3 a7 86 3e 53 d3 c5 3d
       0.13506553 0.2384362 0.26299772 0.096594475
0001d0 42 ac 70 3d 75 5c 03 3e 02 87 0f 3f c8 e9 91 3e
       0.058758028 0.12828238 0.5606538 0.28498673
0001e0 48 e6 81 3d b0 d7 4c 3e f1 69 ca 3e 93 f0 5d 3f
       0.06342751 0.20004153 0.39533952 0.8669521
0001f0 7d 5d ec 3d 6a de e8 3d aa ee f5 3e c4 9e e4 3c
       0.11541269 0.11370547 0.4803365 0.027907737

bn1.bias f4 [128]
000000 4f af de 3b 82 98 59 3c 16 76 a7 bc 20 fc 16 3d
       0.0067958008 0.01328099 -0.02044205 0.03686154
000010 ee d8 1b 3b e6 66 26 3d ba 76 5a 3d ab 10 bc 3e
       0.0023780423 0.040625475 0.053335883 0.36731467
000020 dd 51 5b 3e 49 52 ed 3d 34 88 42 39 95 cf b6 3c
       0.21417947 0.1158796 0.00018552021 0.02231578
000030 1b de ca 3a 98 b0 3b bb bc c1 08 3e 48 76 25 3e
       0.001547757 -0.0028639194 0.13355154 0.16158402
000040 86 80 d6 3b 3e 21 8d 3d 53 ec 46 3d 5c 96 0b 3c
       0.006546083 0.06891106 0.04856522 0.008519735
000050 d6 c3 8d 3d 23 6a 62 ba 7b 21 01 3e ae d6 6c 3e
       0.06922118 -0.00086370314 0.12610428 0.23128769
000060 6b 7c d9 3b 6c 49 85 3d 80 6c f0 3e 2c 0d 95 39
       0.006637146 0.06508145 0.4695778 0.00028429308
000070 f1 27 a2 3c 34 56 04 3f cb f1 3e 3d 24 ce d4 bc
       0.019794436 0.51694036 0.04661731 -0.025977202
000080 61 d3 9e 3e cd 07 0d 3d bc 44 37 bc cd 55 54 3e
       0.31020644 0.034431268 -0.011185821 0.20735855
000090 ff 3f da 3e d9 74 a4 3d 4b ac 92 3c 18 59 c6 3c
       0.4262695 0.080300994 0.017904421 0.024212405
0000a0 b2 f0 29 3c b5 d0 a8 38 47 40 17 3f 06 f4 4e bc
       0.010372328 8.049739e-05 0.59082454 -0.012631422
0000b0 47 53 ed 3c a6 4a 32 bc 99 db 9a bb 7e b8 81 3d
       0.028970374 -0.010882055 -0.004725885 0.06334017
0000c0 f1 e5 08 3d 0d cc 1c 3d 91 b3 b3 3c 0c 28 9f 3c
       0.033422414 0.038280535 0.02193621 0.019428276
0000d0 04 1c 4d 3e 10 a8 85 3e 11 61 e0 3a e3 2e 12 3f
       0.20030218 0.26104784 0.0017118772 0.57102793
0000e0 7a 27 23 3d e7 fe a3 3b cf 34 95 3d 5a ca fb 3d
       0.03983257 0.005004752 0.07285463 0.12294455
0000f0 ea cb 4e 3d c5 50 5b 3d 40 95 7d 3c 0f 48 4d 3d
       0.050487436 0.053543825 0.0154774785 0.05011755
000100 cb 56 34 3c 05 92 25 3e 26 9e b1 ba 97 94 9e 3c
       0.011007021 0.16168983 -0.001355116 0.019357963
000110 29 fc b8 3c ca c2 af 3c f6 1b 9b 3d 53 72 37 3d
       0.022581177 0.021455187 0.075736925 0.044786762
000120 9f e8 b9 3d 1f 1c 17 bd 81 71 12 3d 05 18 a1 bd
       0.09077572 -0.036892053 0.035752777 -0.078659095
000130 3e 22 d2 3b 8f 50 7e 3e 9f 87 6b 3d 72 d3 05 3e
       0.0064127734 0.24835418 0.057502385 0.13068941
000140 3e b4 53 3d 5a ef 46 3c d3 09 a3 bb 95 16 68 3d
       0.051685564 0.012142027 -0.0049755364 0.05666216
000150 27 f1 f7 3b 5d 95 d8 b9 60 6d ac 3d 40 b7 2b 3e
       0.0075665894 -0.00041310015 0.08419299 0.16769123
000160 27 51 2f 3c d5 75 82 3c 5d bf e0 3e b1 2c 37 3d
       0.010700501 0.015925327 0.43896 0.044720355
000170 06 43 b1 ba fe 15 16 3f c1 7f 95 3e 36 76 96 3e
       -0.0013524003 0.5862731 0.2919903 0.29387063
000180 dd bc 7d 3c be 34 52 bb 8d 06 24 3c 8b 4d 8d 3d
       0.015486923 -0.0032074894 0.010011327 0.06899556
000190 02 fb c6 3e a9 1d 93 3c d5 cb b9 3d e1 a3 80 3b
       0.3886338 0.017958479 0.09072081 0.003925786
0001a0 81 1b 35 3d 39 73 c3 3b 39 b2 0e 3d 95 3d 0e 3f
       0.044215683 0.0059646633 0.034837935 0.55562717
0001b0 7e 47 58 3b a2 02 8c 3d 54 52 9f ba dc 34 17 3d
       0.0033001597 0.0683644 -0.0012155273 0.036915645
0001c0 f9 29 6f 3d d3 d4 7b 3d f8 72 73 3d be 14 10 3d
       0.058389638 0.061482262 0.059435815 0.03517603
0001d0 6c c7 91 3c 77 09 b1 bd f9 29 e7 3d 3d 79 31 3e
       0.017795287 -0.086443834 0.112873025 0.17331405
0001e0 35 6c e3 3c ec ee f3 3d 6b fd bc 3d d1 7c 20 3f
       0.027761558 0.11910805 0.09228023 0.62690455
0001f0 e2 83 67 3d b1 a7 34 3b e9 37 26 be 38 fa 03 3c
       0.056522258 0.0027565772 -0.16232266 0.008055262

bn1.running_mean f4 [128]
000000 b6 1d 36 3f 21 87 21 3f 2c 3d 23 3f 79 49 2a 41
       0.71139085 0.63096815 0.63765216 10.642938
000010 b8 5e bc 41 af ba 99 3f 5f 7d 0b 40 b8 c6 ea 3f
       23.54625 1.2010096 2.179527 1.8341894
000020 51 66 23 41 a2 62 2b 41 46 cd a2 3a ef 56 4f 3f
       10.21248 10.71158 0.0012420795 0.80992025
000030 6b be 14 3f fc 97 d7 40 61 77 f9 3f bc ee a7 41
       0.58103055 6.737303 1.9489557 20.99157
000040 ee 1a 43 3f f8 f3 6a 41 27 07 d9 3d d5 2a 05 3f
       0.76212966 14.684563 0.10597067 0.5201848
000050 ee d2 74 40 eb 3f bc 40 b1 b3 cd 40 84 49 88 3f
       3.8253741 5.8828025 6.428185 1.0647435
000060 75 ab 6b 3f b9 aa d0 40 ca 3a 42 41 4f 32 11 40
       0.920585 6.52084 12.139353 2.2686956
000070 b2 d5 41 40 c0 70 90 41 84 a7 07 40 fe 82 7c 41
       3.028668 18.055054 2.1195993 15.7819805
000080 25 dc b2 41 a3 3c d1 3f f7 cd e2 3f c5 c4 a0 40
       22.357492 1.634663 1.7719105 5.0240197
000090 f6 0e db 40 7f f2 c9 40 05 30 4a 3f 18 d4 fb 3f
       6.8455763 6.3108516 0.7897952 1.9674101
0000a0 2a 34 8c 41 0f 42 47 3e 90 e6 e8 41 0b ed f2 3f
       17.52547 0.19458793 29.11258 1.897859
0000b0 d6 c9 a1 41 84 82 1b 40 0b 96 5c 3f e3 00 73 40
       20.223553 2.429841 0.8616645 3.7969291
0000c0 b6 ad a4 41 de 68 8e 3f 3a 5d 7e 40 92 e4 01 40
       20.58482 1.1125753 3.97444 2.0295758
0000d0 2e a8 cf 40 88 64 4f 40 5b d6 b0 40 88 ac d5 41
       6.4892797 3.240511 5.5261664 26.709244
0000e0 01 91 a0 3f 37 c3 c9 3f 04 80 23 40 d2 60 67 40
       1.2544252 1.57627 2.5546885 3.6152844
0000f0 a1 21 a2 3f 35 56 0c 40 7a 0e 7e 41 3a 34 fa 40
       1.2666513 2.1927617 15.878534 7.8188753
000100 10 1f 28 40 98 95 4e 41 5f 8c a9 40 90 b2 87 3f
       2.626896 12.911522 5.298385 1.0601368
000110 99 98 a3 40 ea 53 28 3f ad d2 0d 41 a6 52 a2 3f
       5.1123776 0.6575304 8.8639345 1.2681472
000120 c5 70 0b 41 4d 92 a7 3f 82 93 d2 3f 6d c9 35 40
       8.715032 1.3091522 1.6451266 2.840419
000130 87 cb f6 40 7c 13 63 40 56 ef 22 3f 1e 51 ab 3e
       7.7123446 3.5480642 0.6364645 0.33460325
000140 93 da 53 3f 63 66 1a 3f 2d df 10 40 a7 4e 17 40
       0.8275539 0.6031248 2.2636216 2.3641756
000150 2a 64 71 40 e2 c6 7a 41 b5 f5 f5 40 0a 86 9f 40
       3.7717385 15.673555 7.6862435 4.985112
000160 aa 86 90 40 39 55 c2 3f 99 70 6a 41 78 62 17 40
       4.5164385 1.5182258 14.65249 2.365385
000170 f9 31 2f 41 43 d2 ef 41 6a 49 4d 41 77 81 97 40
       10.9497 29.977667 12.830423 4.734554
000180 67 7a 05 40 f8 b9 c9 3b 44 8b e6 40 67 14 4d 3f
       2.0855958 0.0061562024 7.2045 0.80109257
000190 26 9e 85 40 63 af 11 3f 94 e0 b2 40 62 da e8 3e
       4.175555 0.56908244 5.5899143 0.45479113
0001a0 2f 26 c1 40 e1 db b3 41 b8 ac 4e 40 87 81 30 40
       6.035911 22.482363 3.229292 2.7579057
0001b0 83 d5 9d 41 14 bb 85 3f 0e e8 bc 40 c6 67 93 40
       19.729254 1.0447717 5.903327 4.6064177
0001c0 6f 17 6f 40 41 65 3e 3f 6b 61 bc 3e 05 8e 32 40
       3.7358053 0.7437325 0.36793074 2.7899182
0001d0 99 44 11 40 d2 e9 eb 41 ff 75 b0 3e 6b da 11 40
       2.2698119 29.48917 0.34465024 2.2789562
0001e0 2e a8 9a 40 f8 50 a8 40 3e 40 d7 3e d3 e4 b0 41
       4.8330297 5.259884 0.420412 22.11173
0001f0 43 86 e0 40 82 c1 81 40 61 f7 8c 41 0a f1 8a 3f
       7.0163894 4.0548716 17.62079 1.0854809

bn1.running_var f4 [128]
000000 3e e9 e6 40 8f c0 ef 40 f9 98 bb 3f d4 04 0e 43
       7.215972 7.4922557 1.4656059 142.01886
000010 d8 e3 f1 42 3a 28 31 41 16 d1 01 42 0b bf a7 40
       120.94501 11.072321 32.454185 5.2420707
000020 ab 19 3f 42 94 c9 46 43 08 b5 9d 3a 59 72 b9 40
       47.775066 198.78741 0.0012032101 5.7952085
000030 20 34 a7 40 26 4e 08 43 20 c8 93 41 12 50 2a 44
       5.225113 136.30527 18.472717 681.2511
000040 c3 41 b0 40 fa 41 d4 43 1c e1 4a 3f 86 ff b3 40
       5.5080276 424.51544 0.7924974 5.624942
000050 48 bd cd 41 1a ff bc 42 59 8a 24 42 92 f2 28 41
       25.717422 94.498245 41.135105 10.559221
000060 36 93 50 41 e1 61 05 43 2b 7a 75 43 3b 1f 17 42
       13.03594 133.38234 245.47722 37.7805
000070 2b b8 54 42 f1 41 04 44 c7 a8 0c 42 31 66 2c 43
       53.17985 529.03033 35.16482 172.39919
000080 5b 1d 2f 43 23 dd 26 41 09 50 41 41 d9 e8 cc 41
       175.11467 10.428988 12.08204 25.613695
000090 db 78 c0 42 b7 a5 c0 42 13 a0 91 40 71 86 8e 41
       96.236046 96.32366 4.5507903 17.815645
0000a0 3f 4d 9f 43 71 e0 98 3f c7 2a a8 44 7b ca 3a 41
       318.6035 1.1943494 1345.3368 11.674434
0000b0 b4 c6 26 44 a0 12 82 41 f8 91 07 41 b6 ef 4d 42
       667.10474 16.259094 8.473137 51.484093
0000c0 ca 8d 03 43 6f c4 66 41 bb 74 91 42 a4 4f 16 42
       131.55386 14.422957 72.72799 37.577774
0000d0 4c 1e 95 42 a4 66 04 42 fc aa 3f 42 0f 7d 90 44
       74.55917 33.100235 47.916977 1155.9081
0000e0 82 d8 2e 41 ce 31 ee 41 c8 9d 22 42 ca 7f 05 42
       10.927858 29.774319 40.654083 33.374794
0000f0 85 4a 11 41 01 6b d8 41 f0 69 b9 43 9a 03 17 43
       9.080693 27.052248 370.82764 151.01407
000100 0f bf 44 42 59 61 8b 43 15 1d 71 42 d2 fd 26 41
       49.18658 278.76053 60.2784 10.436968
000110 08 55 54 42 8e 0b ad 40 bd 66 59 43 88 e0 82 41
       53.08304 5.4076605 217.40132 16.359634
000120 d0 b4 42 43 ae d9 23 41 be 22 b8 41 33 9a 90 40
       194.7063 10.240644 23.016964 4.518823
000130 1b 2a 3c 43 e3 88 04 42 aa 2f 08 41 27 90 73 40
       188.16447 33.13368 8.511637 3.8056734
000140 55 53 16 41 cb ae bd 40 26 d9 a0 41 a8 2e f9 41
       9.395345 5.927587 20.10603 31.147781
000150 7c 4b 91 42 2d 3b 53 42 85 00 13 43 f6 35 bb 42
       72.64743 52.80779 147.00203 93.60539
000160 e5 ab a1 42 b9 f0 96 41 cd 43 96 43 a6 30 cc 41
       80.83573 18.86754 300.5297 25.523754
000170 ef fa 97 43 f2 f6 ad 44 4a 49 44 43 c3 0a 0c 42
       303.96042 1391.717 196.28629 35.01051
000180 c8 bf 05 42 ad a9 7c 3c 1f 81 ed 42 9a 61 1b 41
       33.437286 0.015421313 118.75219 9.7113285
000190 de 7c 79 41 0e ff f4 40 c2 e2 e1 42 90 19 08 41
       15.592985 7.6561346 112.94289 8.506241
0001a0 d9 0f 0d 43 be ef 18 44 4f d1 de 41 96 b7 fc 40
       141.0619 611.746 27.852201 7.8974104
0001b0 d4 b6 0d 43 d4 f6 2e 41 04 57 23 43 22 cd 3e 42
       141.71417 10.935261 163.3399 47.700325
0001c0 88 88 7a 42 35 88 e9 40 13 82 45 40 1e 27 0f 42
       62.63333 7.297877 3.086064 35.7882
0001d0 6f 38 c3 41 65 6a 8e 43 40 60 40 40 a9 43 83 41
       24.402555 284.8312 3.0058746 16.408037
0001e0 f2 a0 94 42 a2 73 ad 42 00 2f b1 40 08 f8 40 44
       74.31435 86.725845 5.5369873 771.8755
0001f0 5a ae 3a 43 58 9f 36 42 b7 9a 04 44 2d 59 6d 41
       186.68106 45.65561 530.4174 14.834271

fc2.weight f4 [128, 130]
000000 f8 15 ef 3c 1f 4d 06 be c3 27 fd 3c 57 14 8b 3d
       0.02918528 -0.13115357 0.030902749 0.06790989
000010 a8 cb 3b 3d 0e db 80 bd 82 a7 85 3c 6d 65 d9 3c
       0.04584852 -0.06291781 0.016315226 0.026537621
000020 8d 89 40 bd 6a 75 1f be 1e 2c 81 3d 38 54 f6 bc
       -0.04700618 -0.15572134 0.06307243 -0.030069456
000030 26 af 11 3d f2 1a a7 3d ce a1 7f bd c5 90 08 be
       0.035567425 0.08159436 -0.06241017 -0.13336475
000040 6e 50 95 3b 06 cc b9 bc ea c6 b0 bd bb 45 89 bd
       0.004556707 -0.022680294 -0.0863169 -0.06702753
000050 27 db 44 bd de 5c a5 3d 39 0c 30 bd a9 91 d3 3c
       -0.048060562 0.08074354 -0.042980406 0.025826292
000060 19 a8 6a bd 9f 9e 4d bc e0 1b b5 bc a3 4b 50 3d
       -0.057289217 -0.012550025 -0.022108018 0.050853383
000070 80 e4 49 bd 13 96 9e bd 91 7c 31 3d 2b bd 59 bd
       -0.04929018 -0.07743468 0.043331686 -0.05315892
000080 9d 6b 38 be 7b 66 31 bb 78 5a c3 bb eb 3f 80 bc
       -0.18009801 -0.002706914 -0.0059617124 -0.015655478
000090 83 d0 9a bd f9 e3 31 3c da cb 2c 3b 40 35 9a bc
       -0.07559302 0.010857576 0.0026366622 -0.01882422
0000a0 4e b3 4e bd aa a1 da 3d 58 a9 ca 3d 72 c9 39 bd
       -0.050463967 0.10675366 0.09895581 -0.04535813
0000b0 ec 9e 0f be 89 15 84 3d ce ba 55 bd 72 78 2b bd
       -0.14025468 0.0644942 -0.052180104 -0.041862912
0000c0 40 64 5f bd 2f 36 c2 bd e5 62 48 bd 02 ba 00 3e
       -0.054538965 -0.09482991 -0.04892244 0.12570956
0000d0 dc e9 82 3d a6 da 55 bd ef 7c 04 bd 46 df 95 3d
       0.063922614 -0.052210473 -0.03234571 0.07317977
0000e0 6f a8 9e bd ae 18 0f 3e 44 e0 cc bd ad c2 1a 3d
       -0.0774697 0.13974258 -0.10003713 0.037783314
0000f0 79 72 23 bd a9 35 ea 3c 89 ce 78 bc 3a 09 1c bd
       -0.03990409 0.02859004 -0.015185961 -0.038094737
000100 c5 50 ed bc 77 d7 24 3d 08 23 84 bd 32 f3 33 bd
       -0.028969178 0.040244546 -0.06451994 -0.0439331
000110 7f 7b 78 3d 68 93 c2 bc f1 81 d8 3d a0 4f 27 3d
       0.06066465 -0.02375193 0.10571659 0.04084742
000120 7a 6d b5 bd 1f 4c b1 bc 64 e8 d5 bd ad c4 de 3d
       -0.088587716 -0.021642743 -0.104447156 0.10877357
000130 14 51 52 3d fb c9 ab 3d 0a a4 42 3d 2b f1 9c bd
       0.051346853 0.08388134 0.04751972 -0.07663187
000140 c8 fa 48 bc f2 f1 3f bd 85 8b b5 3a 8a a9 84 39
       -0.012266822 -0.046861596 0.0013850784 0.00025303318
000150 d6 37 21 bd 12 d5 92 3d e1 3f a4 3d 56 b3 f3 bd
       -0.03935989 0.07169546 0.080199964 -0.1189944
000160 8b 1e 74 3d f4 0f d3 bd 53 cf 3b bd 73 7e a6 bd
       0.05959944 -0.10305777 -0.045852017 -0.08129587
000170 f5 02 96 3d 45 f7 39 bc 5d 45 cb bc a9 cf 8d bd
       0.07324783 -0.011350458 -0.024813348 -0.06924374
000180 95 99 1e 3d 1b fc 8f bc 70 b0 8e 3d c7 c4 c0 bd
       0.038720686 -0.017576268 0.069672465 -0.09412532
000190 99 3b 63 3d e5 27 45 3d d8 c4 18 be 84 46 22 bd
       0.05547676 0.04813375 -0.1491884 -0.03961803
0001a0 de ca 9b bd e0 cf df bd 11 fa b8 3d ad 68 43 3c
       -0.07607053 -0.10928321 0.090320714 0.011926812
0001b0 b3 86 b3 3d 65 39 b7 bc 84 d2 eb 3b 2e ff 1e bd
       0.08765926 -0.022366235 0.0071967263 -0.038817577
0001c0 b9 f4 41 3d c2 f0 b5 bd ea 03 43 bd c6 f1 c8 bc
       0.047352526 -0.088838115 -0.047611155 -0.024529349
0001d0 21 e9 d3 3c 89 99 96 bc d4 60 97 bc 6c 5d ce 3d
       0.025868 -0.018383758 -0.018478788 0.100764126
0001e0 96 d2 88 3c 55 86 a8 3c c8 33 c7 bd 5c 4f e0 bd
       0.016701978 0.020571867 -0.09726673 -0.109526366
0001f0 f6 6e 91 bd 5c c4 42 bd 5b 4b 41 bd 83 92 5c bd
       -0.07101242 -0.047550544 -0.047191005 -0.053850662
000200 93 8d eb bc ad 9c e4 3c b6 02 e8 bd fc 9c eb bd
       -0.028754031 0.02790674 -0.11328642 -0.11504552
000210 30 bd 60 3d 4c d7 19 be b4 0c ae bd f4 ed 38 3a
       0.054867923 -0.15023535 -0.08498517 0.0007054501
000220 f1 1d 66 bb 2b eb ad 3a 19 ba 73 bb 83 96 8b be
       -0.0035113061 0.0013268938 -0.003718978 -0.2726327
000230 51 7a 1a bd 80 07 e4 3c 44 ad b7 bd 89 7d c5 3d
       -0.037714306 0.027835608 -0.08968595 0.096430846
000240 a0 75 8d be 40 a8 fa 3c d9 71 5c 3d 6e 60 1c be
       -0.27628803 0.030597806 0.05381951 -0.1527116
000250 10 a7 11 be fe 6c 84 bd 3c e5 60 3d 1f 19 99 bd
       -0.14223886 -0.06466101 0.054906115 -0.074754946
000260 f0 3d 07 bd 7e 4e 2d 3d 3e e9 31 be d5 9b c3 bd
       -0.033018053 0.042311184 -0.17374131 -0.09551207
000270 7e 0d 00 3a 2c 14 ae 3d ff 4f 6d bd 1c e8 d7 bd
       0.0004884823 0.08499941 -0.05793762 -0.10542318
000280 cd d9 67 3c 84 b1 c3 bd a2 b4 82 bd 97 22 68 3d
       0.014151049 -0.09555343 -0.06382109 0.056673612
000290 1c 13 fa 3d ae 67 0c be eb cd 80 be 6f 11 35 be
       0.12210676 -0.13711426 -0.25157103 -0.17682432
0002a0 5e a2 1b 3e d0 92 d2 3a 45 7b 26 bd b9 6b 28 3e
       0.15198657 0.0016065482 -0.040644903 0.16447343
0002b0 c4 df 53 3d bd 16 a6 bd 41 e6 45 bc 80 95 87 3d
       0.05172707 -0.08109806 -0.012078823 0.06620312
0002c0 ae ad fb 3d 96 6b 59 bd 2e ab 52 bd 70 64 1f bd
       0.12288986 -0.053081118 -0.05143278 -0.038914144
0002d0 4c 41 72 3b 38 6d 2f 3e 7d 46 df bc da 4a b8 bd
       0.003696519 0.17131507 -0.027255291 -0.08998652
0002e0 87 9d 01 bd be 49 1c bd 28 4a 0d be d9 e7 e6 3d
       -0.03164437 -0.038156264 -0.1379782 0.1127469
0002f0 57 93 ad bd 21 12 40 bd 5f ee 56 3d 11 4f 91 bd
       -0.084753685 -0.04689229 0.052473422 -0.07095159
000300 4d cb 00 be 62 42 8b be e4 b9 2c 3b 93 d7 25 3d
       -0.12577553 -0.27199084 0.0026355917 0.04048879
000310 c1 aa 97 3d 82 a2 16 3e 47 0b d8 3c 07 44 b9 bd
       0.074056156 0.1471043 0.026372565 -0.09046178
000320 72 02 a8 3b 60 c2 0b bd e5 a2 d9 bd f3 a8 17 bd
       0.0051272446 -0.034120917 -0.10626773 -0.037026357
000330 d4 7d bf bd 60 5e a8 3c a8 0c 45 3d b3 56 15 3e
       -0.09350172 0.020552814 0.048107773 0.14583854
000340 e3 6d a5 bd 33 5a 94 be cb 5d b6 bd 35 ba 8d bd
       -0.080776 -0.28975067 -0.08904608 -0.06920282
000350 36 ef 12 3e 5b eb 8e 3d a4 10 29 3d cb 57 85 3d
       0.14349064 0.06978484 0.041275635 0.06510886
000360 a6 08 6f 3e 99 d3 08 be 64 2b 5b 3d 51 4f 45 bd
       0.23343143 -0.13361968 0.053508177 -0.048171345
000370 dc d7 bd 3d 21 2e 01 be 54 9a 73 bd aa ba b7 bc
       0.092696875 -0.12615253 -0.05947335 -0.022427876
000380 ce cd 16 bd 0d c9 e0 bc 7f 7a 23 3e c6 56 a3 3c
       -0.036817364 -0.027439618 0.15964697 0.019938838
000390 a1 47 41 3e 2c b9 03 be cb 25 86 bd a7 2b 98 bd
       0.1887498 -0.12863606 -0.06550177 -0.07430201
0003a0 21 a5 90 bd 70 20 3a 3e 0c 08 a8 bd 2a ad bf bd
       -0.07062746 0.18176436 -0.0820466 -0.093592
0003b0 50 17 9e 3d ba 06 26 be 4e 56 0b bd 0c 51 68 bd
       0.0771929 -0.16213503 -0.034017853 -0.056717917
0003c0 fc 3a 7b bc d9 ae bb 3d e1 ab 14 bd c8 ca d6 bb
       -0.015333887 0.09164209 -0.03629673 -0.006554935
0003d0 e5 48 17 bd 79 4a 82 3d 6b e5 47 be 52 f8 49 3c
       -0.036934752 0.06361861 -0.1952111 0.012327271
0003e0 67 9d b4 bd 99 7e ae 3d a7 2c b4 bd 31 ae 9a be
       -0.088190846 0.0852024 -0.08797579 -0.30211022
0003f0 16 8e 89 be 8b c8 10 be a9 0d 91 bd 30 ba b0 bd
       -0.26866215 -0.14139001 -0.070826836 -0.086292624

fc2.bias f4 [128]
000000 b3 23 8b be a4 09 9c be e6 9a 81 be 4c 89 4d bf
       -0.27175674 -0.30476105 -0.2531349 -0.80287623
000010 ed 23 c2 be 39 5b 65 3e c0 b1 2d bf 92 ba 01 be
       -0.37918034 0.2239808 -0.6784935 -0.12668827
000020 9f df 09 bf 92 fe 0a bf 40 8a 8c be d2 7a c3 be
       -0.53856844 -0.54294693 -0.27449226 -0.38179642
000030 79 ad 67 be ec fc 8e be 44 68 b4 be e2 ff da be
       -0.22624768 -0.2792734 -0.35235798 -0.42773348
000040 08 c6 73 be 39 22 aa be 44 4b 8f be 27 bb a4 be
       -0.23806012 -0.33229235 -0.2798711 -0.32174036
000050 f8 50 2c bf 7a 71 f7 be 32 2c 8b be 0d f5 c7 be
       -0.6731105 -0.48328763 -0.27182156 -0.39054146
000060 aa a6 a2 be 85 38 95 be 45 16 50 be 3e b7 c9 be
       -0.3176778 -0.29144683 -0.20320995 -0.39397615
000070 ee 9e 3f bf 64 4b 87 be ce b4 e6 3c 48 a3 d2 be
       -0.7485188 -0.26424706 0.028162386 -0.411402
000080 e1 8e a5 be 11 e0 5e be e3 2b 42 be a9 c1 a4 be
       -0.3233557 -0.21765162 -0.18962054 -0.32179
000090 f3 78 a1 be 75 b5 72 be ad 02 56 bd 5f f9 50 be
       -0.3153759 -0.23702033 -0.052248646 -0.20407628
0000a0 ee 93 7c be 4e 11 43 be a5 7c 9b be 64 f6 0d bf
       -0.24665806 -0.1904957 -0.30368534 -0.5545409
0000b0 11 a1 3c be a2 06 83 be a4 3d 5c be 4e 90 80 be
       -0.18420817 -0.25590998 -0.21507889 -0.25110096
0000c0 75 51 e8 be 68 d9 7d be f1 f4 aa be 43 5a 1d bf
       -0.45374647 -0.24789965 -0.3339 -0.61465853
0000d0 25 c7 98 be b4 bd 7d be 31 1d 0c bf 94 8e 9e be
       -0.29839435 -0.24779397 -0.5473204 -0.30968153
0000e0 96 b0 c8 be ef 3e 89 be ca ec 18 bf 6e d8 6a be
       -0.39197224 -0.26805827 -0.5973631 -0.22934124
0000f0 18 a3 7e be 4d 69 d7 be f9 72 d8 be 51 4b b8 be
       -0.24866903 -0.42072526 -0.42275217 -0.35994962
000100 2d b7 9c be 9c 5b 73 be 5c 66 1e bf 35 89 af be
       -0.30608502 -0.23765415 -0.6187494 -0.34284368
000110 a3 66 0e bf 05 e1 f3 be 38 98 9b be 16 72 85 be
       -0.5562536 -0.47632614 -0.3038957 -0.26063603
000120 a5 f6 20 bf ec 43 f9 be a4 e0 c5 be a8 c4 d7 be
       -0.6287635 -0.48684633 -0.3864795 -0.42142224
000130 2c aa 91 be 64 99 c2 be 7a 94 9b be 39 49 dd be
       -0.28450143 -0.38007653 -0.30386716 -0.43219927
000140 6d 8f 95 be 71 a5 ad be a2 36 79 be ac b2 4d be
       -0.29210988 -0.33915284 -0.24337247 -0.20087689
000150 c0 02 a6 be 42 b5 9e be 8b f6 9a be 81 ed 8b be
       -0.32423973 -0.30997664 -0.30266222 -0.2732964
000160 ad 4f 96 be b5 24 87 be c7 72 8f be 7d 2c b6 be
       -0.29357663 -0.26395193 -0.28017256 -0.35580817
000170 b1 15 89 be 79 e2 9d be ef 07 87 be e7 f5 e7 be
       -0.26774362 -0.30836847 -0.2637324 -0.45304796
000180 59 c6 a8 be 9d 5e 49 be 21 ec 05 bf 62 79 fb be
       -0.32963827 -0.19664998 -0.5231343 -0.49116045
000190 2a 61 b4 be b0 06 c4 be 1d 5b 6e be 42 02 4f be
       -0.3523038 -0.38286352 -0.23276944 -0.20215705
0001a0 2e e2 96 be ad ba 9d be 55 72 94 be 19 e0 57 be
       -0.29469436 -0.30806485 -0.28993478 -0.2108158
0001b0 0e a2 b9 be 5b f1 8b be 39 c2 7d be dd 53 b6 be
       -0.3625645 -0.27332577 -0.24781121 -0.35610858
0001c0 9a 0a 1e bf 47 63 a5 be d0 46 8b be 04 cb 7d be
       -0.61734927 -0.32302305 -0.27202463 -0.24784476
0001d0 6d 6f ab be 86 64 96 be 55 e2 80 be 2c dd 87 be
       -0.3348345 -0.29373568 -0.25172678 -0.26535928
0001e0 4e f2 53 bf 2a 5d 80 be de 08 9f be 19 69 3a bf
       -0.827916 -0.2507108 -0.31061453 -0.72816616
0001f0 b3 d9 8a be e4 60 c8 be c9 e6 80 be 44 30 50 be
       -0.27119216 -0.39136422 -0.25176075 -0.20330912

fc3.weight f4 [1, 128]
000000 42 58 d2 3b 6a 4f 42 bb cb 12 15 bd 12 7f d2 3d
       0.0064192126 -0.0029649385 -0.036394875 0.10278143
000010 3b b2 23 bc 59 7a b8 bc 9b 6d 4d 3d 8f ee 39 3d
       -0.009991224 -0.022519277 0.050153356 0.045393523
000020 c7 cf 50 bd 32 3b 75 3d fd 64 70 3c 62 0c 1c bb
       -0.050979402 0.059870906 0.014672515 -0.0023811092
000030 9f cb 78 3c 90 b3 72 3c 3d b2 51 bd 8f 4d 08 bb
       0.015185266 0.014813319 -0.051195372 -0.0020798182
000040 f0 74 25 bc 93 8e cd 3b 89 9d 3d bd 79 78 0b 3b
       -0.010098681 0.0062730997 -0.046292815 0.0021281524
000050 30 fb 1d 3d 18 52 64 3d ec 09 03 bc a5 e2 c3 bc
       0.03856963 0.055742353 -0.007997971 -0.023911783
000060 5a e6 c0 bc f7 f9 d1 bc 2c d4 1c 3c 84 ef 8e bc
       -0.02354734 -0.025631888 0.00957207 -0.017448194
000070 a0 db bd 3d 3a d6 45 bc ac 77 09 3d 12 ad ad 3c
       0.09270406 -0.012075001 0.033561394 0.02120069
000080 29 b2 68 bd b0 57 1b bc 09 bf 5e 3c 45 d0 11 3c
       -0.05681053 -0.009481356 0.013595351 0.008899753
000090 38 c0 57 bd d8 f2 7c bb 48 8e 61 3c 4d 17 91 3c
       -0.05267355 -0.0038596895 0.013766833 0.017711306
0000a0 74 86 10 3c 31 30 5b bc ef 6f 18 3c 57 2e 10 3e
       0.008821119 -0.013378189 0.009304031 0.14080177
0000b0 98 87 68 bc 47 de d8 3c 35 4f 9e 3c 8e 6d 07 b9
       -0.014192484 0.026473178 0.019324878 -0.00012915416
0000c0 af c9 a7 bb 4f 70 8d 3c b6 27 91 3b d9 37 b4 3c
       -0.005120478 0.017265467 0.0044297827 0.021999286
0000d0 39 ee 1f bc d9 30 9f 3a 9d 61 da 3c bf e1 e8 3c
       -0.009761387 0.0012145295 0.026657874 0.028427957
0000e0 eb c8 bc 3b f1 bb b7 bb 67 7f 03 3e 10 74 0f bb
       0.005761256 -0.005607121 0.12841569 -0.0021889247
0000f0 4b a8 16 3b 9f cf 90 3d 0b 7d 92 3c 1e ba 07 3a
       0.0022988494 0.070708506 0.01788189 0.0005177575
000100 9f 7a e3 bd 8e 87 d5 3c b6 e5 94 bd 3c 1e 25 bc
       -0.111073725 0.026065614 -0.072703764 -0.010078009
000110 ca a8 9c 3c 4f 2b e0 bc 96 da c6 3b c9 41 a0 3b
       0.019123454 -0.027364401 0.006068538 0.0048906547
000120 39 6a 17 bd e3 03 ba bd cf 7e a3 bc 4e 24 b7 bc
       -0.036966536 -0.090827726 -0.019957928 -0.022356179
000130 cd b0 dd 3a 82 80 f9 bc ba 29 2e 3c c2 62 1a 3d
       0.0016913653 -0.030456785 0.010630066 0.03769184
000140 ca 1d d5 3a 47 1f 12 3c fd de dd b8 19 ba 06 bc
       0.0016259488 0.00891859 -0.00010579636 -0.00822308
000150 55 a5 78 3c d7 6d 5a 3c 04 a5 a3 3c c0 cb a7 3c
       0.015176137 0.013331852 0.019976147 0.020482898
000160 dc c7 ad 3c 4c 1b f8 3c da 42 c0 bc 7f 0e c2 bc
       0.021213464 0.030286454 -0.023469377 -0.023688553
000170 3c c8 b9 3b 67 64 e7 3c 67 1d 41 3c 82 db 64 3e
       0.0056696218 0.028246118 0.011786795 0.2234936
000180 50 3b 52 b9 54 fc da 3a 43 1c 53 bd b7 26 dc bd
       -0.00020049256 0.001670728 -0.051540624 -0.10749572
000190 8f 56 87 3c 69 03 95 3a ff 05 76 bb c9 e9 c8 3b
       0.016520767 0.0011368814 -0.0037540195 0.006131385
0001a0 24 a2 93 bb fa 3f 94 bc 2d 28 6c bd 52 62 f3 bc
       -0.0045054127 -0.018096913 -0.057655502 -0.029709969
0001b0 4b 15 92 ba a9 0a 89 bb 87 07 40 3c 65 0e 2c 3a
       -0.0011145262 -0.004182179 0.011720545 0.0006563424
0001c0 19 84 78 3d f5 fd 43 bd aa 88 ea bc 74 6b d4 bb
       0.060672853 -0.047849614 -0.02862962 -0.006482536
0001d0 23 e8 80 bc b5 d5 8f 3d 38 9f 7e bc b3 28 66 bc
       -0.015735691 0.07023183 -0.01554089 -0.014047789
0001e0 11 83 36 3d 5f 4b 32 bc fa 4d 2a 3c 5f 0a a5 bc
       0.04455859 -0.010882228 0.010394568 -0.020146547
0001f0 41 d6 76 bc a4 cc 64 3d a5 a6 52 bc ed 7b ad 3d
       -0.015065731 0.055859223 -0.012857114 0.084709026
